rl_agent_weights.pth (torch, 132790 bytes, 10 tensors)

fc1.weight f4 [128, 13]
0.1507785 -0.02778595 -0.16797933 0.23354897 0.074744485 0.09166604 -0.05077158 0.1263584
0.24038798 0.069377 0.24044113 0.2782096 0.20326301 -0.14133717 0.014151021 0.067041464
0.14464761 0.017426426 -0.21965581 -0.20556346 -0.20777945 -0.16760679 -0.02108572 -0.2767349
-0.25016326 -0.2403038 -0.20054395 -0.20179842 -0.2788974 0.11074803 0.03935857 -0.08540389
-0.17760608 -0.11638642 0.04739598 0.038418118 -0.22604842 0.010555474 0.27126062 -0.15821077
0.13818187 -0.11277616 -0.2517597 0.25793713 0.078490265 0.07785217 -0.013969623 -0.0682712
-0.15021594 0.20442711 0.2924594 0.21980916 0.17923537 0.27865708 -0.22810665 0.25540584
0.18492214 -0.10914622 -0.2155869 -0.13154297 0.19351217 0.008196702 0.22594929 0.1392467
-0.16108929 -0.03301926 0.126924 -0.1227485 0.010326521 0.21822073 0.199555 0.19923419
0.18381801 -0.23815072 0.30563936 -0.19081728 -0.07733516 0.17004547 0.2760901 -0.25031707
-0.20895116 -0.21472691 0.19137333 -0.21621162 0.104334645 0.20654528 0.22269833 0.023195004
0.18890086 0.08086175 -0.23852584 0.031129612 -0.27382612 -0.036271546 -0.052478902 0.108514875
0.017538436 0.2223926 -0.0944971 -0.12940994 -0.0025131404 -0.12595478 0.02380619 -0.14415608
-0.07679559 -0.11295885 0.008927156 0.23258224 0.11848971 -0.23605858 0.15620789 -0.19149993
-0.20094404 -0.10918365 -0.08076922 0.111744724 -0.17770536 -0.11937606 0.26570797 -0.22098595
-0.27705944 -0.1126023 -0.10375735 -0.19648519 0.21900745 0.2522657 -0.04830405 -0.2824328
-0.080554605 0.23841374 0.10716216 0.22581396 0.20393766 -0.015262214 0.086922355 -0.18258429
0.09250486 0.12164875 0.10191691 -0.060666922 0.2492619 0.08818937 0.07499359 0.018786991
-0.06586825 -0.09901157 -0.0027108444 -0.039330903 -0.078954175 -0.11077247 -0.010346148 0.14410028
0.015856974 -0.06765182 -0.10644856 -0.12907773 0.2724573 -0.23991714 0.26678705 -0.018553456
0.10215314 0.137939 0.24426945 0.004128496 0.2790598 0.18004844 0.26500174 0.04754646
-0.010073776 -0.10102615 0.124902084 -0.09032312 -0.26878914 -0.17299218 -0.21222079 -0.057932872
-0.047253586 -0.15572251 0.11931376 0.045303516 -0.18729089 0.028253077 -0.13296342 0.22552717
-0.09271835 -0.055012323 0.24482617 -0.14313896 0.06250376 -0.09001436 -0.16628617 -0.10376506
0.069769986 -0.24044716 0.06837651 0.12621905 0.24774912 0.091412194 -0.16102998 -0.094348095
-0.25307536 0.080594055 -0.11510788 0.054115266 -0.045576345 -0.21519768 0.038216796 -0.15776163
-0.25754282 0.18360429 0.059228428 0.18326004 0.07088447 -0.08659174 -0.072715044 0.093249895
-0.0115471175 -0.23010588 0.01873782 0.214867 0.19494317 0.23035014 0.013827195 0.08305013
-0.0064720036 0.09687345 -0.045590863 0.19449614 -0.16770792 0.18534198 -0.23452841 0.17236736
0.014725385 0.06503778 -0.09550538 0.25990027 0.22844067 0.20162672 -0.010716449 0.21970424
0.22407031 -0.2001005 -0.103791274 -0.09728015 -0.24852468 -0.10892745 -0.092446946 0.17418967
0.23186292 0.008473553 0.04234339 0.27907583 0.2618795 -0.05608827 -0.23195894 0.12429917
00000000: ae65 1a3e 5c9f e3bc c602 2cbe 7627 6f3e
00000010: a313 993d 68bb bb3d dcf5 4fbd 1964 013e
00000020: 4428 763e 8715 8e3d 3336 763e 7d71 8e3e
00000030: 2e24 503e b1ba 10be afd9 673c 094d 893d
00000040: 811e 143e ddc1 8e3c 74ed 60be 3a7f 52be
00000050: 23c4 54be 1da1 2bbe f6bb acbc 32b0 8dbe
00000060: 6615 80be 3312 76be 655b 4dbe 3fa4 4ebe
00000070: a4cb 8ebe ddcf e23d 7436 213d 3ce8 aebd
00000080: 5ede 35be 015c eebd 4a22 423d 515c 1d3d
00000090: 3d79 67be def0 2c3c ace2 8a3e 0102 22be
000000a0: 8c7f 0d3e 30f7 e6bd a6e6 80be 5610 843e
000000b0: 81bf a03d f570 9f3d d8e0 64bc c5d1 8bbd
000000c0: 35d2 19be 5755 513e 3dbd 953e a715 613e
000000d0: 7a89 373e 24ac 8e3e ca94 69be 8ec4 823e
000000e0: 3b5c 3d3e 0e88 dfbd d0c2 5cbe 33b3 06be
000000f0: 0e28 463e 764b 063c 405f 673e b096 0e3e
00000100: 97f4 24be 343f 07bd 5df8 013e 9163 fbbd
00000110: 9130 293c 4175 5f3e 2558 4c3e 0c04 4c3e
00000120: ca3a 3c3e c8dd 73be c37c 9c3e 9b65 43be
00000130: e561 9ebd 6620 2e3e ae5b 8d3e 8f29 80be
00000140: 4bf7 55be 5fe1 5bbe 5ff7 433e 9466 5dbe
00000150: 67ad d53d 9b80 533e 080b 643e 7303 be3c
00000160: 3a6f 413e d89a a53d 1e40 74be 8703 ff3c
00000170: f032 8cbe 7991 14bd 1ef4 56bd 0c3d de3d
00000180: c4ac 8f3c e3ba 633e b287 c1bd 0a84 04be
00000190: 80b3 24bb 4afa 00be 3305 c33c a79d 13be
000001a0: 0247 9dbd f856 e7bd 3543 123c 0a2a 6e3e
000001b0: bcaa f23d 57b9 71be f6f4 1f3e 8f18 44be
000001c0: 46c4 4dbe ad9b dfbd 556a a5bd 6bda e43d
000001d0: 65f8 35be 707b f4bd e00a 883e 244a 62be
000001e0: bcda 8dbe 099c e6bd bc7e d4bd 6a33 49be
000001f0: 7d43 603e f828 813e 78da 45bd 089b 90be
00000200: d0f9 a4bd bb22 743e d677 db3d c63b 673e
00000210: 09d5 503e 5d0e 7abc 5904 b23d 60f7 3abe
00000220: 3073 bd3d fb22 f93d d0b9 d03d e17d 78bd
00000230: 833e 7f3e a19c b43d 3d96 993d 2de7 993c
00000240: efe5 86bd 94c6 cabd 6ca8 31bb 7119 21bd
00000250: bab2 a1bd addc e2bd e482 29bc 068f 133e
00000260: 7ce6 813c 0a8d 8abd b401 dabd f42c 04be
00000270: 867f 8b3e d7ac 75be 5098 883e 6bfd 97bc
00000280: aa35 d13d e23f 0d3e c521 7a3e 5648 873b
00000290: ede0 8e3e 9e5e 383e 4fae 873e 14c0 423d
000002a0: 7b0c 25bc cce6 cebd aacc ff3d 54fb b8bd
000002b0: bb9e 89be dd24 31be 6850 59be 054b 6dbd
000002c0: fa8c 41bd b975 1fbe c65a f43d 2e90 393d
000002d0: 2fc9 3fbe ff72 e73c 9027 08be 98f0 663e
000002e0: 1ee3 bdbd 9a54 61bd b6b3 7a3e 0593 12be
000002f0: f901 803d 7359 b8bd ec46 2abe c782 d4bd
00000300: 91e3 8e3d c837 76be fc08 8c3d 913f 013e
00000310: f2b1 7d3e 5136 bb3d 0be5 24be 9339 c1bd
00000320: 1893 81be 7f0e a53d aebd ebbd f8a7 5d3d
00000330: 43ae 3abd c85c 5cbe 3789 1c3d 448c 21be
00000340: a7dc 83be c302 3c3e 8299 723d 85a8 3b3e
00000350: e12b 913d 0357 b1bd a0eb 94bd cdf9 be3d
00000360: 1f30 3dbc e0a0 6bbe 0f80 993c 1806 5c3e
00000370: 2f9f 473e e8e0 6b3e 768b 623c 3016 aa3d
00000380: 1a13 d4bb 9665 c63d 7cbd 3abd ff29 473e
00000390: a0bb 2bbe 4aca 3d3e 3728 70be 1281 303e
000003a0: be42 713c 8732 853d 5398 c3bd a611 853e
000003b0: 5aec 693e 3c77 4e3e 0b94 2fbc 26fa 603e
000003c0: b072 653e 25e7 4cbe 8590 d4bd d13a c7bd
000003d0: 417d 7ebe 5b15 dfbd d354 bdbd c75e 323e
000003e0: 796d 6d3e a8d4 0a3c 4370 2d3d 07e3 8e3e
000003f0: 1215 863e d0bc 65bd a586 6dbe 9090 fe3d

fc1.bias f4 [128]
-0.0033409328 0.084811404 0.18193777 -0.21679159 -0.041542493 0.24915487 0.25342765 -0.09854509
0.07882321 -0.059593122 0.2951438 -0.17005196 0.0009845791 0.046847112 0.28645736 -0.11816639
-0.22848088 0.16505325 0.15427832 0.048435494 -0.13462222 0.13660981 0.089918494 0.18227382
-0.1802491 -0.09553424 -0.2285302 0.30777207 0.20137815 0.017259562 0.036292948 -0.03172906
-0.08128144 -0.034422427 -0.083356105 0.13104106 -0.003491285 -0.17495582 0.28244507 0.02827534
0.15688653 0.033142887 -0.24981415 -0.1264924 -0.1127265 -0.23557766 0.0054201814 -0.121920876
0.10785549 0.17881697 -0.21934451 0.16357665 0.009000906 -0.19308425 0.22364421 0.112352096
-0.07795609 0.12128639 -0.18952325 -0.21667537 0.29716384 -0.22703035 0.05988145 0.2974075
-0.2705719 0.23359197 0.054062817 0.1859416 0.056611598 -0.08872546 -0.08071583 0.26847985
0.23829217 0.17975128 -0.21397586 0.05942767 0.088338435 -0.23175451 0.15071762 -0.21785547
-0.17965908 0.13795528 -0.19229473 0.29712567 0.26662636 0.025583427 0.18268827 0.071106136
-0.14695464 0.24630302 -0.2802039 0.07205611 0.12576194 -0.17491727 -0.19548965 0.16474827
-0.018081957 0.22225206 0.012391515 0.042168215 -0.063369736 -0.27673045 -0.046306677 -0.26466057
-0.1813566 0.15269792 -0.012251833 0.01136308 0.090423614 0.026385684 -0.24264893 0.1179423
0.15522747 0.08756021 0.034843434 0.2598572 -0.09563871 -0.26658785 -0.018137766 0.14282241
-0.2648272 0.016256707 -0.009374522 0.009542465 0.14656843 -0.21943326 -0.019646743 -0.19381116
00000000: 8df3 5abb 9ab1 ad3d e54d 3a3e 9dfe 5dbe
00000010: 7628 2abd 7422 7f3e 45c1 813e 02d2 c9bd
00000020: 106e a13d eb17 74bd 171d 973e 1a22 2ebe
00000030: fe0c 813a c2e2 3f3d 8aaa 923e 3801 f2bd
00000040: e4f6 69be b803 293e 23fb 1d3e 4c64 463d
00000050: 68da 09be 71e3 0b3e 3027 b83d fda5 3a3e
00000060: 3893 38be 75a7 c3bd d203 6abe 4d94 9d3e
00000070: 1336 4e3e ed63 8d3c eaa7 143d 55f6 01bd
00000080: e276 a6bd 88fe 0cbd 9bb6 aabd a12f 063e
00000090: 0bce 64bb 9e27 33be a49c 903e b0a1 e73c
000000a0: dda6 203e d6c0 073d 48cf 7fbe 3987 01be
000000b0: 27dd e6bd 453b 71be c79b b13b a7b1 f9bd
000000c0: 57e3 dc3d cc1b 373e d99b 60be a380 273e
000000d0: 8978 133c e1b7 45be fd02 653e db18 e63d
000000e0: 71a7 9fbd 0065 f83d 6212 42be 26e0 5dbe
000000f0: dc25 983e a57a 68be 4046 753d cc45 983e
00000100: 6688 8abe bc32 6f3e f970 5d3d 7a67 3e3e
00000110: 90e1 673d b2b5 b5bd 574e a5bd 3176 893e
00000120: dd02 743e b810 383e 7d1c 5bbe 6e6a 733d
00000130: c8ea b43d 0e51 6dbe b855 1a3e 8115 5fbe
00000140: 8df8 37be 2644 0d3e e9e8 44be db20 983e
00000150: 4083 883e 5694 d13c a212 3b3e 18a0 913d
00000160: 477b 16be dc36 7c3e e376 8fbe 2792 933d
00000170: bdc7 003e 831d 33be 702e 48be c5b3 283e
00000180: 9d20 94bc 0b96 633e c805 4b3c 94b8 2c3d
00000190: fec7 81bd 9daf 8dbe 12ac 3dbd 9781 87be
000001a0: 8bb5 39be d85c 1c3e eabb 48bc 362c 3a3c
000001b0: 0430 b93d ca26 d83c f678 78be bc8b f13d
000001c0: f3f3 1e3e c452 b33d fdb7 0e3d 010c 853e
000001d0: 3ade c3bd 347e 88be a795 94bc 0a40 123e
000001e0: 6e97 87be c92c 853c 9897 19bc 0058 1c3c
000001f0: 0916 163e 1db3 60be 35f2 a0bc 6f76 46be

fc2.weight f4 [128, 128]
0.044781435 -0.013188075 0.08816879 -0.00061324716 -0.07293416 -0.057718012 -0.042199038 0.059242558
-0.071221374 0.018125832 -0.030001296 -0.04467648 0.0010358115 0.08021347 0.07024301 -0.06441483
0.07021131 -0.05781579 0.039733972 -0.0136699295 0.064556815 -0.020358223 -0.066661 0.057530858
0.03671082 0.017818665 0.03950498 -0.057838455 -0.041297767 -0.059449065 0.050117977 0.083163865
0.03388911 0.048995078 -0.04062423 0.07100216 -0.021823669 -0.04694143 0.06697488 -0.047245752
-0.05646821 0.057199206 0.034146607 0.051117457 0.037643142 -0.044655535 -0.047590513 -0.05984704
0.038197614 -0.00329974 0.02260699 -0.060497638 0.05207637 0.0027386283 0.043907996 -0.05073645
0.022189189 -0.067485645 0.06079766 -0.06074351 -0.013324346 -0.048417415 -0.030031683 -0.023146985
0.06264364 -0.010588658 0.012202956 -0.013931777 -0.05675697 -0.029363792 0.07212058 0.0027883828
-0.03306395 -0.03596716 -0.04432504 0.087747596 0.057913203 0.03034119 0.0017609374 0.030539995
0.08707563 -0.06285851 -0.04339414 0.056404516 -0.0033347956 -0.0043617142 0.018824741 0.025097879
0.047136035 0.07754497 0.020762064 0.052774828 -0.0292267 0.022305124 0.03566672 0.020456152
-0.030870711 0.05479436 0.010794261 0.059346765 0.003221547 0.050086502 0.0066068238 -0.064239055
0.066071615 -0.06234913 -0.06914047 0.021988632 -0.02354836 -0.073124625 -0.06560843 -0.034133762
-0.066444054 0.0012006478 -0.048219364 0.051177863 -0.07595355 -0.03442875 -0.012375042 0.04496152
0.042235885 -0.04117572 -0.012646868 0.054340027 0.064666554 -0.008293446 -0.059414115 0.008978396
-0.06420486 0.067740194 -0.005156778 -0.04429238 -0.06547444 0.0399067 0.04279596 -0.07511001
-0.0933191 -0.0805063 -0.0010774175 0.08163634 -0.0026133102 0.061025675 0.035303686 0.034326945
-0.026491834 0.071364366 -0.015535402 0.03412619 0.05036366 -0.049620196 0.021495651 -0.016513333
0.01867434 -0.0589328 -0.008539857 -0.04335885 -0.092091314 0.049896345 -0.058761638 0.07877908
-0.041520078 -0.092599735 0.0013631228 -0.08668399 0.008665381 -0.049874336 -0.028970089 0.037505884
-0.08829092 -0.08501354 -0.001141463 -0.014583413 0.083592385 -0.006494903 0.02397575 -0.0685508
0.074525535 0.052230693 -0.018549165 0.021948867 -0.04191268 -0.012496551 0.04407923 -0.089155234
-0.0703843 0.054803245 0.0740338 0.027176287 -0.048613872 0.012055316 0.03371157 0.0561389
-0.024302252 -0.028696524 0.052672207 0.01122066 -0.035006925 -0.046885967 -0.011346901 0.021855712
0.048285514 0.003751561 -0.039288912 0.08149857 0.0683021 -0.023296775 -0.0019912277 0.043754604
0.006361097 -0.057123415 -0.038787004 0.023862327 0.058356803 -0.014055984 -0.0010384837 0.04287711
-0.043357905 -0.0071558994 -0.019968482 -0.0027823932 -0.06880701 -0.059528388 0.069495335 0.008243517
-0.021859441 0.010827141 -0.08319796 -0.017988058 0.014723713 0.08091118 -0.03739675 0.04983463
-0.045045223 0.06459964 0.008779708 -0.027181147 0.002748212 0.029306596 0.022593545 0.023245182
-0.05332534 0.057821725 0.004413481 -0.09005021 0.027028436 0.086920775 -0.008617266 0.07760003
-0.06220387 -0.03591076 -0.07391186 -0.08838257 -0.0017359338 -0.04374198 0.031980764 -0.045027006
00000000: bd6c 373d cc12 58bc d791 b43d 52c2 20ba
00000010: 815e 95bd b969 6cbd e6d8 2cbd 53a8 723d
00000020: 83dc 91bd a07c 943c 47c5 f5bc affe 36bd
00000030: 11c4 873a f646 a43d 91db 8f3d eceb 83bd
00000040: f3ca 8f3d 40d0 6cbd 17c0 223d d7f7 5fbc
00000050: 5d36 843d 4ac6 a6bc 9085 88bd 7aa5 6b3d
00000060: 165e 163d 73f8 913c f9cf 213d 04e8 6cbd
00000070: d927 29bd dd80 73bd 8248 4d3d d151 aa3d
00000080: 4fcf 0a3d 10af 483d 9865 26bd 9569 913d
00000090: 8dc7 b2bc a845 40bd 202a 893d c384 41bd
000000a0: 364b 67bd b749 6a3d 50dd 0b3d 8a60 513d
000000b0: b22f 1a3d b9e8 36bd 45ee 42bd 2b22 75bd
000000c0: 1a75 1c3d 7340 58bb 4b32 b93c 5fcc 77bd
000000d0: 084e 553d 8f7a 333b dfd8 333d 06d1 4fbd
000000e0: 1ac6 b53c ea35 8abd f806 793d 30ce 78bd
000000f0: 5c4e 5abc 5751 46bd 0105 f6bc bf9e bdbc
00000100: 4f4b 803d 0d7c 2dbc e8ee 473c 1c42 64bc
00000110: ff79 68bd 568c f0bc f4b3 933d 4dbd 363b
00000120: 106e 07bd 4d52 13bd 2c8e 35bd 03b5 b33d
00000130: 6536 6d3d 168e f83c 41cf e63a 032f fa3c
00000140: b554 b23d f6bb 80bd 0ebe 31bd 6c08 673d
00000150: 968c 5abb b6ec 8ebb 5836 9a3c 119a cd3c
00000160: b711 413d e6cf 9e3d 3415 aa3c 6b2a 583d
00000170: d56c efbc 3cb9 b63c 4417 123d a993 a73c
00000180: 93e4 fcbc 0d70 603d 69da 303c 9815 733d
00000190: 9720 533b 8127 4d3d 0e7e d83b c48f 83bd
000001a0: 8e50 873d cd61 7fbd 8599 8dbd 8121 b43c
000001b0: 7ee8 c0bc 5dc2 95bd b65d 86bd d8cf 0bbd
000001c0: d213 88bd 0e5f 9d3a ab81 45bd e19f 513d
000001d0: 898d 9bbd 2905 0dbd b0c0 4abc 9229 383d
000001e0: 89ff 2c3d dfa7 28bd cf34 4fbc a693 5e3d
000001f0: e66f 843d 3ce1 07bc 375c 73bd 1f1a 133c
00000200: d67d 83bd 5fbb 8a3d 30fa a8bb ed6b 35bd
00000210: 7717 86bd 3575 233d d14a 2f3d 47d3 99bd
00000220: 161e bfbd 7de0 a4bd 2238 8dba f430 a73d
00000230: 1244 2bbb 0ff6 793d 999a 103d 699a 0c3d
00000240: 6705 d9bc 7b27 923d 3388 7ebc e7c7 0b3d
00000250: 204a 4e3d 8c3e 4bbd a617 b03c f846 87bc
00000260: eefa 983c 8563 71bd c2ea 0bbc 0d99 31bd
00000270: 5f9a bcbd 1c60 4c3d 0bb0 70bd ed56 a13d
00000280: f510 2abd eea4 bdbd d0aa b23a 6087 b1bd
00000290: 3ef9 0d3c 0849 4cbd ae52 edbc c59f 193d
000002a0: dfd1 b4bd 941b aebd 259d 95ba 44ef 6ebc
000002b0: 7c32 ab3d 32d3 d4bb cb68 c43c 5d64 8cbd
000002c0: d8a0 983d daef 553d 6bf4 97bc 1cce b33c
000002d0: a1ac 2bbd 55be 4cbc 6c8c 343d 0597 b6bd
000002e0: a525 90bd 5e79 603d 089f 973d cea0 de3c
000002f0: 571f 47bd a983 453c 2515 0a3d e7f1 653d
00000300: 8415 c7bc f914 ebbc d0be 573d dcd6 373c
00000310: 6c63 0fbd 800b 40bd 5ae8 39bc c00a b33c
00000320: 08c7 453d c0dc 753b 69ed 20bd b9e8 a63d
00000330: f9e1 8b3d e1d8 bebc 427f 02bb 0738 333d
00000340: c070 d03b 3efa 69bd 1fdf 1ebd ed7a c33c
00000350: 8b07 6f3d 124b 66bc bb1d 88ba e99f 2f3d
00000360: 0f98 31bd 097c eabb f194 a3bc d058 36bb
00000370: b1ea 8cbd 0ad4 73bd 9253 8e3d d10f 073c
00000380: 9212 b3bc 5264 313c b163 aabd b15b 93bc
00000390: ba3b 713c c3b4 a53d 562d 19bd 661f 4c3d
000003a0: 5781 38bd d14c 843d c4d8 0f3c ffaa debc
000003b0: 591b 343b 6314 f03c 1916 b93c ae6c be3c
000003c0: ac6b 5abd 79d6 6c3d f69e 903b 3f6c b8bd
000003d0: bd6a dd3c 8503 b23d 6f2f 0dbc c4ec 9e3d
000003e0: 7cc9 7ebd 2917 13bd 1a5f 97bd ec01 b5bd
000003f0: 4688 e3ba ca2a 33bd 43fe 023d 3d6e 38bd

fc2.bias f4 [128]
-0.01912901 -0.037094735 -0.033902608 -0.037437297 -0.04239773 -0.075343125 -0.054778725 -0.017120428
-0.07798036 0.032733735 0.04925533 0.0640677 -0.03241316 -0.014124763 -0.057195276 -0.059803896
-0.0152285565 0.060074683 -0.079509884 -0.05484945 0.025006559 0.030191913 0.028203947 -0.023342978
-0.05749831 -0.08605404 -0.035161488 0.04961572 -0.015153768 -0.006687777 0.0101067005 0.03856106
0.050736267 -0.011593798 -0.005896842 -0.05554377 0.07618971 -0.06667725 0.043530084 0.0884174
0.007157543 -0.053841192 0.06126795 0.024890503 -0.089616165 -0.050538663 -0.06224188 0.08765268
0.01095839 -0.010816675 0.012479366 -0.07029998 -0.039877586 0.11673685 -0.074036136 0.091908105
0.05264512 -0.06114595 -0.008089513 0.004877547 0.08806839 -0.06618672 -0.046677545 -0.0022939343
0.020974252 0.013610263 -0.0029813806 -0.030314237 0.06931882 -0.049128238 -0.0073895003 0.07582607
0.009727418 -0.020184172 0.02228404 -0.010344502 0.0669122 -0.061217032 0.0260944 0.011923936
-0.049576774 0.054599736 0.0685938 -0.068643145 0.063760415 -0.013861224 0.054947153 -0.066187076
-0.08037852 -0.05099837 0.11300059 0.06637825 0.07243587 0.07094581 -0.022531534 -0.08384496
0.034508016 -0.028698208 -0.08606973 0.118501924 -0.013509181 -0.027986115 -0.03664124 -0.06697145
-0.008008697 -0.081671044 -0.022795044 0.04714138 -0.026966248 0.0006751144 0.0032300917 -0.050708316
-0.041873652 0.09078123 0.041542366 0.099829875 -0.044307597 0.10885844 0.01723555 -0.03524452
0.05382429 0.0902891 -0.07911177 0.024960442 -0.085021615 0.07449167 0.001799982 -0.007002883
00000000: 71b4 9cbc a6f0 17bd 76dd 0abd da57 19bd
00000010: 3ea9 2dbd 7f4d 9abd a85f 60bd 2440 8cbc
00000020: 2bb4 9fbd cf13 063d f5bf 493d ed35 833d
00000030: a9c3 04bd 8d6b 67bc 9845 6abd eef4 74bd
00000040: 3281 79bc df10 763d 14d6 a2bd d1a9 60bd
00000050: 8eda cc3c 0855 f73c f70b e73c c639 bfbc
00000060: 5983 6bbd 1a3d b0bd 7e05 10bd da39 4b3d
00000070: 8247 78bc 2425 dbbb 9396 253c 34f2 1d3d
00000080: d5d0 4f3d eaf3 3dbc 4c3a c1bb dd81 63bd
00000090: 5a09 9c3d 158e 88bd 9a4c 323d 2f14 b53d
000000a0: d389 ea3b 9588 5cbd 1af4 7a3d 2be7 cb3c
000000b0: ae88 b7bd a101 4fbd 57f1 7ebd 4083 b33d
000000c0: d28a 333c 6c38 31bc 4176 4c3c 70f9 8fbd
000000d0: ae56 23bd bb13 ef3d 42a0 97bd 513a bc3d
000000e0: 69a2 573d 2d74 7abd e089 04bc d4d3 9f3b
000000f0: 335d b43d e78c 87bd f430 3fbd d555 16bb
00000100: 32d2 ab3c 95fd 5e3c 4463 43bb 9055 f8bc
00000110: 07f7 8d3d b13a 49bd 9f23 f2bb b34a 9b3d
00000120: c05f 1f3c 4759 a5bc 058d b63c fc7b 29bc
00000130: 4309 893d b6be 7abd ecc3 d53c 9d5c 433c
00000140: 0411 4bbd f9a3 5f3d e87a 8c3d c794 8cbd
00000150: d294 823d 301a 63bc 4410 613d 178d 87bd
00000160: 7e9d a4bd abe3 50bd da6c e73d 52f1 873d
00000170: 4259 943d 094c 913d 0d94 b8bc e8b6 abbd
00000180: 4758 0d3d 8118 ebbc 5445 b0bd 23b1 f23d
00000190: 9d55 5dbc 2343 e5bc 2015 16bd 5428 89bd
000001a0: e936 03bc 2643 a7bd acbc babc 5217 413d
000001b0: 52e8 dcbc 29fa 303a f2af 533b 86b3 4fbd
000001c0: b583 2bbd 82eb b93d 5428 2a3d 9b73 cc3d
000001d0: e27b 35bd 2cf1 de3d 9131 8d3c 8f5c 10bd
000001e0: dc76 5c3d 7ee9 b83d 5a05 a2bd d779 cc3c
000001f0: d01f aebd 178f 983d 60ed eb3a 7178 e5bb

action_type_head.weight f4 [5, 128]
0.040969867 0.05331403 -0.1256082 0.015571113 -0.004460543 0.02384619 -0.004001059 0.030677184
0.057182748 -0.07447158 -0.112250604 -0.11012139 0.07734358 0.025086679 -0.010990539 -0.11690068
-0.059227407 -0.00962236 0.012438473 0.014415428 -0.029391164 -0.119455755 -0.021847589 0.06267068
0.06631817 0.057809643 -0.007937589 0.025023578 -0.06014882 0.030414367 -0.022888767 -0.05005185
-0.096355215 0.0106492955 -0.12565213 -0.11185136 0.005616526 0.04451613 0.03721676 -0.09581382
0.0541181 0.007631214 -0.10468794 -0.1401474 0.03575073 -0.13808922 -0.049766183 -0.080890715
-0.059625614 0.013991902 0.028563013 -0.025993342 0.07682849 -0.10857398 0.04821139 0.016565224
0.02234104 -0.04384262 0.01334313 -0.12903954 -0.09355629 -0.060261235 -0.10337496 -0.06458158
0.036083076 -0.017785827 -0.09052272 -0.082535975 -0.06790131 0.068485364 -0.09014504 -0.08445327
0.047986936 0.029991945 -0.12234902 0.047325116 0.07373291 0.04119019 0.021060083 0.054647565
-0.07418691 -0.07223542 0.010307356 0.020007055 -0.038936634 -0.03802242 0.028440682 -0.08197847
0.043795537 0.038765565 -0.11520043 4.844784e-05 -0.020225495 0.049183093 -0.092354424 -0.03335627
-0.024773063 -0.0057663247 0.07376009 -0.11445608 -0.08267256 0.02901689 -0.049346272 -0.0039991452
-0.12999874 0.02110407 0.04812657 -0.10092652 -0.08820481 0.01021187 0.06514608 -0.07346663
0.04457376 -0.13327296 0.035803262 -0.109658524 -0.020959875 -0.10457333 -0.12626156 -0.07336192
-0.11094073 -0.04707511 0.023063947 -0.11855112 0.043153353 -0.10677591 0.020312496 -0.108453594
0.08287334 0.054484792 0.046083998 -0.058356468 0.08181228 0.0628501 0.008542059 -0.061236493
0.00573253 0.062277853 0.05429305 -0.005059565 -0.076853976 0.10385003 0.0756714 -0.024811987
0.0360113 0.082114145 0.008442969 0.03319734 0.08965864 0.052123483 -0.033240467 -0.07119732
-0.026340727 0.025929447 0.03284143 0.053434 -0.017139759 0.008144128 -0.007538627 0.03219037
0.010425473 0.07136512 0.022268219 0.0088386955 -0.054017533 0.032423783 -0.049873035 0.044504795
0.08970129 -0.061506495 -0.018028205 0.027863067 0.03452658 0.05363041 -0.015455862 0.055184446
0.00090844027 -0.07055991 0.06200189 0.036768194 0.07578902 0.055797633 0.011973519 0.021356765
-0.07216514 0.04188635 0.08107565 -0.059779957 -0.05069556 0.05805983 0.105222926 -0.037355743
0.06769805 -0.040828027 -0.013666404 0.05332216 0.052206796 -0.06268156 0.0018002839 0.07904929
0.0114884935 -0.04859063 -0.061160095 -0.074859284 -0.04395956 0.015313046 0.08341952 -0.026979659
-0.011569812 0.013121869 -0.068525545 0.021106683 -0.03683733 -0.08081831 0.075867474 0.01954633
0.02545168 -0.0033585874 -0.0025265287 0.012211208 0.05522682 -0.052783255 -0.0383932 0.039189566
0.043989867 0.022453355 -0.012149672 -0.03683241 0.056188177 0.09380456 -0.07355335 -0.051910505
0.03235407 -0.015988858 -0.032197572 0.059298746 0.020042533 -0.01358382 -0.08487126 -0.03457264
0.08601392 0.06556871 -0.044157177 0.027642524 0.037666705 0.068495475 0.051179137 0.032208886
-0.01280696 0.015866466 -0.054707337 0.10875304 -0.058727182 0.027066557 0.051343847 0.030310955
00000000: 05d0 273d d05f 5a3d 709f 00be fb1d 7f3c
00000010: bf29 92bb 1659 c33c 511b 83bb b84e fb3c
00000020: 7538 6a3d 8e84 98bd a5e3 e5bd 5387 e1bd
00000030: 5066 9e3d 9482 cd3c a911 34bc a069 efbd
00000040: 7098 72bd 1aa7 1dbc bdca 4b3c b02e 6c3c
00000050: bdc5 f0bc 38a5 f4bd b7f9 b2bc 7c59 803d
00000060: d2d1 873d cec9 6c3d a90c 02bc 3ffe cc3c
00000070: 9c5e 76bd 8d27 f93c 3981 bbbc 2b03 4dbd
00000080: e255 c5bd 627a 2e3c f4aa 00be 5312 e5bd
00000090: d60a b83b 8c56 363d 9a70 183d 093a c4bd
000000a0: f1aa 5d3d 430f fa3b a166 d6bd cd82 0fbe
000000b0: 5c6f 123d 4367 0dbe a0d7 4bbd 08aa a5bd
000000c0: fd39 74bd 4a3e 653c fbfc e93c fdef d4bc
000000d0: 4158 9d3d 095c debd 4e79 453d cbb3 873c
000000e0: 8f04 b73c 5294 33bd 259d 5a3c f122 04be
000000f0: 719a bfbd 7cd4 76bd 40b6 d3bd 5943 84bd
00000100: d9cb 133d 95b3 91bc fa63 b9bd 9f08 a9bd
00000110: d80f 8bbd 0e42 8c3d f69d b8bd d6f5 acbd
00000120: f38d 443d abb1 f53c 1f92 fabd fbd7 413d
00000130: 4801 973d 0bb7 283d 3286 ac3c 20d6 5f3d
00000140: 4fef 97bd 2af0 93bd 2fe0 283c d6e5 a33c
00000150: 057c 1fbd 66bd 1bbd 6ffc e83c 54e4 a7bd
00000160: f362 333d a4c8 1e3d 34ee ebbd 7934 4b38
00000170: f0af a5bc 3674 493d 5124 bdbd 96a0 08bd
00000180: e1f0 cabc 70f3 bcbb 880f 973d f367 eabd
00000190: 3b50 a9bd d4b4 ed3c 511f 4abd 430b 83bb
000001a0: 641e 05be 71e2 ac3c 5e20 453d 90b2 cebd
000001b0: b9a4 b4bd b04f 273c 4f6b 853d ac75 96bd
000001c0: fa92 363d b578 08be 71a6 123d a694 e0bd
000001d0: 0bb4 abbc 8b2a d6bd b64a 01be c63e 96bd
000001e0: e534 e3bd d5d1 40bd 9af0 bc3c eeca f2bd
000001f0: 92c1 303d 54ad dabd 6466 a63c eb1c debd
00000200: 7fb9 a93d 722b 5f3d 93c2 3c3d 3107 6fbd
00000210: 328d a73d 8eb7 803d fef3 0b3c 1ed3 7abd
00000220: f2d7 bb3b 1017 7f3d 6462 5e3d b5ca a5bb
00000230: 9e65 9dbd 53af d43d 9bf9 9a3d 8242 cbbc
00000240: 9680 133d 762b a83d 6154 0a3c eff9 073d
00000250: f39e b73d 6f7f 553d 2827 08bd e7cf 91bd
00000260: 82c8 d7bc fe69 d43c bc84 063d 9cdd 5a3d
00000270: ae68 8cbc f36e 053c 9606 f7bb 0dda 033d
00000280: 9acf 2a3c e027 923d d76b b63c 2dd0 103c
00000290: 7d41 5dbd cdce 043d ab47 4cbd a94a 363d
000002a0: 4fb5 b73d 3cee 7bbd e3af 93bc 1641 e43c
000002b0: be6b 0d3d 90ab 5b3d 953a 7dbc 1609 623d
000002c0: 6524 6e3a b781 90bd b2f5 7d3d 3f9a 163d
000002d0: 4637 9b3d 0f8c 643d 942c 443c 62f4 ae3c
000002e0: 51cb 93bd 0591 2b3d fe0a a63d d4db 74bd
000002f0: 26a6 4fbd 25d0 6d3d 1e7f d73d 5602 19bd
00000300: 46a5 8a3d 4a3b 27bd 0ee9 5fbc 5668 5a3d
00000310: cbd6 553d 315f 80bd 81f7 eb3a 98e4 a13d
00000320: 3c3a 3c3c f806 47bd 0283 7abd d34f 99bd
00000330: f10e 34bd 92e3 7a3c dad7 aa3d 7204 ddbc
00000340: 4f8f 3dbc 1cfd 563c 1f57 8cbd ece7 ac3c
00000350: bde2 16bd 1284 a5bd 6860 9b3d a01f a03c
00000360: 0b80 d03c bf1b 5cbb 1e94 25bb 8511 483c
00000370: 8535 623d 4133 58bd 3042 1dbd 3d85 203d
00000380: b82e 343d 19f0 b73c 6b0f 47bc 95dd 16bd
00000390: 9325 663d 9b1c c03d 24a3 96bd 1ca0 54bd
000003a0: b485 043d 11fb 82bc 9ae1 03bd 3ee3 723d
000003b0: 3d30 a43c ac8e 5ebc fcd0 adbd 0a9c 0dbd
000003c0: 1128 b03d e348 863d 28de 34bd 9372 e23c
000003d0: 6748 1a3d 5b47 8c3d 37a1 513d 77ed 033d
000003e0: 49d4 51bc 64fa 813c cd14 60bd eab9 de3d
000003f0: ea8b 70bd afba dd3c ed4d 523d ae4e f83c

action_type_head.bias f4 [5]
-0.024383973 0.02235122 -0.03200804 0.08121013 0.07122742
00000000: e6c0 c7bc e819 b73c dd1a 03bd 7f51 a63d
00000010: aedf 913d

raise_head.weight f4 [100, 128]
-0.067549765 0.04895164 0.06386795 -0.050132003 -0.058571067 -0.067691475 0.060910836 -0.036539767
-0.0125501305 0.056994185 0.060552325 0.0185899 -0.064404406 -0.06788647 -0.0037904873 0.022753228
0.061993103 0.0045544556 0.066261895 0.017084824 -0.02817242 0.0596036 0.038238347 0.04864407
0.021012595 0.06781776 0.048474554 0.023876581 0.06218894 0.07096309 0.06508019 0.058871973
-0.037531268 -0.06257023 -0.038241748 0.08415515 0.029798387 -0.048097562 0.016946692 -0.007487329
0.027415903 -0.034344506 0.0774507 -0.10307237 0.04943943 -0.062121607 -0.004013297 -0.07095988
-0.04976737 0.08621688 -0.016518783 -0.026876645 -0.06078495 -0.028907375 0.061909914 0.039947983
0.011128053 0.034152564 0.10143322 0.09974377 -0.030603927 0.016894694 0.07225621 0.063248955
-0.05754435 0.019341797 0.07183073 0.05284805 0.07195443 -0.004848261 -0.0047759637 0.023002323
-0.0076497267 -0.052538477 0.02904773 -0.08118144 0.037055 0.064810716 -0.052571923 0.008145786
0.06598385 0.03500821 0.09592652 0.003906236 0.08672558 -0.014733779 0.029701283 -0.018178329
0.067850895 0.07942101 0.03610362 -0.0713642 0.05849693 0.018342737 0.0032132228 0.017952539
0.10091287 0.10899482 0.076393545 -0.02152267 0.0017089283 0.095555596 0.0667883 0.018812863
-0.030225424 0.06068404 0.00569542 0.06559345 0.027685296 -0.07810302 -0.052253615 0.06981488
0.08496195 0.044098146 -0.063650854 0.06307272 0.055862878 -0.01670998 0.04972765 0.03036212
-0.07946686 -0.07271611 0.04847232 0.06060017 -0.049825042 -0.0063483194 -0.010708839 0.06654967
0.04346556 -0.082159966 0.030945946 0.07628523 -0.012809792 0.029326588 0.028365854 -0.07032458
0.06426586 -0.01992731 -0.04448353 0.03370606 0.052035585 0.07636688 0.031334043 0.09243133
0.033531904 -0.065453604 0.014363247 -0.003765437 0.014333906 0.052921914 0.07384909 -0.027166888
0.082179904 -0.007515808 -0.05954642 0.05662902 0.12522501 0.060473908 -0.006895522 -0.014939621
0.06379983 -0.054778196 -0.047432393 0.0047857175 -0.012420997 -0.04371605 -0.06556984 -0.035454374
0.0069954125 0.0044725537 0.09431588 0.053438127 -0.037137017 -0.020611895 0.023105199 -0.023275657
0.008974714 0.0049368567 0.060173962 -0.006902526 0.049667604 -0.055202052 -0.07701416 0.024523726
0.04688431 0.086784564 0.05723202 0.0657897 0.06484415 -0.04514379 0.07854526 0.024181206
0.03223082 0.13152997 0.12359948 0.02231567 -0.033436116 -0.07401033 0.024176778 0.06303842
-0.06602681 -0.031124372 0.049440715 0.04691726 0.05616236 -0.06846507 0.016098296 -0.036489695
0.10901179 -0.052371386 -0.049837064 -0.018284107 0.04433915 -0.005002399 -0.08159552 -0.025628068
-0.07448474 -0.0142719345 0.027794626 0.02446235 0.07251141 -0.022480393 0.03933342 0.065870054
-0.040443316 0.0063894545 0.047066566 0.042085625 -0.08644759 0.057953306 0.014180483 0.03511674
0.07744204 0.07411606 0.0048099235 0.052445937 0.058782797 -0.009541235 -0.010181454 0.11337051
0.0038040013 -0.022155426 0.04117569 -0.0047547612 -0.047601566 0.029047498 -0.07175753 -0.022556553
0.07424654 0.038564537 -0.03330016 0.009661233 -0.044456515 0.021710128 0.07886534 -0.013146454
00000000: 8857 8abd 8481 483d 33cd 823d 3757 4dbd
00000010: 37e8 6fbd d4a1 8abd a47d 793d b9aa 15bd
00000020: 109f 4dbc bc72 693d b705 783d d949 983c
00000030: 75e6 83bd 1008 8bbd d369 78bb fa64 ba3c
00000040: 7bec 7d3d 8b3d 953b 51b4 873d 79f5 8b3c
00000050: d9c9 e6bc e822 743d d09f 1c3d 013f 473d
00000060: 9b22 ac3c 0ae4 8a3d 418d 463d d298 c33c
00000070: d4b9 7e3d 1955 913d c348 853d bd23 713d
00000080: 63ba 19bd d224 80bd 61a3 1cbd 8959 ac3d
00000090: bf1b f43c f301 45bd cad3 8a3c 4558 f5bb
000000a0: 5197 e03c d3ac 0cbd 799e 9e3d 9b17 d3bd
000000b0: 0081 4a3d 3a73 7ebd fa81 83bb 6a53 91bd
000000c0: dfd8 4bbd 7a92 b03d 6652 87bc 692c dcbc
000000d0: a4f9 78bd 29cf ecbc 4095 7d3d 7fa0 233d
000000e0: 7052 363c 8fe3 0b3d 38bc cf3d 7646 cc3d
000000f0: 16b5 fabc be66 8a3c 10fb 933d ab88 813d
00000100: a0b3 6bbd b072 9e3c fd1b 933d 3277 583d
00000110: d85c 933d 29de 9ebb b07f 9cbb 5e6f bc3c
00000120: 8faa fabb 9632 57bd 81f5 ed3c 7442 a6bd
00000130: fcc6 173d 7bbb 843d a855 57bd e775 053c
00000140: 8a22 873d c564 0f3d 2075 c43d c4ff 7f3b
00000150: 2e9d b13d f365 71bc 1b50 f33c b8ea 94bc
00000160: 69f5 8a3d 7ca7 a23d 64e1 133d 6527 92bd
00000170: 7a9a 6f3d 8243 963c ef94 523b 3411 933c
00000180: 68ab ce3d ad38 df3d 3874 9c3d 4f50 b0bc
00000190: 1efe df3a a7b2 c33d 4ec8 883d 6f1d 9a3c
000001a0: 4f9b f7bc d48f 783d a5a0 ba3b dc55 863d
000001b0: 46cc e23c 7af4 9fbd e307 56bd 1bfb 8e3d
000001c0: 8800 ae3d 42a0 343d 615b 82bd 452c 813d
000001d0: 79d0 643d 5ee3 88bc 38af 4b3d fbb9 f83c
000001e0: 85bf a2bd 2fec 94bd e98a 463d e237 783d
000001f0: 5815 4cbd 9005 d0bb 2074 2fbc 324b 883d
00000200: f108 323d 7c43 a8bd 5a82 fd3c 6e3b 9c3d
00000210: 29e0 51bc 503e f03c 825f e83c 5506 90bd
00000220: d29d 833d 993e a3bc 5d34 36bd 5e0f 0a3d
00000230: 4423 553d 3d66 9c3d 2058 003d a34c bd3d
00000240: c058 093d 8a0c 86bd d353 6b3c 8dc5 76bb
00000250: c2d8 6a3c a6c4 583d 313e 973d 188d debc
00000260: f04d a83d 2b47 f6bb f2e6 73bd d5f3 673d
00000270: fc3a 003e 7db3 773d d5f3 e1bb 50c5 74bc
00000280: 7ca9 823d 1a5f 60bd 7848 42bd 82d1 9c3b
00000290: 7081 4bbc 9a0f 33bd 7b49 86bd 9b38 11bd
000002a0: c639 e53b 808e 923b af28 c13d f0e1 5a3d
000002b0: fc1c 18bd 47da a8bc 1d47 bd3c 97ac bebc
000002c0: ae0a 133c 5bc5 a13b f978 763d 962e e2bb
000002d0: 4270 4b3d 8c1b 62bd 9ab9 9dbd fbe5 c83c
000002e0: c309 403d 1bbc b13d 1f6c 6a3d c0bc 863d
000002f0: 02cd 843d b2e8 38bd 56dc a03d aa17 c63c
00000300: 7704 043d cbaf 063e b921 fd3d 5acf b63c
00000310: 4ff4 08bd ba92 97bd 610e c63c 4a1a 813d
00000320: 1039 87bd 8af8 febc 5982 4a3d 502c 403d
00000330: 810a 663d 6a37 8cbd 93e0 833c 3876 15bd
00000340: 9341 df3d 6183 56bd f321 4cbd 8dc8 95bc
00000350: f89c 353d 2aeb a3bb 8d1b a7bd f4f1 d1bc
00000360: 758b 98bd d5d4 69bc 8eb1 e33c 4465 c83c
00000370: dd80 943d cd28 b8bc 151c 213d e1e6 863d
00000380: e4a7 25bd a15e d13b dfc8 403d fa61 2c3d
00000390: 6f0b b1bd 7260 6d3d 4255 683c 92d6 0f3d
000003a0: ef99 9e3d 29ca 973d 909c 9d3b 8dd1 563d
000003b0: 3bc6 703d d752 1cbc 1dd0 26bc cc2e e83d
000003c0: 8d4c 793b 4c7f b5bc d7a7 283d d4cd 9bbb
000003d0: dcf9 42bd 05f5 ed3c 9df5 92bd 85c8 b8bc
000003e0: 920e 983d d9f5 1d3d c065 08bd 264a 1e3c
000003f0: 0918 36bd 70d9 b13c 2784 a13d 3964 57bc

raise_head.bias f4 [100]
-0.017638559 0.067919694 -0.04847038 0.004310258 -0.05142902 0.057927158 -0.044816688 0.042255018
0.050224368 -0.018604934 -0.05988905 -0.019740568 0.005143863 0.03153322 -0.06511665 -0.06902956
-0.033792358 0.061161563 -0.015539075 -0.00030525654 -0.060420107 -0.01406478 -0.020374835 -0.086710334
0.068488926 -0.09654513 0.022929816 0.027918085 -0.08072989 0.06382214 -0.1049182 0.006887402
0.028335024 -0.008936324 0.05135889 0.029982598 0.045650527 -0.062208798 -0.067939624 0.12653725
-0.003899993 0.074271396 0.017159462 -0.0028822152 0.061669063 0.107956074 0.06138363 0.079828024
-0.09540473 0.021302443 -0.11792908 -0.115970664 0.057409342 -0.111212365 0.049971685 0.032173343
0.014706948 0.06466779 -0.0039688507 -0.004551289 0.0919217 0.037241682 0.06389247 -0.013883975
0.02468723 0.022732427 0.004538042 -0.07570376 0.02119571 0.0056743342 0.078723766 0.029940428
0.111983985 0.066435404 0.08854388 0.014898195 0.060085524 0.037072908 0.005928994 0.009359924
0.08336248 0.063551545 0.016895568 -0.020947797 -0.021692874 -0.06463605 0.008991938 -0.044507224
0.018571524 0.11494329 0.09535675 0.046258416 0.05251592 0.07207149 0.11298684 0.028701251
-0.10718518 -0.036411043 -0.07591001 0.05038118
00000000: bd7e 90bc 7b19 8b3d e188 46bd 113d 8d3b
00000010: 3ca7 52bd 0745 6d3d b491 37bd 9913 2d3d
00000020: 11b8 4d3d 6069 98bc 384e 75bd f9b6 a1bc
00000030: da8d a83b fa28 013d e15b 85bd 5f5f 8dbd
00000040: db69 0abd 8c84 7a3d 9b97 7ebc d70a a0b9
00000050: 137b 77bd f76f 66bc 20e9 a6bc 3095 b1bd
00000060: ec43 8c3d 74b9 c5bd 4fd7 bb3c 78b4 e43c
00000070: b655 a5bd 2fb5 823d 5adf d6bd b7af e13b
00000080: da1e e83c a969 12bc b35d 523d 119e f53c
00000090: 0cfc 3a3d a7ce 7ebd ee23 8bbd fb92 013e
000000a0: 0697 7fbb 9a1b 983d 0092 8c3c 8ce3 3cbb
000000b0: b398 7c3d 1318 dd3d 676d 7b3d e07c a33d
000000c0: 8e63 c3bd 7682 ae3c cd84 f1bd 0782 edbd
000000d0: 0f26 6b3d 4fc3 e3bd 1caf 4c3d 32c8 033d
000000e0: 69f5 703c 8c70 843d 220d 82bb fb22 95bb
000000f0: 7241 bc3d bc8a 183d 0eda 823d 9d79 63bc
00000100: e03c ca3c 5b39 ba3c dbb3 943b 930a 9bbd
00000110: a0a2 ad3c c4ef b93b ed39 a13d a145 f53c
00000120: dc57 e53d 490f 883d 7e56 b53d 8f17 743c
00000130: 3d1c 763d c3d9 173d 0248 c23b 5e5a 193c
00000140: f3b9 aa3d 5027 823d 9368 8a3c b79a abbc
00000150: 41b5 b1bc e85f 84bd ec52 133c 354d 36bd
00000160: 4f23 983c 6367 eb3d 664a c33d 7779 3d3d
00000170: ef1a 573d 389a 933d a565 e73d e31e eb3c
00000180: e783 dbbd bf23 15bd b576 9bbd 7f5c 4e3d

discard_head.weight f4 [3, 128]
-0.011621361 -0.06912127 -0.019273514 0.07896537 -0.013673525 -0.080949515 0.01889156 -0.031704303
0.06689047 0.016533291 -0.04089563 -0.02152328 -0.040995818 0.057248395 0.0037832696 -0.08368898
0.04121642 0.051379204 -0.003390428 0.008223436 -0.05892165 -0.06331925 -0.0045801415 -0.07386596
-0.086816646 0.05088835 0.05562005 -0.013247221 0.05784443 -0.017166743 0.06844948 -0.04763212
-0.03882453 -0.04898232 -0.039941248 0.03182805 0.08359639 0.048913334 0.03735027 0.023165574
0.06704931 0.056785244 0.05938095 0.0680597 -0.04112824 0.06589087 0.0016228106 0.016596803
0.04470652 -0.047490098 0.063136116 -0.054465465 -0.0405002 0.042218614 -0.06622886 0.06848588
-0.0031200927 0.05693342 -0.055010088 0.029001739 -0.035916086 -0.064425245 0.09006074 0.05028886
0.086496554 0.05397195 0.07210741 0.021146854 -0.06334359 -0.060082056 0.06127512 -0.0746729
-0.0037825953 -0.06600779 0.05306598 -0.018960064 -0.002132821 -0.012086304 0.051025532 -0.015767857
0.06973957 -0.06833935 -0.07795766 -0.08113172 0.031071201 0.03592259 0.036228325 0.03181414
-0.055536132 0.07307806 -0.047024567 -0.07701618 0.035916027 0.07831001 -0.052532174 0.060869377
-0.006001115 0.046056367 0.05402221 0.0106084375 -0.021690296 -0.012905203 0.023605159 -0.06740247
0.090629704 -0.031170253 0.033949014 0.021029327 0.017127194 0.034743965 0.002875537 -0.036089893
0.05433163 -0.05964167 0.045064475 0.044611704 -0.02348071 -0.0028455446 -0.038250312 -0.0010442011
0.01329644 0.07484364 0.012885113 0.07213245 -0.03999932 -0.012063651 -0.05595175 0.0180709
0.08323043 0.020679465 -0.0038388222 -0.07541403 -0.08487501 -0.038573742 -0.056471143 0.011611014
0.047589418 -0.033864014 -0.076607 0.053613283 -0.044096034 0.03876245 -0.040520117 0.061457515
0.050240893 -0.023877673 -0.06505061 -0.078989185 0.049694527 -0.07702374 0.027613154 0.0605803
0.06719071 -0.07586516 -0.023221323 0.008202705 0.04412404 -0.07389104 0.049070347 -0.07412446
-0.009686464 -0.0411874 -0.063805185 0.04038557 0.015303633 -0.08555634 -0.097902805 -0.07870106
-0.06554013 -0.05170984 -0.08693335 0.045778222 -0.084181964 -0.0902903 0.027050914 0.049407754
-0.04764268 0.0070087407 -0.07297994 -0.040043384 0.019001389 -0.0749631 0.015179609 -0.021618946
-0.031714417 -0.023821374 -0.01755927 -0.08993747 0.05908781 0.008718899 0.021624705 -0.04515001
0.023066243 -0.059508618 -0.0745199 -0.023563007 0.029321805 0.047802288 0.013746875 -0.033399753
0.07582575 -0.023239832 -0.106284566 -0.048970874 0.03729441 0.07591669 -0.07209577 0.059110917
0.04857522 0.08682008 0.021555379 0.075184815 0.008118385 0.044512413 0.028177433 0.027036292
0.021350002 -0.08454446 0.06712788 -0.036280714 -0.083263226 -0.009085878 -0.022873105 0.011042758
-0.06236989 0.024435973 0.0096678035 -0.051824816 0.04789812 -0.04755774 -0.024360139 -0.064970486
0.05242302 0.040345713 -0.020356601 0.049984623 0.03551341 -0.059367307 -0.015035228 0.06598577
-0.04078928 0.0043563214 0.08501851 -0.014764608 -0.041142434 -0.08186612 -0.022405734 -0.031386215
0.06466228 0.013916645 0.0858641 -0.009777972 0.070779964 0.040010676 0.024262536 0.033762947
00000000: 8567 3ebc 748f 8dbd 7de3 9dbc 99b8 a13d
00000010: ec06 60bc dcc8 a5bd 79c2 9a3c 5fdc 01bd
00000020: dffd 883d d370 873c 2d82 27bd 9751 b0bc
00000030: 3beb 27bd 4b7d 6a3d bbf0 773b 2165 abbd
00000040: 8cd2 283d 0073 523d f131 5ebb 97bb 063c
00000050: d457 71bd 86ad 81bd 0315 96bb 0947 97bd
00000060: edcc b1bd 4d70 503d d9d1 633d df0a 59bc
00000070: 48ee 6c3d 45a1 8cbc 3e2f 8c3d e619 43bd
00000080: 7806 1fbd afa1 48bd 6f99 23bd 215e 023d
00000090: 9634 ab3d 5959 483d 99fc 183d bbc5 bd3c
000000a0: 2651 893d a597 683d 7039 733d e262 8b3d
000000b0: 1676 28bd cbf1 863d 7db4 d43a 05f6 873c
000000c0: 2f1e 373d fa84 42bd 824d 813d 2e17 5fbd
000000d0: 8ae3 25bd 6ded 2c3d ffa2 87bd 5342 8c3d
000000e0: 787a 4cbb 0533 693d 4252 61bd 0e95 ed3c
000000f0: bf1c 13bd 62f1 83bd c471 b83d b1fb 4d3d
00000100: 1b25 b13d b111 5d3d 0dad 933d 2b3c ad3c
00000110: 49ba 81bd 9a18 76bd 9ffb 7a3d 1bee 98bd
00000120: 6be5 77bb 182f 87bd b75b 593d 2352 9bbc
00000130: ccc6 0bbb a205 46bc 2600 513d 982b 81bc
00000140: 9fd3 8e3d 80f5 8bbd 44a8 9fbd 6328 a6bd
00000150: 0889 fe3c 9123 133d 2764 143d 8b4f 023d
00000160: db79 63bd f3a9 953d d59c 40bd a9ba 9dbd
00000170: af1c 133d 0061 a03d fa2b 57bd 2b52 793d
00000180: 00a5 c4bb 9aa5 3c3d 6546 5d3d 03cf 2d3c
00000190: d9af b1bc 5870 53bc 9b5f c13c 4e0a 8abd
000001a0: 119c b93d c258 ffbc 1f0e 0b3d b245 ac3c
000001b0: 544e 8c3c b04f 0e3d 8173 3c3b ffd2 13bd
000001c0: d88a 5e3d d34a 74bd 8795 383d c3ba 363d
000001d0: 9e5a c0bc 517c 3abb 5cac 1cbd 93dd 88ba
000001e0: 50d9 593c 9f47 993d 151c 533c 2eba 933d
000001f0: 54d6 23bd 9fa6 45bc aa2d 65bd 6d09 943c
00000200: b774 aa3d fb67 a93c c094 7bbb ac72 9abd
00000210: f3d2 adbd 80ff 1dbd 494e 67bd 1f3c 3e3c
00000220: 1fed 423d feb4 0abd 21e4 9cbd 9a99 5b3d
00000230: 0b9e 34bd 60c5 1e3d 6cf8 25bd e0ba 7b3d
00000240: 65c9 4d3d 1c9b c3bc 4139 85bd 15c5 a1bd
00000250: 7d8c 4b3d 9fbe 9dbd fb34 e23c 0c23 783d
00000260: 489b 893d 315f 9bbd a53a bebc a364 063c
00000270: 69bb 343d 3054 97bd fdfd 483d 91ce 97bd
00000280: fab3 1ebc 1fb4 28bd 4bac 82bd 576b 253d
00000290: 17bc 7a3c 2a38 afbd 4481 c8bd 052e a1bd
000002a0: e739 86bd b2cd 53bd 1d0a b2bd f281 3b3d
000002b0: 9867 acbd 1fea b8bd e199 dd3c c95f 4a3d
000002c0: f924 43bd 94a9 e53b 8276 95bd 8804 24bd
000002d0: cda8 9b3c 4186 99bd e5b3 783c 371a b1bc
000002e0: fae6 01bd 0b25 c3bc 75d8 8fbc 2331 b8bd
000002f0: 0f06 723d b7d9 0e3c 4b26 b13c 38ef 38bd
00000300: 6bf5 bc3c 4fbf 73bd e49d 98bd 3507 c1bc
00000310: 4834 f03c 55cc 433d 933a 613c 2ece 08bd
00000320: 884a 9b3d 7661 bebc b9ab d9bd af95 48bd
00000330: 06c2 183d 367a 9b3d f2a6 93bd 4a1e 723d
00000340: cff6 463d bace b13d e894 b03c 7ffa 993d
00000350: fa02 053c a652 363d 5cd4 e63c 377b dd3c
00000360: 33e6 ae3c a525 adbd 587a 893d 169b 14bd
00000370: e985 aabd efdc 14bc 6160 bbbc afec 343c
00000380: 9277 7fbd f32d c83c b565 1e3c 4246 54bd
00000390: d230 443d e8cb 42bd ea8e c7bc 3f0f 85bd
000003a0: 85b9 563d 8c41 253d e3c2 a6bc adbc 4c3d
000003b0: 8276 113d 222b 73bd 5156 76bc 8c23 873d
000003c0: a912 27bd 79bf 8e3b 2f1e ae3d 41e7 71bc
000003d0: f884 28bd 6da9 a7bd 3b8c b7bc d58e 00bd
000003e0: a86d 843d a402 643c 84d9 af3d c933 20bc
000003f0: 16f5 903d 3ce2 233d 3ac2 c63c 044b 0a3d

discard_head.bias f4 [3]
0.08061911 -0.09600099 0.0044087553
00000000: a21b a53d 2b9c c4bd 5277 903b
