rl_poker_models/poker_dqn.pt (torch, 651938 bytes, 44 tensors)

fc1.weight f4 [128, 46]
000000 1b 02 f9 bd e5 4e 53 3d f6 b1 e3 3c 2c d4 6c 3d
       -0.12158605 0.05158891 0.02779482 0.05781953
000010 73 dd 4a bd 0a 04 5c bc 98 b8 27 3c 15 ac 59 3c
       -0.049527597 -0.013428697 0.010236882 0.013285656
000020 a9 68 b1 bd 00 8c d7 bd 22 63 d1 3d 0c aa d2 3d
       -0.086625405 -0.1052475 0.10223986 0.1028634
000030 dd f0 a9 bd c0 19 2d bd d6 c1 59 3d 87 43 42 bb
       -0.08297894 -0.042260885 0.053163372 -0.00296423
000040 9d 66 0f 3e 9b 87 c1 3d fd 24 d8 3b 56 b3 20 3e
       0.14003988 0.09449693 0.006596206 0.15693411
000050 1f d8 7d bb 7e 42 94 bd d8 88 c1 3d 02 35 98 bd
       -0.0038733555 -0.07239245 0.09449929 -0.074319854
000060 70 39 c4 3d 6d 46 b4 3d e5 99 54 3d e5 93 6b 3d
       0.09581268 0.08802495 0.051904578 0.05751409
000070 78 84 80 3d cf ed 85 3d 91 4c 0f 3e 88 a9 98 bd
       0.062752664 0.06539499 0.13994052 -0.074542105
000080 ae 9b 02 be 8c f8 82 3d f8 eb 98 3d fc 09 da 3d
       -0.127547 0.06395063 0.074668825 0.106464356
000090 f2 15 d8 bd ba 65 e1 3d 7c 69 38 3d 46 e8 40 bc
       -0.10551061 0.11005731 0.045022473 -0.011774128
0000a0 0e 28 18 3e 38 47 69 3d 1f ea 9f bd fe e2 ab 3c
       0.1485903 0.056952685 -0.07808327 0.020982262
0000b0 06 51 9e bc 96 9c db bd 8d 9a 30 bd 51 36 2c 3e
       -0.019325744 -0.10723226 -0.04311614 0.16817595
0000c0 e8 82 dc 3c 60 83 22 3e 10 6e 06 be d9 1c 99 bd
       0.02691789 0.15870428 -0.13127923 -0.074762054
0000d0 6e c9 cf bc e4 9d c8 3c 1d b6 e7 bd 59 24 42 bd
       -0.025364604 0.02448935 -0.11314032 -0.047397945
0000e0 72 a8 9a bc cf 0e 04 be e1 3f a9 bd 69 ba af bd
       -0.01887915 -0.12896274 -0.08264137 -0.08580477
0000f0 38 9e be bd 84 f2 5e bd e6 7d 80 bd 04 7d 2e bd
       -0.093075216 -0.0544305 -0.06274013 -0.042599693
000100 27 9b bf bd 14 0e 79 3d 30 a7 06 3e 1c 37 df 3d
       -0.09355765 0.06080444 0.13149714 0.10899183
000110 af ba e6 bd 86 52 c2 3d 81 b8 24 bd 10 98 6a 3c
       -0.11266076 0.09488396 -0.04021502 0.014318481
000120 ef 8d f3 3d 09 ac eb 3d 3e 09 31 3e 36 8a 91 3d
       0.11892306 0.115074225 0.17288682 0.0710644
000130 dc ca be bd aa a2 9b 3c 28 fc bb bd 29 37 87 3d
       -0.09316036 0.018998463 -0.09178954 0.06602318
000140 ad a1 d8 3c c6 13 f1 bd 4b 23 d6 bd a6 f0 09 3e
       0.02644428 -0.117713496 -0.1045595 0.13470706
000150 df b8 ed bc 8a ee 0c 3e b8 5b 0c be 30 a3 1a bc
       -0.029018817 0.1376287 -0.13706863 -0.009438321
000160 0a 66 11 bb 9d 7a a7 bd 14 34 db 3d 4c fa ea 3d
       -0.0022186064 -0.081776835 0.107032925 0.114735216
000170 a3 1b 0c be 7a 9f 21 bd e5 b8 91 3c c3 16 15 bd
       -0.13682418 -0.03945873 0.01778836 -0.03639866
000180 b3 7c cb 3c db 1f 30 3e d1 23 01 be 3d 53 1f 3d
       0.024839735 0.17199652 -0.12611319 0.03889774
000190 1e 60 fd bd 8c ba 85 bd 2a 11 1a bc 1a 09 bb bd
       -0.123718485 -0.065297216 -0.009403506 -0.09132595
0001a0 80 18 03 be 3a ce 36 bd cc dd 0c 3e 53 ad 32 ba
       -0.12802315 -0.044630267 0.13756484 -0.00068159885
0001b0 a5 a8 cc bd 10 7b e3 bd ec e8 21 3e f9 26 d3 bd
       -0.09993104 -0.11107457 0.15811509 -0.10310168
0001c0 3d 1f a9 bd 5d 02 81 bd 1d 6c eb 3d fc 44 ce 3d
       -0.08257911 -0.06299279 0.1149523 0.100717515
0001d0 d9 2e ba bd 6d f0 c6 bd 38 db 1c bd 4d 91 94 bd
       -0.09090967 -0.09713826 -0.038295 -0.072542764
0001e0 a3 6f df bd da e3 e5 bc e5 37 04 bd db 30 77 bc
       -0.10909965 -0.02806275 -0.032279868 -0.015087332
0001f0 7e 65 5e 3c 81 9b 0c 3e 96 15 87 bd ad ba 38 3e
       0.013574002 0.13731195 -0.06595914 0.18039961
000200 85 67 79 3c a9 ba 94 3c 15 f9 dc 3c ae c5 fc bd
       0.015222435 0.018155413 0.02697424 -0.12342392
000210 79 e4 fa 3d 26 c6 80 3a f9 f6 10 bb f4 ea 84 3d
       0.12250609 0.0009824678 -0.0022119863 0.06490126
000220 28 4e 5d 3d fe 15 f7 3d 49 12 9d 3d 6f fe e9 3c
       0.054029614 0.120647416 0.07669503 0.028563706
000230 b7 91 84 bd 08 eb 19 3c 58 be 33 bc d3 ce cb bd
       -0.064731054 0.009394415 -0.010970674 -0.09951558
000240 c5 b7 e5 bd d7 1a a9 bc 12 88 12 bd a1 62 56 bd
       -0.11216692 -0.020642681 -0.035774298 -0.052340154
000250 47 e1 65 3d e8 1b ba 3d 88 d4 33 bd 4b 5b f3 bc
       0.056123044 0.09087354 -0.043903857 -0.029706618
000260 3e 39 2f bc 25 9b a9 3d 76 1f 4e bd c0 90 9d bd
       -0.0106948 0.082815446 -0.050322972 -0.076936245
000270 ae b1 66 bd 55 13 e7 3d f7 ef b6 bd 1c de 08 bd
       -0.056321792 0.11282984 -0.089324884 -0.033414945
000280 98 a3 47 3d 79 99 90 3d cd 0e 63 bd 6c af 09 3b
       0.04874 0.070605226 -0.055434037 0.00210091
000290 87 8d c4 bd 3d d3 03 3e d9 5d ce 3d 99 0a 90 bd
       -0.09597307 0.1287355 0.10076494 -0.07033271
0002a0 be 67 c3 bd 2b fb 4a 3d 6c 14 1b 3e 7a 2b b6 3d
       -0.095412716 0.04955594 0.15144509 0.08895011
0002b0 01 76 d4 3c cb ca e6 bc 5f 1d f7 bd 00 e2 80 bc
       0.025935175 -0.028172871 -0.12066149 -0.015732765
0002c0 1d 51 92 3d a5 08 48 3d b9 5d 2f 3e c6 17 ee bd
       0.071443774 0.04883637 0.17125596 -0.11625628
0002d0 9a f6 8a bc bd 00 23 3e 05 c5 e9 3c 3d c6 11 3d
       -0.016963292 0.1591825 0.028536329 0.035589445
0002e0 e1 41 de 3c 6b 53 d1 bc c4 79 16 be c6 4a f8 bd
       0.027131023 -0.025552472 -0.14694887 -0.12123637
0002f0 46 74 16 3e 39 38 6a bd 54 d5 f7 bd 34 4e 4f bd
       0.14692792 -0.057182524 -0.12101236 -0.05061169
000300 47 f8 a4 ba 34 f0 fb bd ed 78 bf bd 2e 35 c9 bd
       -0.00125862 -0.123016745 -0.09349237 -0.09824596
000310 71 fe 13 3e 89 a4 5c bd 73 01 90 3d c6 da 1e 3e
       0.1445253 -0.05386785 0.070315264 0.15513143
000320 98 0e 10 3e c8 ba c2 bd c8 93 b7 3c b6 c6 09 3e
       0.14068067 -0.09508282 0.022409335 0.13454708
000330 e8 c5 d6 bd 26 4d ab 3c 27 3f 7f 3d 18 a1 b5 bd
       -0.10486966 0.02091081 0.062316086 -0.08868617
000340 62 64 0d 3e 65 4b fe bd 2a 20 d6 bd 93 ac 06 be
       0.13807824 -0.12416724 -0.104553536 -0.1315177
000350 0f dc 78 3d 5f 2d ee 3d 8d 13 05 be 0d 0c 07 3e
       0.06075674 0.116297476 -0.1299574 0.13188191
000360 2f 94 d8 bd 12 d0 e8 3d 71 4b 31 be 0f f8 ab 3d
       -0.10575139 0.11367811 -0.17313935 0.08396923
000370 26 48 34 bd 5f 41 2a 3e 01 3a ba bd 85 9c 37 bc
       -0.04401412 0.166265 -0.090930946 -0.011206751
000380 6f a4 cd 3c e8 9c 20 bd 3e 9b 17 3d bd d4 9d bd
       0.025102822 -0.039212137 0.037013285 -0.07706592
000390 f8 5a 08 3e fa ba cf 3d 5f d6 18 3d 76 a3 e5 bd
       0.13315952 0.10143085 0.037313815 -0.11212818
0003a0 c6 78 21 3e d9 d1 4a 3c 0b 5a c2 bd c0 ac 2f 3e
       0.15768728 0.012379133 -0.094898306 0.17155743
0003b0 9c 33 0c 3d 66 db f0 bd c8 8d c1 bd ff 64 79 bd
       0.034228906 -0.11760597 -0.09450871 -0.060887333
0003c0 c3 a0 03 3e 89 79 07 bc 44 9c 09 bd b2 95 93 3d
       0.12854294 -0.008268722 -0.033596292 0.072062865
0003d0 76 58 4e bd 18 2d 8e 3d e7 8c 86 bd ea ba df bd
       -0.05037733 0.06942195 -0.06569844 -0.10924323
0003e0 77 49 23 3c ad fb 06 3e 05 bc 07 3b a7 d9 cb 3d
       0.009966246 0.13181944 0.0020711434 0.09953623
0003f0 2c 12 b9 3c a7 80 02 3e a2 94 40 bd 30 10 94 bd
       0.022591673 0.1274439 -0.047016747 -0.0722965

fc1.bias f4 [128]
000000 99 3f 21 3e 6e e9 75 3d 7d e4 61 3d 27 14 fa 3d
       0.15746917 0.06003707 0.055149544 0.12210875
000010 8e 63 41 bd 1f 49 37 3e 92 26 85 3d 18 fc f9 bb
       -0.047214083 0.17898987 0.06501497 -0.007628929
000020 0e 92 f1 3c d1 02 35 3e 7f 5e 41 bd 2b e1 e5 3c
       0.02948859 0.17676856 -0.04720926 0.02806147
000030 a6 ee 05 3e 8f 3d 6a bc 4d f3 44 3e 1f 10 93 3d
       0.13079318 -0.014296903 0.19233437 0.07180809
000040 be 13 2d 3d 1d 70 4a 3e cc 4a 96 bd dd 2b d1 3d
       0.042255156 0.1976933 -0.07338485 0.102134444
000050 cb 4b 77 bd b2 b3 00 3e 4d f9 b1 3d f0 b8 d3 3d
       -0.060375016 0.12568548 0.086901285 0.103380084
000060 3d ba 98 bd 0e bc 2a 3e 0b 96 24 bd 1e 5e b0 3c
       -0.07457397 0.166733 -0.040182155 0.021529254
000070 79 b3 e8 bd c9 5e 25 3d 84 5a ee 3b 06 37 05 3d
       -0.11362357 0.040373597 0.007273974 0.032523178
000080 00 50 90 bd e7 35 83 bd 3e 68 b7 3d 1d 43 04 3c
       -0.07046509 -0.064067654 0.089554295 0.008072642
000090 ee 5d 6c 3d 66 5a 48 3e 5e 5f 23 3d 2b 00 fa 3c
       0.057706766 0.19565734 0.03988587 0.030517658
0000a0 a6 18 69 ba 04 ac d6 bd f1 71 ff 3d cf 9f f9 3d
       -0.00088919175 -0.10482028 0.124729045 0.12188684
0000b0 12 f9 89 3d b0 93 21 3e 53 62 9a bd 22 33 64 bb
       0.067369595 0.15778995 -0.07538285 -0.0034820517
0000c0 17 68 0a 3d f3 a5 0d 3e 44 4e 0f 3e aa ce 00 3e
       0.033790674 0.13832836 0.139947 0.12578836
0000d0 c3 7c 25 bd 8f 19 e1 3d 1f 41 2c 3e dc 99 25 b9
       -0.040402185 0.10991203 0.16821717 -0.00015792943
0000e0 af d9 03 3e f5 06 79 3d 2d 78 af bc eb f1 af 3d
       0.12876008 0.06079765 -0.021419609 0.08591064
0000f0 4d 94 01 3e ea a6 a8 3d 25 64 85 3d 20 32 14 bd
       0.12654229 0.08234961 0.06513242 -0.036180615
000100 0e 07 af 3d 48 b2 81 3d 90 9e 52 bd 25 e0 2a 3e
       0.085462674 0.063328326 -0.05142075 0.16687067
000110 9b 00 9f 3d 8e a3 79 3d d8 a8 b0 bd d1 5a 70 3d
       0.07763787 0.060946994 -0.086259544 0.05868036
000120 99 2a b4 bd 43 43 2c 3e 72 72 d3 bd dc 68 cb bd
       -0.08797187 0.16822533 -0.10324563 -0.0993211
000130 95 de 8a bd 3d 81 64 3d 7e 0d 99 bd 12 73 34 3e
       -0.067807354 0.055787314 -0.074732766 0.17622021
000140 26 a4 1e bd c4 cd 1b 3d 4b f4 11 3e ea 75 a8 bd
       -0.038730763 0.03803803 0.14253347 -0.08225615
000150 ab cc 37 3d 17 dd 41 3d 17 3a 88 3d f7 e2 1c 3e
       0.04487292 0.04732999 0.06651705 0.15320955
000160 4f 3e 1f 3e 4e ed b4 3d d4 bb 6e bc a1 88 d4 3d
       0.15551113 0.08834325 -0.014571149 0.103776224
000170 2b 90 a5 bc ae e4 8d bd e5 8f b0 bd 11 e6 88 bd
       -0.020210346 -0.06928383 -0.08621196 -0.06684507
000180 78 45 cf 3d 21 a9 aa 3d 23 16 06 3e 40 cc ad bd
       0.10120672 0.0833304 0.13094382 -0.08486223
000190 65 90 fb bc d1 b1 cb bd 84 b9 36 3d ea ec 02 3e
       -0.030708501 -0.09946025 0.044610515 0.12785688
0001a0 a1 e4 17 bd b3 d1 95 bd 6b 7b 91 bd aa 90 a6 bd
       -0.037083272 -0.073153876 -0.07103618 -0.08133061
0001b0 f5 b7 2b 3e 8f 59 e2 3d c0 a5 c7 bc e1 43 25 3e
       0.16769393 0.11052238 -0.024371028 0.16139175
0001c0 28 b5 47 3e 91 18 62 bd 75 f0 f0 bd f1 38 4f 3d
       0.195027 -0.05519921 -0.117646135 0.050591413
0001d0 5d 86 17 bc 7c ed 84 3d 21 da 50 3e 81 da 65 3d
       -0.009248343 0.06490609 0.2039571 0.056116585
0001e0 ec ed 93 bd 77 5a 8f bd 51 cd fa 3d 6f bb f7 3d
       -0.07223114 -0.06999677 0.12246192 0.12096297
0001f0 5d 8a af 3d 0b 36 21 3d ae 7b 8a 3c fe 84 1c 3e
       0.085713126 0.03935818 0.016904678 0.15285107

fc2.weight f4 [128, 128]
000000 7b e9 2c 3d a0 f9 1f bd 80 09 1f 3d 8c 18 a0 3c
       0.04221485 -0.03905642 0.03882742 0.019542955
000010 8d 11 24 3d 12 7c ea 3d cd 91 8e 3c 65 e2 8a bc
       0.0400558 0.11449446 0.017403508 -0.016953656
000020 1c 3b 2f bd 1b 89 94 3c d0 0f d9 bc f2 65 21 3d
       -0.04278098 0.018131783 -0.026496798 0.039403863
000030 f5 fd e6 3d 39 bd 10 bd 72 f3 50 3d 78 76 6d 3c
       0.11278907 -0.035336707 0.051013418 0.014493577
000040 6c a7 fc 3d e3 be 04 3d 9e 81 8c 3d 6d 93 ce 3d
       0.12336621 0.032408606 0.0686066 0.10086713
000050 7c 98 1c 3b 06 37 d3 bc 1b 62 51 bd fd 22 ee 3d
       0.0023894599 -0.025783073 -0.05111895 0.11627767
000060 b6 9a 72 3d ca 06 77 3d ae 1a f3 bc 3d f2 bb bc
       0.059229575 0.06030921 -0.029675808 -0.022942657
000070 2a bc 82 3d 76 2f 19 3c 58 49 c9 bc e3 73 7a 3d
       0.06383546 0.0093496945 -0.024571106 0.061145674
000080 3d b5 93 3d c7 be a9 3d ad 3d 01 bd 2a 32 89 3d
       0.07212303 0.08288341 -0.03155296 0.06699021
000090 ba 03 b0 3d 8c 1a a0 3d 74 6d 4b 3d 84 28 86 3d
       0.08594461 0.078175634 0.04966493 0.065506965
0000a0 3e d5 00 bd 65 f8 02 bc 56 e2 22 3d f4 89 ae bc
       -0.031453364 -0.007993792 0.039766632 -0.021306016
0000b0 77 b6 91 bb ae 62 eb 3c 40 51 00 3e 53 ea d2 3d
       -0.0044468003 0.028733578 0.12530994 0.102986
0000c0 82 7c d2 3d 0e 10 28 bc 35 22 6e 3d 0d 18 7e 3c
       0.10277654 -0.010257734 0.05813809 0.015508664
0000d0 1f 28 d2 3d 3c f5 70 3d 5d 01 f4 3c 15 fa b7 3d
       0.10261559 0.058827624 0.029785806 0.08983246
0000e0 71 17 f8 bc b3 0d 70 3c d7 56 8a 3d e0 1c 8a 3d
       -0.030284615 0.014651704 0.06754845 0.06743789
0000f0 68 80 b6 3d 63 31 d5 bb a1 0d 74 3d fc 16 78 bd
       0.0891121 -0.0065061315 0.05958331 -0.060568795
000100 21 d0 18 3c 52 6c b0 3d 82 88 13 3d 79 10 47 3d
       0.009326966 0.086144105 0.036018856 0.048599694
000110 07 a0 8f ba a6 2a 36 bd e5 5b 08 bd 94 5a 69 bd
       -0.0010957726 -0.044474266 -0.033290762 -0.056971148
000120 c8 5e 17 bd a2 4c 8e 3d c7 e4 a5 3c de e9 6c 3d
       -0.036955625 0.0694821 0.020250691 0.05784022
000130 66 54 4a 3d 26 95 ff 3c 07 a8 aa 3c d3 d9 f7 bc
       0.049396895 0.03119905 0.020832075 -0.030255234
000140 40 89 13 3c 66 dc d7 3d 76 1d d3 3d fd 75 bf 3d
       0.009004891 0.105400845 0.103083536 0.09348676
000150 eb 78 14 bd ae 3e 09 3c ab 0c 35 bb 83 2a 5e 3d
       -0.03624813 0.00837676 -0.002762596 0.05423976
000160 3c 71 6c 3d 6f e7 64 3d 86 21 eb 3d f6 4b 25 bd
       0.057725176 0.055884775 0.114810035 -0.040355645
000170 3a c2 c5 3d 07 f5 c3 3d 8d 6f 45 3c ee ba f4 3d
       0.096561864 0.0956822 0.012050522 0.119497165
000180 48 49 58 3d 7b a7 58 bd 23 b7 8e 3d 8c 30 88 3d
       0.05280426 -0.052894097 0.06968524 0.066498846
000190 08 fc 90 3d 44 5f 9f 3d fa 40 4d 3d 57 0a b5 3d
       0.07079321 0.07781842 0.050110795 0.08839863
0001a0 75 c9 5b bd ba 5b 6d bc 55 03 83 3d a4 87 36 bd
       -0.05365892 -0.014487201 0.0639712 -0.04456295
0001b0 84 5e f8 bc fc 86 b4 3c e4 cc 90 3d 40 9b a3 3d
       -0.030318506 0.022037022 0.0707033 0.07988596
0001c0 d7 5e d2 3d 72 84 b3 3d bd af c4 3d dc 80 bf bc
       0.102719955 0.08765496 0.09603832 -0.023376875
0001d0 45 b8 b6 3d e0 46 7e 39 a8 65 c7 3d bd 3a 07 3d
       0.089218654 0.0002424973 0.09736186 0.033015
0001e0 39 d7 5d 3c 73 59 ee 3d 1e 9f 38 3b c5 d7 04 3d
       0.013540083 0.11638155 0.0028171013 0.032432336
0001f0 71 42 be 3d b2 35 aa bc 96 7a 5f bd 08 fa 98 3a
       0.092900164 -0.020777557 -0.054560266 0.0011671195
000200 53 2c 22 3d 0c 19 99 3c 9e 15 d2 3c e3 ac 5e bd
       0.039593052 0.018688701 0.025645074 -0.054364096
000210 a7 44 68 3d ac f6 23 bd 6c 7f 3a b9 8c 87 e0 3d
       0.056706097 -0.040030167 -0.0001778581 0.109633535
000220 65 19 50 3d 74 5a 35 3d 1c f9 61 3d f2 37 f3 3d
       0.050805468 0.044275716 0.05516921 0.11875905
000230 74 3d 20 bd 12 8c e4 3d 5c c2 98 3d 9a 31 f6 3b
       -0.039121106 0.11159529 0.07458946 0.007513237
000240 29 8a a7 3d 58 e7 96 3d b9 37 8e 3d 87 25 cb bb
       0.08180649 0.07368344 0.06944222 -0.006199542
000250 90 30 8d 3c 29 f6 0a 3d ae 86 ae 3d 68 77 0c 3d
       0.01723507 0.033926163 0.08521782 0.034293562
000260 37 0f 48 3d 20 39 86 3c f3 09 ac 3c ec 20 86 3c
       0.048842635 0.016384661 0.021000838 0.01637312
000270 54 7f 4f bd 96 f6 91 3d d3 93 30 bd 91 1b 2c 3d
       -0.05065854 0.07127111 -0.043109726 0.042018477
000280 74 7c 5a bd 6e 79 78 3d 79 73 d1 3d 19 91 00 bd
       -0.053341344 0.06066268 0.10227103 -0.031388376
000290 9b 2c 6c 3c 24 e5 bd bc 5e f6 ae 3d 55 05 41 3d
       0.014414932 -0.023180552 0.085430846 0.047124226
0002a0 25 93 27 3c b6 3a 31 3d 7b 7e 7f 3c 27 dc 0e bd
       0.010227953 0.04326888 0.01559412 -0.034877922
0002b0 91 3d 99 3d a6 7e f1 3d 80 5a 87 bc ad 18 fa 3d
       0.07482446 0.117917344 -0.016522646 0.12211738
0002c0 6b d4 fd 3d 37 7e e7 3d 21 ba b8 ba 0b 06 68 3b
       0.12394031 0.113033704 -0.0014093557 0.0035403993
0002d0 53 20 be 3c 2f 6e 29 bc 14 37 e7 3c fe e9 56 bc
       0.023208773 -0.010341211 0.028224505 -0.0131173115
0002e0 cc 9d db bc da 6e 28 bd 6f 85 2f 3d 76 b4 5e bc
       -0.026808642 -0.04112134 0.04285186 -0.01359283
0002f0 99 98 15 3d 1a ed a7 3c 17 60 4c bc b4 e6 a8 3d
       0.03652248 0.020498801 -0.0124740815 0.08247128
000300 1f 6b d5 3d 9c 1b 8f 3a ae 54 2f bd fa 4f 97 3c
       0.10420822 0.0010918262 -0.042805366 0.018470753
000310 b1 8b b1 3d e4 1e 1d 3c c9 87 82 3b 7d 2f dd 3c
       0.08669222 0.009589884 0.003983472 0.027000183
000320 2f 3c 1f 3c 81 9b 88 3b d4 ed 20 bd aa ac 43 bd
       0.009718939 0.004168928 -0.03928931 -0.047772087
000330 d2 7b 49 bd 63 b6 ad 3d 9a 72 12 bd 6e fe c3 3d
       -0.04919035 0.08482053 -0.035753824 0.09570013
000340 f8 85 83 3d e8 24 1b 3d 1f 72 63 3c 21 09 15 bd
       0.06422037 0.037876993 0.013882189 -0.03638566
000350 5b 43 a7 3b e5 5a f2 3d 47 09 4c 3d f4 df 5b 3d
       0.005104465 0.11833743 0.049813535 0.053680375
000360 21 25 c3 3c 40 a7 6f 3b 6c f5 08 bc aa 92 0c 3d
       0.023821415 0.0036568195 -0.008359294 0.034319557
000370 22 d7 ef 3d cc 13 67 3c 26 cd f2 3c ff 67 15 3c
       0.11710955 0.014103841 0.029638838 0.009119033
000380 6d 50 e8 bc 08 8b 7d 3c 98 64 9f 3d fd 27 03 3d
       -0.028358663 0.015475042 0.077828586 0.032020558
000390 92 09 56 3d d7 62 4e bd ea 3f a6 3c 51 6c 33 3d
       0.05225522 -0.05038723 0.020294148 0.04380447
0003a0 76 28 d2 3d 6a da 1e 3c fd b1 c4 3d 38 8f 0e bd
       0.102616236 0.009695629 0.09604261 -0.034804553
0003b0 76 3c 20 3d 68 b9 c9 3d 6a df 49 bd dd bb cd bc
       0.03912016 0.098498166 -0.04928533 -0.025113994
0003c0 2b 4b 01 3e 7e 2b 72 3d 5e bb c5 3c 1b 5b 24 bd
       0.1262633 0.05912351 0.024137195 -0.040125947
0003d0 07 37 d9 3c ad b7 f3 3d 9c 8a 13 3d 37 2b 61 bd
       0.026515497 0.11900268 0.03602086 -0.054972854
0003e0 5f 0b 8f 3d ae c9 3e 3d bd 88 68 bc ca 58 0b bd
       0.06984591 0.046579055 -0.014192757 -0.034020223
0003f0 a5 3e 34 3d cd 2e fa bc b2 3a 73 bd cd 51 40 3d
       0.044005055 -0.030539894 -0.059382148 0.04695301

fc2.bias f4 [128]
000000 1d ab c5 3d 6e 78 09 bd a1 ed 40 3d ed b3 20 bd
       0.09651778 -0.033562116 0.04710162 -0.03923409
000010 a5 2a 7f 3d 68 19 bf 3d 2e 80 0d bd 3b b3 df b9
       0.06229653 0.09331018 -0.03454607 -0.00042667412
000020 92 a8 0c 3d a8 7e f3 3d c1 14 bf 3d 65 d9 00 3d
       0.03434045 0.11889392 0.0933013 0.031457324
000030 65 c4 55 3d 8a 59 fc 3d b7 94 b3 3b 23 4d 5c bc
       0.05218925 0.12321766 0.0054803747 -0.013446125
000040 a5 c4 54 3d 2b 4d 95 bd ef 95 14 bd 52 18 04 3d
       0.051945347 -0.07290109 -0.0362758 0.032249756
000050 21 e8 8b bd 6e af 73 bc a8 e2 83 3d c7 fd 3a 3d
       -0.068313845 -0.014873369 0.064397156 0.045652177
000060 65 49 54 3d 71 0e 4d bc 0c 03 71 3c f3 29 05 3d
       0.051827807 -0.01251565 0.014710199 0.03251071
000070 a3 0a ae 3b f2 61 77 bd 92 5f a5 3d ef bb 66 3d
       0.0053113266 -0.060396142 0.08074869 0.05633157
000080 f3 04 20 3d cb b3 5f 3d d1 9f c4 3d ec 0f e9 3c
       0.03906722 0.054614823 0.09600795 0.028449975
000090 9e a2 cf 3d 52 32 bc 3d 03 9e ab 3d b3 13 5f 3d
       0.10138439 0.09189285 0.08379748 0.054462146
0000a0 cf 40 1c 3d 1d a8 36 3d f4 3f c3 3d f1 c7 c4 3d
       0.038147744 0.04459392 0.095336825 0.09608448
0000b0 ac f2 84 3d c4 d3 f8 bc 38 f4 d2 bc 97 92 29 3d
       0.064915985 -0.030374415 -0.025751218 0.041399565
0000c0 74 a9 a9 3d 81 67 65 3d 4c 7b c6 bb c6 6f 2a bb
       0.08284274 0.056006912 -0.0060571786 -0.0026006564
0000d0 30 38 82 bd 76 2a 11 bc 0b c5 05 3d 7d e7 bf bd
       -0.06358373 -0.008860221 0.032658618 -0.09370325
0000e0 0b fb c1 3d da 8f 04 bc e0 7e b6 3b 13 04 9b 3d
       0.09471711 -0.0080909375 0.005569324 0.075691365
0000f0 ff 13 31 3d 9c 88 fa bb 61 7b 5b bc 27 fb a7 bd
       0.04323196 -0.0076456796 -0.013396115 -0.082022004
000100 b5 28 28 3d 10 fe 63 3d 4f 65 ac bc b5 60 8b 3d
       0.041054446 0.055662215 -0.021044401 0.06805555
000110 dc ea 39 3d e8 71 25 3d 44 9f 23 3d ee 67 e6 3d
       0.045389995 0.040391833 0.03994681 0.11250292
000120 22 e2 57 3c 89 d4 8c 3d e9 06 fc bc 07 c1 f4 bc
       0.013176473 0.06876475 -0.030765014 -0.029877199
000130 0f c9 af 3d cd 6a 22 3d 69 25 0c 3d 6a 55 26 3d
       0.08583271 0.039652634 0.034215365 0.0406088
000140 eb 06 15 bd 28 db bd bc fd 21 48 bb 3f 61 f6 3c
       -0.03638355 -0.02317579 -0.0030537837 0.030075667
000150 95 26 cd bc a8 20 64 bd 71 3b 0d 3d c7 46 6d 3d
       -0.025042811 -0.055695206 0.034480516 0.057928827
000160 bb cc 1d 3d be 18 1e 3d e8 2f 4f bd 28 bc 79 3d
       0.038525324 0.038597815 -0.050582796 0.060970455
000170 5d bb b4 3d 88 c8 81 bc 80 ee b0 3d 7a e5 a5 3d
       0.08824799 -0.015842691 0.0863924 0.0810041
000180 d1 de b7 3d d0 9d 04 3e 30 b2 27 bd 19 e5 96 bd
       0.08978046 0.12950826 -0.040941417 -0.07367916
000190 36 ca 48 bd dd 4e 1d bd f6 4d e6 3c 83 c1 a7 3d
       -0.04902097 -0.038405288 0.028113347 0.08191206
0001a0 b7 f7 dd 39 dc 9f d6 3c a6 6c af 3d 5c e2 45 bd
       0.00042336967 0.026199274 0.08565645 -0.048311576
0001b0 bc f8 7c bd 56 17 ba 3d 03 43 81 3d d6 1d 92 bd
       -0.06176065 0.09086482 0.063116096 -0.07134597
0001c0 d4 87 35 3c 70 8b 18 bd b7 98 c0 3d b7 ac 50 bd
       0.011079747 -0.037242353 0.09404128 -0.050945964
0001d0 6c 70 46 3d 28 b9 88 ba 26 07 7f 3b 47 d1 ce 3c
       0.048447058 -0.0010431157 0.0038914173 0.025246276
0001e0 83 74 88 bd 74 5b 2f bd d9 51 27 3c 17 94 2d bc
       -0.06662848 -0.042811826 0.010212385 -0.010594389
0001f0 d8 2e 8b 3d 4c 2b 59 bd 4a e5 81 3c 45 e3 d2 bb
       0.06796044 -0.053019807 0.015856404 -0.006435784

value_stream.0.weight f4 [64, 128]
000000 58 91 34 3d 29 ec 9c 3d d3 cf 28 bd d1 c4 05 bc
       0.044083923 0.076622315 -0.04121382 -0.0081646005
000010 3f df 8a 3c 9a e6 18 bd 1c 64 80 3d e1 76 6e 3d
       0.016952155 -0.037329294 0.06269094 0.05821884
000020 e6 aa 71 3c 9b 00 56 bc 59 6a 9f bc 0d b7 ee 3d
       0.014750218 -0.013061668 -0.01945989 0.11656008
000030 34 d4 e0 3d 79 0b 23 3d 58 10 59 3c ad d0 aa 3d
       0.109779745 0.039805863 0.013248526 0.08340583
000040 11 a9 90 bd d2 51 8a bc 78 88 07 3e 34 fe 44 bc
       -0.07063497 -0.016884718 0.13235652 -0.012023497
000050 e0 9e 44 3d ea 60 97 3d 3e 6a 1d bd 4d 9a 89 3d
       0.048003078 0.07391532 -0.0384314 0.06718884
000060 24 b9 e7 bb ee 58 85 3d 83 e5 66 bd 83 a1 cf bc
       -0.007071631 0.065111026 -0.056371223 -0.02534557
000070 1e d7 e3 3a 8c 11 3d bc fc 82 58 3d ad fc 39 bd
       0.0017382836 -0.011539828 0.05285929 -0.045406986
000080 9a 03 92 3d f8 f3 bf 3d 8c 1a 6d bc e0 ce 81 3d
       0.07129593 0.09372705 -0.014471661 0.063382864
000090 f8 ba 00 bc dc b9 2b bd 36 83 35 3d 1e ee 9d 3d
       -0.007857077 -0.041925296 0.044314586 0.07711433
0000a0 3e 52 dc 3d 47 5c dc 3d db 3c f3 3d e8 49 cd 3d
       0.10757874 0.10759788 0.11876842 0.10023862
0000b0 3c dd 06 3e c9 9c 90 3c 77 1d 85 bd e5 a7 80 3d
       0.13170332 0.017652886 -0.064997606 0.06282023
0000c0 f9 57 75 3d 2e 54 82 bc e4 b3 6e 3d d2 43 cf 3a
       0.05989835 -0.01590928 0.058277026 0.0015813059
0000d0 e4 c9 b7 bc 2c 50 c9 3c 30 7d eb bc 98 fd c2 bd
       -0.022435136 0.024574362 -0.028746217 -0.095210254
0000e0 c4 84 0e bd a4 cf 0e 3d 3d b1 a3 3d cb 89 1f 3d
       -0.034794584 0.03486599 0.0799279 0.03894977
0000f0 31 77 5c bc 53 1e 05 bd 00 80 35 bd 19 a6 56 3d
       -0.013456152 -0.032499623 -0.044311523 0.052404497
000100 c5 f1 40 bc 49 4d 2f bd 76 f1 35 bc 37 3f fb 3d
       -0.011776392 -0.042798314 -0.011104932 0.12267917
000110 a4 ac 4c bd d6 10 9d 3c 54 38 46 3d ba 2e 9a 3c
       -0.04996933 0.019173067 0.048393562 0.01882111
000120 8c 6f e5 3d 5d 7a 1e bd a6 ef 18 bc 27 5e ae 3d
       0.112029165 -0.038690913 -0.00933448 0.08514052
000130 41 5c e8 3d 50 32 e8 3d 10 25 35 bd fe 48 80 3d
       0.11345721 0.11337721 -0.0442248 0.06263922
000140 e6 2a 92 3d ce 03 d7 3d 91 95 5f bd 31 d1 2f 3c
       0.071370885 0.104987726 -0.054585997 0.010731027
000150 d4 1e 02 3e 5b 20 05 bc be 3f 61 bd 6c ea 69 3c
       0.12707072 -0.00812539 -0.05499243 0.014277082
000160 b3 4f 6d 3d cc 2b c1 3d 37 5d 3a 3d eb aa 42 bd
       0.057937335 0.09432182 0.045499053 -0.04752628
000170 f7 a6 aa bc 17 10 1d 3d aa db f1 3d ab 5a 6c 3d
       -0.020831568 0.038345423 0.11809476 0.057703655
000180 6b 05 c3 3c be 23 29 3d 84 ee e7 3b 26 71 fb 3b
       0.023806294 0.041293852 0.007077994 0.0076734005
000190 7f 40 29 bd 9a 28 0b bd 3c 60 8b 3d 31 47 94 3d
       -0.041321274 -0.033974268 0.068054646 0.07240141
0001a0 6d 63 9f 3d f4 f9 b0 3c cb 95 87 3d ed 4b 10 3c
       0.07782636 0.021603562 0.066203676 0.008807165
0001b0 41 2a 57 bd a2 57 44 3d d3 b7 51 3d 6a 17 e5 3c
       -0.05253053 0.047935136 0.0512007 0.027965266
0001c0 29 e7 fb 3d a3 2a 22 bd 91 4a b3 3c 45 bf b7 3d
       0.1229995 -0.039591443 0.021886142 0.08972029
0001d0 7f d5 89 3c a2 45 ff 3d ca e0 1f 3d a1 fd f4 3d
       0.016825436 0.12464453 0.039032735 0.119624384
0001e0 ef 5e 90 bc 9a ab 61 bd 6d 06 4a 3b ee 2a 15 bc
       -0.017623393 -0.055095293 0.0030826584 -0.0091044735
0001f0 c4 48 6a bc fa f3 de bd 3d 82 0d bd 96 48 e9 bc
       -0.014299575 -0.108863786 -0.034548033 -0.028476994
000200 ae 02 11 3d b1 30 81 bd 7e d1 a7 bd f0 53 1f 3d
       0.035402946 -0.06308115 -0.08194254 0.03889841
000210 ff 9f 87 3c 77 3f 97 3d 70 28 ad bd 8b fd 7a bd
       0.016555784 0.07385152 -0.084549785 -0.061276954
000220 e6 47 ab 3d c4 b4 c3 3c c4 1c 84 3d 39 1a bf bc
       0.08363323 0.023889907 0.06450799 -0.023327934
000230 a8 5c bd 3c ad 9b 6e bd ea 69 41 bd 08 aa 37 bd
       0.023115471 -0.058253933 -0.04722015 -0.04483989
000240 43 46 b6 3c 41 86 3d bd 49 44 09 ba bb 2d 76 bd
       0.0222503 -0.046270613 -0.00052363105 -0.060102206
000250 0c de 7a bd 39 05 96 3c cb f2 89 bd 8d 4b 94 3d
       -0.061246917 0.018313037 -0.06735762 0.07240973
000260 d4 cc b0 bc 58 93 63 bd 28 be 84 3d 36 44 89 3d
       -0.021582045 -0.05556044 0.06481582 0.06702463
000270 8b 4e b8 bd 6e be 7c 3d 71 7f 92 bd be 6e 32 3c
       -0.08999356 0.061705045 -0.07153214 0.010890661
000280 03 a7 ce 3c b7 f2 e8 ba 94 85 d5 bd da 9d ab 3d
       0.025226122 -0.001777253 -0.10425869 0.08379717
000290 c9 f8 97 bd d4 c9 5d bc d4 d4 80 bd 43 c5 17 3d
       -0.07420499 -0.013536889 -0.06290594 0.037053358
0002a0 72 01 02 bd a5 27 01 3d d8 e2 56 bd 7e 39 82 bd
       -0.03173966 0.03153195 -0.05246243 -0.06358622
0002b0 80 54 58 3d f5 ab 3c bc b9 80 15 bd 9f 71 5a 3d
       0.05281496 -0.011515607 -0.036499713 0.053331014
0002c0 bc 82 b5 3d 10 21 99 bd 93 fc 6c 3d 08 b1 15 3d
       0.08862826 -0.07477009 0.05785806 0.036545783
0002d0 ea 06 c4 bc 5f 50 aa bd 8c 0e 37 bd 5d 85 ba 3c
       -0.023929078 -0.08316111 -0.044691607 0.02276867
0002e0 54 8b 4c bd 84 4b 37 bd 22 d7 af bc 14 97 25 3d
       -0.04993756 -0.04474975 -0.021464888 0.040427282
0002f0 f4 8b a4 3d f1 29 55 bd 95 77 8a bd b2 f1 83 bb
       0.080345064 -0.05204195 -0.0676109 -0.004026615
000300 a2 49 b1 3d 22 2c 98 bd 4f 55 8a 3d 6c 92 b3 bc
       0.086566225 -0.07430293 0.067545526 -0.021920405
000310 19 da be bb 09 a4 cb bc 88 65 80 3d 3a 65 71 bd
       -0.005824339 -0.024858491 0.062693655 -0.058934428
000320 71 32 92 bd 0f ee 97 3c bc a3 97 3d 0f 23 de 3b
       -0.07138527 0.018546132 0.07404277 0.0067790817
000330 3f 7f a0 3d 6d ba 5e 3c 3e 0a 86 3d 52 1a c3 3c
       0.0783677 0.013594252 0.06544922 0.023816261
000340 4e f1 b7 3d c9 9d b0 bc 3d e4 99 3c 0d 64 88 3c
       0.08981572 -0.021559613 0.01878559 0.01664927
000350 43 a8 f7 3c 79 33 90 bd 91 1c a9 3d ef 62 8b bd
       0.0302316 -0.07041068 0.08257402 -0.068059795
000360 b3 53 82 bd 14 02 ae bb 07 19 40 3d 91 35 e5 bc
       -0.063636206 -0.0053103063 0.046898868 -0.027979644
000370 b1 4c 9b bd 3c 14 4f 3d 47 23 4b bd 3f 8f 82 bc
       -0.07582987 0.050556406 -0.04959419 -0.015937446
000380 8a f2 9a bd 98 93 2c bc 20 a7 84 3d 9c 60 7a 3d
       -0.07565792 -0.010533236 0.06477189 0.06112729
000390 1e 67 ff 3b 49 72 9e 3d 2f 40 9b 3c c7 27 97 bd
       0.007794275 0.07736642 0.018951504 -0.07380634
0003a0 06 3a 19 bd bc 95 79 3d f4 1f 93 bd 4c d1 0e 3d
       -0.03740885 0.060933813 -0.07183829 0.03486757
0003b0 63 78 96 3d 03 b9 94 bd c6 aa 84 3d d5 ea c9 bb
       0.07347181 -0.07261851 0.06477885 -0.0061620274
0003c0 3e ca 56 3d da 76 0f 3d 03 9d 1d 3c c1 87 96 bd
       0.052438967 0.035025455 0.009619954 -0.07350112
0003d0 3a a4 00 3d b0 ee 34 bb 4e 45 74 bd 0d c5 8e 3d
       0.03140662 -0.002760809 -0.059636407 0.06971178
0003e0 08 c1 03 bd 89 e1 80 bd af d6 18 3d ac a7 69 3d
       -0.03216651 -0.062930174 0.037314113 0.05704467
0003f0 28 1e 97 bd 62 3b 81 bd f6 8c 63 3d f1 01 42 3d
       -0.07378799 -0.063101545 0.055554353 0.047365133

value_stream.0.bias f4 [64]
000000 82 d5 1b bd 3b 20 02 3d d5 04 9e 3b b2 2f 97 3d
       -0.038045414 0.03176902 0.0048223534 0.07382144
000010 fb c3 25 bd 37 ae a3 bc b8 24 10 3d e3 b3 68 3d
       -0.040470105 -0.019980533 0.035191268 0.05681218
000020 ee 5b ac 3d ae eb 95 3d 1f ac 83 3d 00 b5 a9 3a
       0.08415972 0.07320343 0.06429314 0.0012947619
000030 7b 1a a2 3d 8c e6 90 bb cd 31 d0 bb 97 17 a0 3d
       0.07915207 -0.0044220146 -0.006353593 0.078169994
000040 d3 5a 3f bd 6f 6a c7 bc c4 43 24 3d 17 f6 df bb
       -0.046717476 -0.024342744 0.04010369 -0.006834756
000050 af 80 b3 bc c2 6a 8e 3c a4 df 94 3d 1b 31 f4 3c
       -0.021911947 0.01738489 0.072692186 0.029808572
000060 61 3a 65 3d c7 ed 3b bc 69 5b 30 3d 44 d5 7b 3d
       0.055963878 -0.011470265 0.043055926 0.061482683
000070 e8 7f 15 3d d4 19 6f 3c 80 d7 81 bd cd 1b 85 bd
       0.036498934 0.01459356 -0.063399315 -0.06499443
000080 8d 6a a1 3d e9 3f 4f bd d1 73 47 bd ff 3d a3 3d
       0.07881651 -0.05059806 -0.048694436 0.07970809
000090 c2 28 27 3d 7c 3a a1 bd 97 fb 7c 3d 8d 97 0d bd
       0.040810354 -0.07872483 0.061763372 -0.03456836
0000a0 85 0f b5 bd c3 ce 65 3c 89 bf 4f 3c e1 82 cf 3c
       -0.08840851 0.014026347 0.012679943 0.025330963
0000b0 05 2f 5e bb 77 ef 8d 3c a1 bc fe 3c a8 f7 5c 3d
       -0.0033902538 0.0173261 0.031095805 0.05394712
0000c0 9d 16 b3 3d 92 9c 74 bd 42 1b d9 3c 48 a3 d3 3c
       0.087445475 -0.05971963 0.026502255 0.025834695
0000d0 60 a9 d6 3c f0 52 01 3d c1 17 af bd e2 a0 d5 3c
       0.026203811 0.031573236 -0.085494526 0.026077691
0000e0 28 56 b8 3d ab 32 ec 3c bc fc ac bd fb 48 b1 bd
       0.09000808 0.028832754 -0.08446643 -0.08656498
0000f0 bf 36 a9 bd d4 a6 4b 3d cc a7 05 3d 2c 67 e6 3c
       -0.08262395 0.049719647 0.032630727 0.028125368

value_stream.2.weight f4 [1, 64]
000000 60 90 0e 3e d5 9e 7f bc fa 96 72 bd e5 45 0e 3e
       0.13922262 -0.015601833 -0.059226014 0.1389385
000010 c9 b7 3d bd 80 90 b3 bd f1 db ee 3d 68 0b b8 3d
       -0.04631785 -0.087677956 0.11663044 0.089865506
000020 7f 53 8b bd 06 bf eb 3d 6d 3a a4 bd e8 26 84 3d
       -0.06803035 0.11511044 -0.08018956 0.06452733
000030 ca af 95 bd 18 4f 77 bd 3c 96 bc bd 70 87 15 3e
       -0.0730892 -0.060378164 -0.092083424 0.14602447
000040 fe 79 33 3d db 39 b2 3d c9 7b 2f bd 24 42 06 be
       0.043817513 0.08702441 -0.04284266 -0.13111168
000050 94 b7 f1 3d a7 0e a0 3d c3 40 a9 bc e4 9d be 3d
       0.11802593 0.07815295 -0.020660764 0.09307459
000060 28 83 55 3d 5d 31 9d 3d ab e3 7a bd e8 0e 9b 3d
       0.052127033 0.07675431 -0.061252277 0.075712025
000070 4e cf a4 bd b3 f6 84 bd b3 53 af bd 2f bd d8 bd
       -0.08047353 -0.06492367 -0.08560886 -0.10582959
000080 4e 65 17 3e f0 0c c2 bc ca 90 ff 3d ea 91 af bd
       0.14784738 -0.02368781 0.12478788 -0.08572753
000090 e8 7e a7 bd 46 0d e8 3d 9f 82 15 3e 0d 76 9e bd
       -0.08178502 0.11330657 0.14600609 -0.0773736
0000a0 23 16 85 bb 78 ee ef bd 6f 71 3c 3d a8 2d e1 bd
       -0.004061477 -0.11715406 0.046006616 -0.10995036
0000b0 97 d5 95 3c d4 da 20 3d 12 df 06 bd 3a 49 f2 bd
       0.018290324 0.03927119 -0.03292758 -0.11830373
0000c0 45 3f 92 bd 3c 35 2c bd 0d df 58 3d 12 2b 7b 3d
       -0.07140974 -0.042042956 0.052947093 0.061320372
0000d0 97 c6 08 be 15 23 2b 3c e4 cd 11 3a 11 e8 b1 3d
       -0.13357006 0.010445376 0.0005561991 0.08686841
0000e0 c3 06 77 3d 44 01 40 bc c4 ea 28 3b 9c b3 03 3d
       0.060309183 -0.011719052 0.0025774697 0.03215371
0000f0 e2 0a 84 3d f8 04 f3 3d 52 66 12 bd 70 b3 57 bd
       0.06447388 0.11866182 -0.03574211 -0.05266136

advantage_stream.0.weight f4 [64, 128]
000000 db d0 eb bc 8d 9d b4 bd e3 0e b4 3c 57 9b 55 3c
       -0.028786113 -0.08819113 0.021979755 0.013037524
000010 96 7c 58 bd 77 98 a0 3d ef fd 1b bd 66 ed 4f 3b
       -0.05285319 0.0784158 -0.038083967 0.0031727194
000020 1a b7 46 bc 4d a9 70 3c 8b 30 01 bd 18 59 78 3d
       -0.012128616 0.014688802 -0.031540435 0.06063184
000030 22 63 8f bc 04 68 bb 3c 24 23 93 3d e6 85 4e bd
       -0.017503325 0.022876747 0.07184437 -0.050420664
000040 20 51 9f 3d 22 29 a0 bd 07 5f 0f 3d da 73 19 bd
       0.07779145 -0.078203455 0.035002735 -0.037464
000050 75 31 4d bc 8a 59 05 3c 8b 64 86 bd f5 ab ea bc
       -0.0125239985 0.008139024 -0.06562146 -0.028646449
000060 19 b1 8d bd d8 d6 8e bd 66 34 af bd bd 5b 96 3c
       -0.06918544 -0.06974572 -0.08554916 0.018354291
000070 23 05 5f bd 63 e6 e0 3c 8e f1 2a bb 35 5d 2a 3d
       -0.054448258 0.027453607 -0.002608392 0.041592795
000080 76 53 5a 3c 7b 93 99 bd dc 3a 90 bd 0b 88 41 3d
       0.013325563 -0.07498833 -0.070424765 0.04724888
000090 83 5b 9a bd 06 70 ac bd 68 dc 9a 3d d0 8e a8 bd
       -0.07536986 -0.08419804 0.075615704 -0.08230364
0000a0 cc 4a 55 bd 76 d5 21 bd 1a 25 75 3d 8a d4 0d bd
       -0.052073285 -0.039510213 0.059849836 -0.03462652
0000b0 7e cc 0f 3d fe 4b 5b bd 26 ec c6 bc ab 25 60 3d
       0.03510713 -0.05353927 -0.024282526 0.054723423
0000c0 5e 5a ca 3c f9 b8 76 bd 2b 4c 1d bd f6 2c 98 bd
       0.024701294 -0.060234997 -0.038402718 -0.074304506
0000d0 4e aa 13 bd d3 8b ab bc f7 db 97 3d 41 ac d8 3c
       -0.036051087 -0.020940697 0.07415002 0.026449325
0000e0 f8 1e 0b 3d a5 13 9d bd 9a 2f f5 3b 14 02 8e bd
       0.03396508 -0.076697625 0.007482481 -0.0693399
0000f0 ed 67 bf bd 3b 0c 19 3d 46 b5 2f bc 7a 08 fa bc
       -0.09345994 0.03736518 -0.010724371 -0.03052162
000100 ca 7f b5 bd bf d6 50 3d 74 a8 d2 bc 9c 93 d4 3c
       -0.088622645 0.050986048 -0.02571509 0.025949292
000110 77 54 94 bc 10 2e d1 3a ea 28 8d 3d a1 92 9c bd
       -0.018106682 0.0015959162 0.06892569 -0.07645155
000120 a6 8a c2 3c f4 bb 97 bd cc 70 27 3d 45 19 55 3d
       0.023747753 -0.07408896 0.040879056 0.052026052
000130 32 0b a0 bd 6b 63 04 3d 4e be 4e 3d 0c 0d f3 39
       -0.07814635 0.032321375 0.050474457 0.00046358292
000140 5c 70 4a 3d c9 ea 4e 3d 1c a3 16 3d 82 10 aa bc
       0.04942356 0.050516877 0.036776647 -0.020759825
000150 4a 97 a8 3d 7b 8b 90 3c 7f 42 4b bc c6 aa 7b 3d
       0.08231981 0.017644634 -0.012405991 0.06144216
000160 2c 11 17 bd 3d 53 82 bc 47 2c 82 3d 1f 6e b9 3c
       -0.03688161 -0.015908832 0.063561015 0.022635518
000170 cf 44 a7 3c 26 71 a2 3d 5f 5d 1d bc f7 b2 96 3d
       0.020418553 0.079317376 -0.009604781 0.073583536
000180 57 ef 84 3d 32 79 a0 3d 0f 8d a4 bd 46 dc 81 3d
       0.06490963 0.07835616 -0.08034717 0.06340842
000190 df 76 1f bc c9 8e 06 bc ff ac 8a 3d 89 3f cd 3c
       -0.009732931 -0.008212754 0.06771278 0.02505471
0001a0 3d 79 b0 3d 38 64 69 3d b7 ca 5d bd b7 a2 e8 bc
       0.08616874 0.05698034 -0.054148402 -0.028397901
0001b0 7a 6f 84 bd d8 3b ac bc 77 28 4c 3c 87 c7 4c 3c
       -0.06466575 -0.02102463 0.012460819 0.012498743
0001c0 33 d9 75 3c 20 8d 5e bd d4 ac 89 3c 17 80 02 bd
       0.015005398 -0.054333806 0.016806044 -0.031860437
0001d0 5b f3 98 3c 4c 69 d4 bc 62 4d 98 bd 13 2c 9f 3d
       0.018670728 -0.025929116 -0.074366346 0.07772078
0001e0 43 d7 7a bd 9a 92 aa 3d 2d 6b cc 3b 65 3e 77 bd
       -0.061240446 0.08328743 0.0062383623 -0.06036224
0001f0 1c 5f a9 3d 1b 7f 49 bd ee 98 8c 3c 53 35 af 3c
       0.08270094 -0.049193483 0.017162766 0.021387732
000200 06 c3 29 bd 24 aa 6d bd 9d 8e 0a 3d 59 0b 9d bc
       -0.041445754 -0.058023587 0.033827413 -0.01917045
000210 c5 6a 4e 3d a6 d2 9d bd 50 9f 3b bd 91 52 98 bc
       0.050394792 -0.077061936 -0.04580623 -0.018594058
000220 9a 65 7c bc db e1 81 bd b7 fa 98 3c 5d 6c f6 3c
       -0.015405083 -0.06341907 0.018674238 0.030080969
000230 59 ec f0 3b 8a 0e a6 3d 54 3c 70 3c 79 a3 15 bd
       0.0073523936 0.08108242 0.014662821 -0.036532853
000240 26 1f 76 3d df e2 83 3d 7c c9 24 bd 1a 1e 48 bd
       0.0600883 0.064397566 -0.040231213 -0.048856832
000250 7a 66 b5 bc b8 1a a8 bd a0 c8 a8 3d c1 02 b0 bc
       -0.022143591 -0.08208221 0.08241391 -0.021485688
000260 91 f4 06 3d cf 3a b1 3d 74 76 65 bd 93 57 21 3d
       0.03294808 0.08653795 -0.05602117 0.039390158
000270 75 21 12 3d df 3c 62 bc 58 e3 7d 3d b9 c9 94 bc
       0.03567644 -0.013808458 0.06198439 -0.018162595
000280 14 99 4d 3d 62 a0 bb bd 9f ed 65 bd 4f 32 a9 3d
       0.050194815 -0.0916145 -0.056134816 0.08261549
000290 9c 2a 8a bd 1c 4f 60 3d 2c 3c db bc d8 3e 34 3d
       -0.06746408 0.054762945 -0.02676209 0.044005245
0002a0 d7 f4 44 3d f0 00 d4 bb 1a 1c a9 bd ab 0b 89 3d
       0.04808506 -0.0064698383 -0.08257313 0.066916786
0002b0 28 ab 53 bc 0e eb aa bc a5 b3 bc bc c7 c7 1f bd
       -0.012919225 -0.020864036 -0.02303488 -0.039008882
0002c0 6b 46 1c bc 90 be 9e bd c0 e6 3b 3c 87 5b ce bd
       -0.009538273 -0.07751191 0.011468589 -0.10076051
0002d0 22 7d aa 3c 21 e3 06 3c 4e 7a 68 3d b2 0f 56 bd
       0.020811621 0.008232863 0.056757264 -0.052261062
0002e0 e1 e2 af 3c 68 c9 08 3d e7 74 b7 3d de 7a 4d bd
       0.021470489 0.0333952 0.08957844 -0.050166003
0002f0 38 0d 0c bc f4 ca 49 bc bc df c1 3a ae 5c ba 3d
       -0.0085480735 -0.012316454 0.001479141 0.090997085
000300 53 78 58 3d da db aa bd dc 8d 0f bd a6 c4 c0 3d
       0.052849125 -0.083427146 -0.035047397 0.09412508
000310 f7 51 ef 3a cb 66 34 bd 02 cf 33 bd 8c 43 f6 bb
       0.001825868 -0.044043344 -0.04389859 -0.0075153764
000320 0b b3 92 3d 57 86 63 bd 4b 41 93 bd 39 83 91 3d
       0.07163056 -0.05554804 -0.07190188 0.07105107
000330 5d 6b 68 bd d6 1a 6c 3d 2f 03 b4 bd d9 a2 e3 3c
       -0.056743015 0.05764278 -0.0878967 0.027787613
000340 a2 3e 11 bc 85 e8 c2 bc 5c a8 59 bb 2a fb 41 3d
       -0.0088650305 -0.023792515 -0.0033211922 0.04735867
000350 68 20 a9 3d 45 b4 4d 3d 75 04 aa bb c3 17 89 bd
       0.08258134 0.050220747 -0.0051885196 -0.06693985
000360 84 3d 9f bd 51 92 13 bd 03 f4 32 bd 01 af a8 3d
       -0.07775405 -0.03602821 -0.04368974 0.08236504
000370 4b 12 13 bd ba 4a 2d 3d 32 86 7e bc 1b ae e6 bc
       -0.035906117 0.042307593 -0.015534924 -0.028159192
000380 3e 7b dc bc 44 46 c2 3b 19 0c e8 3c 11 d8 6b bc
       -0.026914235 0.0059287865 0.028326081 -0.014394776
000390 f3 9e e7 3c 75 ac c7 bc 79 01 72 3d 1e e3 90 bd
       0.028274035 -0.024374226 0.059083436 -0.07074569
0003a0 ef 92 96 bd e2 da a8 3d e7 8d 7e 3d e5 2f 35 bc
       -0.07352244 0.082448736 0.062147047 -0.011058782
0003b0 4e fe be 3d cc fc b1 bc 98 ee e1 3b 89 f9 30 3d
       0.093258485 -0.021726988 0.0068948977 0.043206725
0003c0 12 b1 6e 3d 9f 70 b7 3c fc 7c 34 bd 8d 9f 79 bc
       0.058274336 0.02239257 -0.044064507 -0.015235794
0003d0 1c 2b 45 3d e4 2b a2 3c a1 61 a2 3d 43 df 8a 3d
       0.048136815 0.01979632 0.079287775 0.06780865
0003e0 64 0a 8c 3d 57 f2 a6 3d cd 03 02 3d 11 82 86 bc
       0.06837919 0.081516914 0.031741906 -0.016419442
0003f0 d0 f3 85 3d c5 35 47 3d 79 c4 82 bd 00 a9 f4 3c
       0.06540644 0.048635263 -0.063851304 0.029865742

advantage_stream.0.bias f4 [64]
000000 a0 05 06 bd d3 ae 3d bd e5 2b 4f 3c b7 b6 89 bd
       -0.03272021 -0.046309303 0.012644743 -0.06724303
000010 e8 cf a7 bb 5d 4e 42 3d 77 fc be bd 1a 41 60 bd
       -0.00512122 0.047438014 -0.093254976 -0.054749586
000020 4d 17 8b 3d 25 7b ae 3c 76 3d b6 bd e9 b8 4d 3d
       0.06791554 0.021298954 -0.088984415 0.050225172
000030 d8 ca ea 3c 44 c0 af 3d 76 46 9c 3d 77 c1 36 3d
       0.028661177 0.08581594 0.07630627 0.044618096
000040 48 70 d2 3d f1 a1 fe 3c 13 28 88 3d 0a 41 5c bd
       0.10275322 0.031083079 0.066482686 -0.053772964
000050 6b 68 ff 3c a6 80 a3 3d 7d 62 70 3d 79 18 3c 3d
       0.03117772 0.07983522 0.058687676 0.045921776
000060 2d 10 41 3d bc f8 99 bd 60 89 99 bd 1a 77 fd bc
       0.047134567 -0.075181454 -0.07496905 -0.030940581
000070 9e 97 90 3d f9 30 3d 3c b8 a8 dd 3d 95 a2 8a bd
       0.07060169 0.0115473205 0.10823196 -0.06769291
000080 82 0e 35 bd 7c de 94 3d 7c 21 7e 3d 7e bd 28 3a
       -0.04420329 0.07268998 0.062043652 0.0006436928
000090 ce 8d 3c 3c e5 87 83 bd 5a 4a 05 bd 75 a1 c5 bc
       0.011508418 -0.06422404 -0.03254161 -0.02412484
0000a0 c4 9c 64 3c 5f 2c d6 3d aa aa f4 bc ef 72 20 bd
       0.013953391 0.10457682 -0.029866535 -0.03917211
0000b0 3a 90 a7 bc 6f ee 91 bd b2 b9 38 3c 27 01 c6 bc
       -0.020454515 -0.07125556 0.011274742 -0.024170471
0000c0 34 1a 17 3d 5c 2b 91 3d 24 07 2c 3b 83 4e a8 3c
       0.036890224 0.07088348 0.0026249373 0.02054525
0000d0 a1 6d e3 bc 31 fc 8a 3d 94 ef b5 3d 64 1b 85 bd
       -0.027762236 0.06786383 0.088835865 -0.06499365
0000e0 9c c5 36 bd 07 c0 87 bd 44 67 e0 bb e2 cc f9 b8
       -0.04462205 -0.06628423 -0.0068482477 -0.00011911408
0000f0 02 73 8a 3d 2f ed 3c 3d 5a 7f 1d 3d 5c 76 51 bc
       0.06760217 0.046124633 0.03845153 -0.012784567

advantage_stream.2.weight f4 [8, 64]
000000 c9 b4 ef 3d 5e aa f0 bc ed 0d 92 3c 5d 5a b1 b9
       0.11704404 -0.029378112 0.017828906 -0.00033827397
000010 dc b5 a6 3d 5f 14 11 bd ec f0 b2 3d 7c 6c 91 3d
       0.08140156 -0.035419818 0.087373585 0.0710077
000020 4b 22 66 bb ea 24 b8 bd c7 eb 96 3d c5 6c 88 bc
       -0.0035115655 -0.08991416 0.0736919 -0.016653428
000030 87 56 32 be 59 ea 09 be b0 25 22 bd 2c f6 77 3d
       -0.1741582 -0.13468303 -0.039586723 0.060537502
000040 1a e5 0d be 45 71 0b be d3 db 12 be 4f 2e 16 3d
       -0.13856927 -0.13617428 -0.14341669 0.036665257
000050 73 ef a0 3d 5c 5a e1 3d 1e 8f d9 3d 95 79 5c bd
       0.07858171 0.11003563 0.106230006 -0.053826887
000060 66 2a 86 3d c4 3c df 3d 9c fa 73 bd 6d 1e eb 3d
       0.065510556 0.10900262 -0.05956517 0.11480413
000070 16 91 89 3d ec 75 2e 3c 06 66 bc bc 48 15 70 bd
       0.06717126 0.010648232 -0.022997867 -0.058614045
000080 a0 12 09 3c 82 f0 3e bd b8 eb 0d be 8f bc 73 ba
       0.008366257 -0.046616085 -0.13859451 -0.0009297812
000090 19 8c c4 bd a3 72 b3 3d a1 05 bb 3d ed 5c f0 3d
       -0.09597034 0.087620996 0.09131933 0.11736474
0000a0 e1 33 12 bd b1 91 4e bd 80 4e e1 3d 18 6b 99 3d
       -0.035694007 -0.05043191 0.11001301 0.0749113
0000b0 c2 a0 7a bd 37 e0 f3 bd ae f0 fa ba df 64 eb bd
       -0.061188467 -0.11908 -0.0019145214 -0.11493849
0000c0 47 c2 81 3d 90 76 eb bd ba 16 f6 bd 98 40 33 3d
       0.063358836 -0.114972234 -0.120160535 0.043762773
0000d0 cd 85 92 bd 60 e2 14 be 21 ad 9c bd d8 2b e3 bc
       -0.07154427 -0.1453948 -0.07650209 -0.027730867
0000e0 f4 01 27 3d 53 6e c3 3d 31 01 cb bd fa da 90 3d
       0.040773347 0.09542527 -0.099123366 0.070730165
0000f0 fb 33 91 3d bb 34 c4 3d 0b 0a f2 3d e2 7d 95 3d
       0.070899926 0.0958037 0.11818322 0.07299401
000100 29 0f 92 bc e1 e7 43 bc 1a 3f 4d 3d 19 8d 04 3e
       -0.017829495 -0.01195714 0.050109006 0.1294445
000110 5e d7 4d bd 2b 4c 04 3d 19 e8 b4 bd dd 93 a2 3d
       -0.05025422 0.032299202 -0.088333316 0.07938359
000120 90 2e bb bb 71 cb c2 bd 3f 03 8f bd 3f 3d 1f bc
       -0.005712338 -0.095114596 -0.06983041 -0.009719192
000130 8d f0 1b bd 06 89 4b bd c3 39 be 3d a6 cc 0e 3d
       -0.038071204 -0.049691223 0.09288361 0.034863137
000140 fc ee 02 3e ae e3 61 bd 88 3f 95 3d a7 31 8f 3d
       0.12786478 -0.055148773 0.07287508 0.06991892
000150 dd 02 11 bc 86 51 41 bb ab df 89 3d 2f 8c fd 3d
       -0.00885078 -0.0029498055 0.067321144 0.123802535
000160 25 03 d4 3d dc 4c 6e bd 90 ae 9e bc b0 27 eb bd
       0.10352162 -0.058178768 -0.019370347 -0.11482179
000170 5e de c3 bc 1c a4 ee bd 51 ee 1e 3d 0b 4f 5b bd
       -0.023909744 -0.11652395 0.038801495 -0.053542178
000180 48 f8 2c 3d 7c 6d 97 3c 7a 49 c7 3c cd fd 7b bd
       0.042228967 0.018484823 0.024327029 -0.06152134
000190 2b c0 cb bc b7 8c ce bd 02 77 35 bd 73 d1 5c bd
       -0.024871906 -0.10085433 -0.044302948 -0.053910684
0001a0 f3 38 f7 3d d4 ef 1c 3e 27 b2 83 bb 86 5a b2 bd
       0.12071409 0.15325862 -0.00401904 -0.08708672
0001b0 84 28 13 bd e9 fd cc 3b 1b ae 35 bd 2b 1f ea 3d
       -0.03592731 0.0062558544 -0.044355493 0.11431726
0001c0 ca 0f dc bd c1 bf 4f 3b 24 3d 1a bd 0c e3 9a bd
       -0.10745199 0.0031699988 -0.037655964 -0.07562837
0001d0 30 f3 6d 3d e6 3b b3 3d fe dd a1 bd 96 fa 8c bd
       0.05809325 0.08751659 -0.0790367 -0.06883733
0001e0 60 47 09 bc b7 05 82 3c 4c 5e 73 3d 0d fc 1d 3c
       -0.0083788335 0.015871866 0.0594161 0.009642613
0001f0 a9 83 2c 3d ce 37 72 bc 0b ec 98 bc c3 27 d0 3d
       0.04211775 -0.014783813 -0.018667242 0.10163834
000200 5f 6d 16 bd 21 d7 c4 bd af 1e b8 3d 56 82 4b 3c
       -0.0367254 -0.09611345 0.089902274 0.012421211
000210 3e 2e 87 3d c3 9c 7b 3d 2b 14 94 bd 7a 24 6d bb
       0.06600617 0.061428796 -0.07230409 -0.0036185072
000220 56 3b 88 3d 30 9c 34 3d dd 3a 97 bd 1d 4f 0a 3e
       0.066519424 0.044094265 -0.07384274 0.13506742
000230 0e 8e 0f 3e 01 22 4a 3d f5 eb 72 bd 2a 24 43 3d
       0.14019033 0.049348835 -0.059307057 0.04764191
000240 df 8e 20 3e 4b 72 b7 3d 0f 26 9c bd ad 9d ef bd
       0.15679501 0.089573465 -0.076244466 -0.11699996
000250 4f 14 91 3d b5 90 81 bd 0e ed 54 3d 13 87 8f 3d
       0.07083952 -0.06326429 0.051983885 0.07008185
000260 6f 8e d6 3d 30 96 13 3d 28 46 8f bc 09 ef cc 3d
       0.10476386 0.0360319 -0.017489508 0.1000653
000270 10 f2 da bc 94 55 35 bc b3 43 d3 3c c2 c1 c3 bd
       -0.026726753 -0.011067767 0.025789117 -0.09558441
000280 00 e5 f2 3a d2 99 10 3a da ba c7 b9 c5 46 ce bd
       0.0018531382 0.0005516085 -0.00038095453 -0.10072092
000290 59 41 52 3d b3 7f b4 3d c4 e1 f5 bd 28 2f a3 3d
       0.05133185 0.08813419 -0.12005952 0.07967979
0002a0 6c de 92 3d e0 5c da bb f4 f3 bf 3d 1c 6e 54 3d
       0.0717133 -0.0066639036 0.09372702 0.05186282
0002b0 dc 38 fa 3d 52 c7 82 bd 3f 41 b5 bd cf 65 e4 bc
       0.12217876 -0.063856736 -0.08850335 -0.027880577
0002c0 04 f8 18 bd 5e 8e 4b bd a0 6a ec 3b a4 da b3 bd
       -0.0373459 -0.04969632 0.007214859 -0.08781937
0002d0 8a 96 5d 3d 16 f8 27 bd 4e 4b d7 3c 00 05 26 3a
       0.054098643 -0.041008078 0.026281025 0.00063331425
0002e0 d4 94 03 3d bc 55 80 3d ec d4 c4 3b d1 aa 89 bb
       0.032124355 0.062663525 0.0060068276 -0.004201271
0002f0 41 2f c9 3d c6 b6 ea 3b 45 a3 29 3d ee 98 a0 bd
       0.09823466 0.0071629016 0.04141547 -0.07841669
000300 50 e0 54 bd a3 29 14 bd 05 2e 6d 3d dc 40 7d 3d
       -0.051971734 -0.03617252 0.057905216 0.061829433
000310 8b e9 a3 bd 2b 13 1b 3d de f7 fc bd a1 6c 8f bd
       -0.08003529 0.037860077 -0.123519644 -0.07003141
000320 be b1 20 3d 9d 93 20 3d 85 b4 e5 bd 42 da b4 3c
       0.03923201 0.039203275 -0.11216072 0.02207673
000330 85 84 3c bd ca c3 a7 bc d1 b7 e9 3d 67 db 2f bc
       -0.046024818 -0.020479102 0.11412013 -0.010733462
000340 ef 62 a8 3c ca 17 a1 3d cd 20 f5 3c 87 4d ae bd
       0.020554988 0.078658655 0.029922867 -0.08510881
000350 a3 e9 04 3d 84 6d a8 bd e7 7e b3 bd 3c 0c 1d 3e
       0.032449376 -0.082240134 -0.08764439 0.15336698
000360 8e 0c c7 bb c0 b2 12 3d 88 f1 5f 3d 56 4b 3a bd
       -0.0060744947 0.035815 0.0546737 -0.045482002
000370 dc 22 2a bd 83 c8 d6 bd dc 1a f5 3d 4e c3 f1 3d
       -0.04153715 -0.10487463 0.11968014 0.118048295
000380 a8 92 56 bd 4c c1 31 bd b2 e9 00 3c bc 31 ab bd
       -0.052385956 -0.043397233 0.007868217 -0.083590955
000390 cb ed 85 3c da 19 a5 3c 7d 83 9d bd 8a 63 67 bc
       0.01634874 0.020153929 -0.07691095 -0.014122853
0003a0 4a ef 1d 3e 92 69 88 3d ec cc 95 bd a2 b0 04 3e
       0.15423313 0.06660761 -0.07314476 0.12958005
0003b0 0d 3c 2e bd c7 94 dc bd 51 ec 2b bd d3 4e 17 3d
       -0.042537738 -0.107705645 -0.041973416 0.036940407
0003c0 97 26 42 3d 40 84 90 3c c8 02 f3 3d 4c c2 d2 bd
       0.047400083 0.017641187 0.11865765 -0.102909654
0003d0 3b 27 97 bd f1 47 3e 3c ea 44 eb bc 50 32 d0 bd
       -0.073805295 0.011613832 -0.028719384 -0.10165846
0003e0 24 9f 7c 3d cf 5e ec 3d 66 eb 6f bd 15 1e d4 bd
       0.061675206 0.11541521 -0.058574103 -0.103573
0003f0 20 5f 94 bc b4 69 be bc da e1 22 ba 83 59 e9 3d
       -0.018111765 -0.023243763 -0.0006213464 0.11394026

advantage_stream.2.bias f4 [8]
000000 6a 97 0f bd 9f c8 a2 3a 45 d8 fb 3d 99 93 ab 3d
       -0.03505651 0.0012419409 0.122971095 0.083777614
000010 0c fe e1 3b 8a 9e 0a 3b 48 69 db b9 b6 b6 05 bd
       0.00689674 0.0021151626 -0.00041849376 -0.03264495
