models/poker_model_epoch_50.pth (torch, 477442 bytes, 12 tensors)

fc1.weight f4 [256, 21]
0	0xbda451d9	-0.08023424
1	0xbc222029	-0.009895363
2	0xbdc0cc97	-0.094140224
3	0x3dca54bb	0.09879442
4	0x3e5e5088	0.21710408
5	0xbd66be98	-0.056334108
6	0xbdbfd381	-0.09366513
7	0x3c267b8c	0.010161292
8	0xbd65ac82	-0.05607272
9	0x3cde549c	0.027139954
10	0x3c24bbf1	0.010054574
11	0xbd61feb3	-0.05517454
12	0x3cccd8ad	0.025005663
13	0xbd0d462f	-0.03449076
14	0xbcb0afe8	-0.021568254
15	0x3dbe7446	0.09299521
16	0xbd60170c	-0.05470948
17	0x3d9da0f5	0.07696716
18	0x3d67e8b6	0.056618415
19	0xbd71811b	-0.058961015
20	0xbd9aec3d	-0.0756459
21	0x3d410364	0.047122374
22	0x3bb6a4aa	0.0055738287
23	0xbc38cc82	-0.011279227
24	0x3b9db01f	0.004812255
25	0xbc5192c4	-0.012791339
26	0xbd7acbf9	-0.06122968
27	0xbe267f7f	-0.16259573
28	0xbd42fb79	-0.047603104
29	0x3c29e296	0.010368964
30	0x3d444260	0.047914863
31	0xbdb46e67	-0.0881012
32	0x3da3d9cc	0.08000526
33	0xbd430e74	-0.047621205
34	0xbd335cad	-0.043789554
35	0x3e38dd5c	0.18053192
36	0x3db68bd9	0.089133926
37	0xbda1af0f	-0.07894718
38	0x3d33dd58	0.04391226
39	0x3dbadb55	0.091238655
40	0x3e15f51e	0.14644286
41	0x3db84840	0.089981556
42	0xbce0e51c	-0.027452998
43	0x3e0551ad	0.13019438
44	0x3e46bfd1	0.1940911
45	0xbd6c96c3	-0.057760965
46	0x3d7f47f5	0.062324483
47	0x3d4fc52b	0.050725143
48	0xbd621064	-0.055191413
49	0x3d029381	0.031878952
50	0x3d07139b	0.03297768
51	0xbe1283b4	-0.14308053
52	0x3d05d910	0.03267771
53	0x3c97a368	0.018510535
54	0x3cc0d8c7	0.023540867
55	0xbcd1891c	-0.025578074
56	0xbbad705c	-0.0052929353
57	0x3d91b2d1	0.07114185
58	0x3e0a09e0	0.1348033
59	0x3d3cb9f5	0.04607578
60	0x3c69b3ca	0.014264056
61	0x3c094baf	0.008379861
62	0x3c66e20c	0.01409198
63	0x3e09f53a	0.13472453
64	0xbc9275e3	-0.017878478
65	0x3df4fdcf	0.11962473
66	0x3d5aeec9	0.05345038
67	0x3d10ca1f	0.035349008
68	0xbd09d273	-0.033647966
69	0xbd8b1d18	-0.067926586
70	0xbe0deb1c	-0.13859218
71	0xbc755ab4	-0.014975239
72	0x3d806b93	0.06270518
73	0x3d4988f1	0.049202863
74	0xbda5d3ee	-0.08097063
75	0x3d8f8f9b	0.070098124
76	0x3d7879fd	0.060663212
77	0xbb8d3e84	-0.004310431
78	0x3e1c59ee	0.1526868
79	0x3e28a2e1	0.16468383
80	0x3d313ceb	0.043270987
81	0x3c85d814	0.016338386
82	0x3c485ad9	0.012228691
83	0xbd36514c	-0.044511124
84	0x3e0c7c6d	0.1371934
85	0x3dbefe28	0.0932582
86	0xbe3cb9a9	-0.18430199
87	0x3e12d7bf	0.14340113
88	0x3e497164	0.19672161
89	0xbe334610	-0.17507195
90	0xbd58cbb0	-0.052928627
91	0xbd35c59a	-0.0443779
92	0x3de2d35d	0.110754706
93	0xbd8f4bf4	-0.06996909
94	0xbc5f7e3b	-0.0136409355
95	0x3dbfc3ea	0.093635395
96	0x3e22e240	0.1590662
97	0xbda80f72	-0.08206071
98	0xbcf18ef3	-0.029487109
99	0xbd4858e7	-0.04891291
100	0x3db1f130	0.08688581
101	0xbda238a6	-0.07920961
102	0x3d58965d	0.052877773
103	0x3bfbf11b	0.007688654
104	0x3df100e9	0.11767752
105	0x3d72e03c	0.059295878
106	0x3d11d96d	0.035607744
107	0xbc241504	-0.010014776
108	0x3d2d5f7d	0.042327393
109	0x3d1cfd94	0.03832777
110	0x3dbf9b5c	0.09355804
111	0x3d2d184f	0.04225951
112	0x3d17bf01	0.03704739
113	0x3d4884fd	0.048954953
114	0x3bad69f5	0.005292172
115	0xbcfd8f3c	-0.030952089
116	0xbd6353c3	-0.055499803
117	0x3c7c509c	0.015400078
118	0xbdfdecee	-0.123987064
119	0x3d3e8743	0.046515714
120	0xbdce0154	-0.10058847
121	0xbd816b83	-0.06319334
122	0x3e13f883	0.14450268
123	0x3cd44a16	0.025914233
124	0xbd1d74ab	-0.03844134
125	0xbc0f7a5b	-0.008757199
126	0xbdbf9d93	-0.09356227
127	0xbda020ab	-0.07818731
128	0x3cc00bc6	0.023443114
129	0x3e2a2fb8	0.16619766
130	0xbe1102db	-0.14161246
131	0xbd001731	-0.031272117
132	0x3bd20b47	0.006410036
133	0xbdcfa5d5	-0.10139052
134	0x3e63707d	0.2221088
135	0xbbd8f199	-0.0066205976
136	0xbd0a92bf	-0.033831354
137	0xbd7fb087	-0.06242421
138	0x3d538be8	0.051647097
139	0xbc77bf35	-0.015121271
140	0x3dae4606	0.0850945
141	0x3ceac93e	0.028660413
142	0x3d35472b	0.044257324
143	0xbe235bf5	-0.15953048
144	0xbb9234b7	-0.0044618505
145	0xbd124ead	-0.035719562
146	0xbe14f4fb	-0.14546578
147	0xbba61b66	-0.005069184
148	0x3dc5c8ac	0.09657416
149	0xbcfc008e	-0.030761983
150	0x3cd3c551	0.025850924
151	0x3cc50a76	0.02405284
152	0xbd883a95	-0.06651799
153	0x3d8c2309	0.0684262
154	0xbca6f12c	-0.020378672
155	0x3df4ec91	0.11959184
156	0xbd2a6115	-0.04159649
157	0x3d8d8b62	0.06911351
158	0xbe5b4762	-0.21413949
159	0x3d5f27fc	0.05448149
160	0xbc9f3ade	-0.01943725
161	0x3d9987c5	0.07496599
162	0x3bac005e	0.005249067
163	0xbdc0a1d3	-0.094058655
164	0xb9c5f765	-0.0003775909
165	0x3c90c901	0.017673971
166	0xbdd14d33	-0.10219803
167	0xbcd056d2	-0.025432024
168	0xbd219863	-0.039451968
169	0xbba11995	-0.0049163797
170	0x3d0a0b70	0.033702314
171	0x3d94df30	0.07269132
172	0xbdfa9401	-0.12235261
173	0x3db18bff	0.0866928
174	0xbe1c0c2f	-0.15239023
175	0x3d13204e	0.03591948
176	0xbc031bae	-0.008002205
177	0x3e4a8dfd	0.19780727
178	0x3e2a785c	0.16647476
179	0xbdf5ae2d	-0.11996112
180	0x3e639b80	0.22227287
181	0xbd1ad20a	-0.037797965
182	0xbc7728ae	-0.015085382
183	0x3d444ea7	0.04792657
184	0x3d21de5d	0.039518703
185	0xbcd1b671	-0.02559969
186	0xbb598ab3	-0.0033194243
187	0x3d0777d9	0.03307328
188	0xbbdf405c	-0.006813092
189	0x3e2bf7cc	0.16793746
190	0xbe992890	-0.2991376
191	0x3aae3591	0.001329111
192	0xbdea3522	-0.114359155
193	0xbde9ea8e	-0.11421691
194	0xbbfe586b	-0.007762005
195	0xbd1e9ea0	-0.038725495
196	0xbc5cbe62	-0.013473125
197	0x3d828717	0.063734226
198	0x3c9acd80	0.018896818
199	0x3d3d0c86	0.04615452
200	0xbc31ed62	-0.010859819
201	0x3ca845fb	0.020541182
202	0xbdf19099	-0.11795158
203	0xbd644b2b	-0.05573575
204	0x3dd88cdc	0.10573742
205	0xbc819d6f	-0.01582214
206	0x3ca48e13	0.020087278
207	0xbd8d5696	-0.069012806
208	0xbd655e72	-0.055998273
209	0xbd112948	-0.03543976
210	0xbd4209d9	-0.047372673
211	0xbd675f1e	-0.056487195
212	0xbe1ce17b	-0.15320389
213	0xbd8889cc	-0.06666908
214	0xbcc71f0d	-0.024306798
215	0xbdb78f65	-0.08962897
216	0x3c3ebd72	0.011641847
217	0xbda38c4a	-0.079857424
218	0xbc814765	-0.015781114
219	0xbae3703b	-0.0017352173
220	0x3dc06aaa	0.093953446
221	0xbce81429	-0.028329926
222	0x3d356e48	0.044294626
223	0x3d4ba51d	0.04971801
224	0x3c2f49f3	0.010698783
225	0xbd8948ed	-0.067033626
226	0x3dfe8b9d	0.12428973
227	0x3c73ab13	0.01487233
228	0x3d81f3f2	0.06345357
229	0xbdfab46e	-0.122414455
230	0x3dbe3209	0.09286887
231	0xbdbddb00	-0.092702866
232	0x3d165b2f	0.036708053
233	0x3e0c18fa	0.13681403
234	0x3da4107b	0.08010956
235	0x3ddf0b87	0.108908705
236	0x3d14a59b	0.036290746
237	0xbc7ffb66	-0.015623903
238	0xba145b0a	-0.0005659318
239	0xbd1bc1f5	-0.03802677
240	0xbd1d214e	-0.03836184
241	0xbb2141f2	-0.0024605957
242	0x3e3b9ec9	0.1832229
243	0xbdb0be6c	-0.0863007
244	0x3d24d813	0.040245127
245	0xbd623872	-0.05522961
246	0xbd659e7f	-0.056059357
247	0x3aad2e53	0.0013212658
248	0xbd491c04	-0.049098983
249	0x3e10f712	0.1415675
250	0xbd323143	-0.04350401
251	0xbe084db3	-0.1331089
252	0x3db00c7b	0.085961305
253	0x3c937581	0.018000366
254	0x3d04bc7c	0.032406315
255	0xbde22603	-0.110424064

fc1.bias f4 [256]
0	0x00000000	0.0
1	0x00000000	0.0
2	0x00000000	0.0
3	0x00000000	0.0
4	0x00000000	0.0
5	0x00000000	0.0
6	0x00000000	0.0
7	0x00000000	0.0
8	0x00000000	0.0
9	0x00000000	0.0
10	0x00000000	0.0
11	0x00000000	0.0
12	0x00000000	0.0
13	0x00000000	0.0
14	0x00000000	0.0
15	0x00000000	0.0
16	0x00000000	0.0
17	0x00000000	0.0
18	0x00000000	0.0
19	0x00000000	0.0
20	0x00000000	0.0
21	0x00000000	0.0
22	0x00000000	0.0
23	0x00000000	0.0
24	0x00000000	0.0
25	0x00000000	0.0
26	0x00000000	0.0
27	0x00000000	0.0
28	0x00000000	0.0
29	0x00000000	0.0
30	0x00000000	0.0
31	0x00000000	0.0
32	0x00000000	0.0
33	0x00000000	0.0
34	0x00000000	0.0
35	0x00000000	0.0
36	0x00000000	0.0
37	0x00000000	0.0
38	0x00000000	0.0
39	0x00000000	0.0
40	0x00000000	0.0
41	0x00000000	0.0
42	0x00000000	0.0
43	0x00000000	0.0
44	0x00000000	0.0
45	0x00000000	0.0
46	0x00000000	0.0
47	0x00000000	0.0
48	0x00000000	0.0
49	0x00000000	0.0
50	0x00000000	0.0
51	0x00000000	0.0
52	0x00000000	0.0
53	0x00000000	0.0
54	0x00000000	0.0
55	0x00000000	0.0
56	0x00000000	0.0
57	0x00000000	0.0
58	0x00000000	0.0
59	0x00000000	0.0
60	0x00000000	0.0
61	0x00000000	0.0
62	0x00000000	0.0
63	0x00000000	0.0
64	0x00000000	0.0
65	0x00000000	0.0
66	0x00000000	0.0
67	0x00000000	0.0
68	0x00000000	0.0
69	0x00000000	0.0
70	0x00000000	0.0
71	0x00000000	0.0
72	0x00000000	0.0
73	0x00000000	0.0
74	0x00000000	0.0
75	0x00000000	0.0
76	0x00000000	0.0
77	0x00000000	0.0
78	0x00000000	0.0
79	0x00000000	0.0
80	0x00000000	0.0
81	0x00000000	0.0
82	0x00000000	0.0
83	0x00000000	0.0
84	0x00000000	0.0
85	0x00000000	0.0
86	0x00000000	0.0
87	0x00000000	0.0
88	0x00000000	0.0
89	0x00000000	0.0
90	0x00000000	0.0
91	0x00000000	0.0
92	0x00000000	0.0
93	0x00000000	0.0
94	0x00000000	0.0
95	0x00000000	0.0
96	0x00000000	0.0
97	0x00000000	0.0
98	0x00000000	0.0
99	0x00000000	0.0
100	0x00000000	0.0
101	0x00000000	0.0
102	0x00000000	0.0
103	0x00000000	0.0
104	0x00000000	0.0
105	0x00000000	0.0
106	0x00000000	0.0
107	0x00000000	0.0
108	0x00000000	0.0
109	0x00000000	0.0
110	0x00000000	0.0
111	0x00000000	0.0
112	0x00000000	0.0
113	0x00000000	0.0
114	0x00000000	0.0
115	0x00000000	0.0
116	0x00000000	0.0
117	0x00000000	0.0
118	0x00000000	0.0
119	0x00000000	0.0
120	0x00000000	0.0
121	0x00000000	0.0
122	0x00000000	0.0
123	0x00000000	0.0
124	0x00000000	0.0
125	0x00000000	0.0
126	0x00000000	0.0
127	0x00000000	0.0
128	0x00000000	0.0
129	0x00000000	0.0
130	0x00000000	0.0
131	0x00000000	0.0
132	0x00000000	0.0
133	0x00000000	0.0
134	0x00000000	0.0
135	0x00000000	0.0
136	0x00000000	0.0
137	0x00000000	0.0
138	0x00000000	0.0
139	0x00000000	0.0
140	0x00000000	0.0
141	0x00000000	0.0
142	0x00000000	0.0
143	0x00000000	0.0
144	0x00000000	0.0
145	0x00000000	0.0
146	0x00000000	0.0
147	0x00000000	0.0
148	0x00000000	0.0
149	0x00000000	0.0
150	0x00000000	0.0
151	0x00000000	0.0
152	0x00000000	0.0
153	0x00000000	0.0
154	0x00000000	0.0
155	0x00000000	0.0
156	0x00000000	0.0
157	0x00000000	0.0
158	0x00000000	0.0
159	0x00000000	0.0
160	0x00000000	0.0
161	0x00000000	0.0
162	0x00000000	0.0
163	0x00000000	0.0
164	0x00000000	0.0
165	0x00000000	0.0
166	0x00000000	0.0
167	0x00000000	0.0
168	0x00000000	0.0
169	0x00000000	0.0
170	0x00000000	0.0
171	0x00000000	0.0
172	0x00000000	0.0
173	0x00000000	0.0
174	0x00000000	0.0
175	0x00000000	0.0
176	0x00000000	0.0
177	0x00000000	0.0
178	0x00000000	0.0
179	0x00000000	0.0
180	0x00000000	0.0
181	0x00000000	0.0
182	0x00000000	0.0
183	0x00000000	0.0
184	0x00000000	0.0
185	0x00000000	0.0
186	0x00000000	0.0
187	0x00000000	0.0
188	0x00000000	0.0
189	0x00000000	0.0
190	0x00000000	0.0
191	0x00000000	0.0
192	0x00000000	0.0
193	0x00000000	0.0
194	0x00000000	0.0
195	0x00000000	0.0
196	0x00000000	0.0
197	0x00000000	0.0
198	0x00000000	0.0
199	0x00000000	0.0
200	0x00000000	0.0
201	0x00000000	0.0
202	0x00000000	0.0
203	0x00000000	0.0
204	0x00000000	0.0
205	0x00000000	0.0
206	0x00000000	0.0
207	0x00000000	0.0
208	0x00000000	0.0
209	0x00000000	0.0
210	0x00000000	0.0
211	0x00000000	0.0
212	0x00000000	0.0
213	0x00000000	0.0
214	0x00000000	0.0
215	0x00000000	0.0
216	0x00000000	0.0
217	0x00000000	0.0
218	0x00000000	0.0
219	0x00000000	0.0
220	0x00000000	0.0
221	0x00000000	0.0
222	0x00000000	0.0
223	0x00000000	0.0
224	0x00000000	0.0
225	0x00000000	0.0
226	0x00000000	0.0
227	0x00000000	0.0
228	0x00000000	0.0
229	0x00000000	0.0
230	0x00000000	0.0
231	0x00000000	0.0
232	0x00000000	0.0
233	0x00000000	0.0
234	0x00000000	0.0
235	0x00000000	0.0
236	0x00000000	0.0
237	0x00000000	0.0
238	0x00000000	0.0
239	0x00000000	0.0
240	0x00000000	0.0
241	0x00000000	0.0
242	0x00000000	0.0
243	0x00000000	0.0
244	0x00000000	0.0
245	0x00000000	0.0
246	0x00000000	0.0
247	0x00000000	0.0
248	0x00000000	0.0
249	0x00000000	0.0
250	0x00000000	0.0
251	0x00000000	0.0
252	0x00000000	0.0
253	0x00000000	0.0
254	0x00000000	0.0
255	0x00000000	0.0

fc2.weight f4 [256, 256]
0	0xbccb077d	-0.024783844
1	0x3c748556	0.014924368
2	0x3d778830	0.060432613
3	0x3dee221a	0.11627598
4	0xbd41e489	-0.04733709
5	0x3d9ab284	0.075535804
6	0x3bdd78e3	0.0067587956
7	0x3c27669f	0.010217338
8	0x3def9c95	0.116997875
9	0x3c7fa6d0	0.015603736
10	0xbbb96f2e	-0.0056590056
11	0x3b0e27aa	0.0021691122
12	0x3afaf9b8	0.0019147908
13	0xbc641131	-0.013920114
14	0x3cefd77a	0.029277552
15	0xbcea3979	-0.028591858
16	0x3dc6be38	0.0970425
17	0xbe42c987	-0.19022189
18	0x3c8cfbde	0.017209943
19	0x3dfd6a1f	0.123737566
20	0xbca20b8e	-0.0197809
21	0xbda2b26e	-0.07944189
22	0x3d82c233	0.06384697
23	0x3e0690fe	0.13141248
24	0xbd87b496	-0.06626241
25	0xbde033ec	-0.10947403
26	0x3da17cea	0.078851536
27	0xbc641fb5	-0.013923575
28	0x3ceaf03d	0.028679008
29	0xbb1b5916	-0.0023704222
30	0x3c371e4b	0.011176656
31	0x3d196477	0.037449326
32	0xbddbe7e7	-0.10737591
33	0xbce3b8fd	-0.02779817
34	0xbb82facc	-0.0039971825
35	0xbdf24862	-0.11830212
36	0x3d80c464	0.062874585
37	0xbd175e0a	-0.036954917
38	0xbd67f5a5	-0.05663075
39	0x3b1b6d97	0.0023716444
40	0x3d74856d	0.059697557
41	0xbcb98270	-0.022645205
42	0xbd135b4c	-0.03597574
43	0xbd9021a3	-0.07037666
44	0x3cd29221	0.025704445
45	0x3c4e8ac6	0.012606328
46	0x3d1e2bd6	0.038616024
47	0x3cd1c1e3	0.025605148
48	0xbe405beb	-0.18785064
49	0xbcdb3005	-0.026756296
50	0x3c6bebae	0.014399452
51	0x3d5d22cf	0.053988274
52	0x3d6e2d98	0.05814895
53	0xbd5eb87b	-0.054375153
54	0xbd04ff05	-0.032469768
55	0x3d2568b3	0.040383052
56	0x3d1216b6	0.03566619
57	0x3d853bfd	0.065055825
58	0xbd183c14	-0.03716667
59	0x3cb38fbc	0.021919124
60	0x3e108547	0.14113341
61	0xbdcbfb13	-0.09959998
62	0x3c8c380f	0.017116575
63	0x3c11d9c9	0.008902022
64	0x3d99f656	0.07517688
65	0xbd8b7861	-0.0681007
66	0xbd570f79	-0.05250499
67	0x3dd19b08	0.10234648
68	0xbcd21a5b	-0.025647333
69	0xbda6ede7	-0.08150845
70	0x3d8db6c6	0.06919627
71	0xbd971d8b	-0.07378682
72	0x3c3c48ef	0.011491998
73	0x3cff2cfd	0.031149382
74	0x3dbcfc4e	0.09227811
75	0x3d6ab07c	0.057297215
76	0xbc26cfae	-0.010181351
77	0xbdea9385	-0.11453918
78	0x3d4b22b5	0.049593646
79	0xbcace258	-0.021104023
80	0xbd198d79	-0.037488434
81	0xba941bc6	-0.0011299781
82	0xbc03a9ba	-0.008036071
83	0xbcb70373	-0.022340512
84	0x3da9ad23	0.08284976
85	0x3da10bbf	0.078635685
86	0x3c3aadfe	0.011394022
87	0x3e22e5b0	0.15907931
88	0x3dec4dd1	0.1153828
89	0x3d3b9264	0.045793906
90	0xbcd34d6e	-0.025793757
91	0x3b2dbdf1	0.002651092
92	0xbcf6832e	-0.030091848
93	0xbd8ad807	-0.06779485
94	0x3da58c22	0.08083369
95	0x3e030a46	0.12796888
96	0x3bef24e8	0.0072981007
97	0x3cca59c1	0.024701001
98	0x3e17472d	0.14773245
99	0x3e770960	0.2412467
100	0xbbf2815d	-0.007400675
101	0x3d820d61	0.06350208
102	0xbda7bba9	-0.0819009
103	0xbb8edb21	-0.0043596183
104	0x3cc742fa	0.02432393
105	0x3d10303e	0.035202257
106	0xbdb20e2f	-0.086941116
107	0xbdd0ea03	-0.10200884
108	0x3cad31c6	0.021141898
109	0x3cd355dc	0.025797777
110	0x3d0c83cc	0.03430538
111	0xbd75d8bd	-0.06002115
112	0xbdc58a1d	-0.09645484
113	0xbc9a7396	-0.018853944
114	0x3e3b1b67	0.18272172
115	0x3cc43237	0.023949726
116	0xbcdf9699	-0.02729349
117	0xb9a676d3	-0.00031750518
118	0x3b7cc463	0.0038569204
119	0x3b44d04b	0.003003138
120	0xbaf692ed	-0.0018812098
121	0xbd2a7078	-0.041611165
122	0xbc862585	-0.016375313
123	0x3d0e897f	0.034799095
124	0xbdee7284	-0.11642936
125	0xbd0b8276	-0.034059964
126	0xbd795ce9	-0.06087962
127	0x3c8bacd7	0.01705019
128	0xbd0fb6a1	-0.035086278
129	0x3d12ad08	0.035809547
130	0x3d78dffe	0.06076049
131	0x3daaf0cf	0.08346712
132	0x3c53b369	0.012921193
133	0xbc2e500b	-0.010639201
134	0xbcaacb77	-0.020848973
135	0x3e031058	0.12799203
136	0x3d892491	0.066964276
137	0x3de8a5c1	0.1135974
138	0xbd7aed9f	-0.06126177
139	0xbdaee7e7	-0.085403256
140	0x3cb3e502	0.021959785
141	0xbc4faace	-0.012675
142	0x3dd155f9	0.10221476
143	0x3c25371a	0.010083938
144	0xbdb26e7b	-0.08712479
145	0x3dbfecdc	0.09371349
146	0xbcb72f5b	-0.022361448
147	0xbd8bde50	-0.06829512
148	0x3c0649c6	0.0081963
149	0xbd71b3bc	-0.0590093
150	0x3bf8e736	0.007595922
151	0x3dafe39a	0.085883334
152	0x3d40bb60	0.047053695
153	0x3cef5b1c	0.029218249
154	0x3dcd89be	0.10036038
155	0x3dab87a1	0.083754785
156	0xbd581771	-0.05275673
157	0xbdd29c98	-0.10283774
158	0x3db4a226	0.0881999
159	0x3dab2cd5	0.083581604
160	0x3ddb3074	0.10702601
161	0x3d23b729	0.039969597
162	0x3d53e419	0.051731203
163	0xbda8b0c6	-0.08236842
164	0x3c713430	0.014721915
165	0xbcf61c65	-0.030042836
166	0xbd5427c3	-0.051795732
167	0xbc5d5fa3	-0.013511571
168	0xbc025326	-0.007954394
169	0x3d9dbe57	0.0770232
170	0xbd6b26a5	-0.0574099
171	0xbc1691da	-0.009190047
172	0xbd3418ad	-0.043968845
173	0x3a9eb0e5	0.0012107162
174	0x3d37ab57	0.044841137
175	0x3d06c007	0.032897975
176	0x3d99c07b	0.07507416
177	0xbd03b4b7	-0.032154765
178	0xbbfe42a7	-0.0077594104
179	0x3e037641	0.12838079
180	0x3d880076	0.06640713
181	0x3d76535b	0.060138088
182	0xbc90c0af	-0.017670004
183	0xbcde9eda	-0.027175356
184	0x3cde7bf3	0.027158713
185	0x395a16fd	0.00020798664
186	0xbdae642f	-0.08515202
187	0x3dd803f2	0.105476275
188	0x3d1e21eb	0.038606565
189	0xbae5f8c4	-0.0017545451
190	0x3e06f876	0.13180718
191	0xbd38175f	-0.044944163
192	0xbd62082e	-0.055183582
193	0xbd483ddc	-0.04888712
194	0x3cb6f5fe	0.022334095
195	0x3e0eca63	0.13944392
196	0x3c4c8853	0.012483674
197	0x3c12f32f	0.008969112
198	0x3df07024	0.11740139
199	0x3dbf958c	0.09354696
200	0xbd5ee1d1	-0.054414574
201	0x3e0794ad	0.13240309
202	0x3cef49e9	0.029210048
203	0x3d71f408	0.059070617
204	0xbdaea4d8	-0.08527535
205	0x3d3d7ccd	0.046261597
206	0xbd5705c1	-0.05249572
207	0x3d3b63db	0.045749526
208	0x3d0739cd	0.033014107
209	0x3deb187e	0.11479281
210	0xbd463478	-0.04838988
211	0xbcaedee5	-0.021346519
212	0xbd2077a2	-0.03917659
213	0xb998feb1	-0.0002918146
214	0x3bfea660	0.0077712983
215	0xbc9d9793	-0.019237315
216	0xbc93fb4d	-0.018064165
217	0xbaa02cde	-0.0012220403
218	0x3e0ebdd7	0.13939606
219	0x3c9564e5	0.018236587
220	0x3d5e216e	0.0542311
221	0xbda3a9c6	-0.07991366
222	0xbd4dd3ef	-0.050250944
223	0xbd2f8ee8	-0.042860895
224	0x3d9979f6	0.07493965
225	0xbd3cea34	-0.04612179
226	0xbd902653	-0.0703856
227	0x3da3097f	0.079607956
228	0x3dde64c5	0.10859064
229	0x3cc626f4	0.024188496
230	0xbcb161c5	-0.021653065
231	0xbc8b3dd9	-0.016997265
232	0xbd78af95	-0.060714323
233	0x3dd6971a	0.10478039
234	0x3da35413	0.0797502
235	0xbc2f0ae5	-0.01068375
236	0x3d6829a8	0.05668035
237	0xbdb5d698	-0.08878821
238	0x3d55586a	0.05208627
239	0xbd4b4ce7	-0.049633887
240	0x3d02228a	0.03177122
241	0xbdb62d48	-0.088953555
242	0x3dcdc930	0.10048139
243	0xbc8daab0	-0.017293304
244	0x3d5eba81	0.054377083
245	0x3d81a27d	0.0632982
246	0xbcfcd6df	-0.030864177
247	0xbbc343ea	-0.0059590237
248	0xbcb09cbf	-0.021559117
249	0x3cc46df6	0.023978215
250	0x3dd6626b	0.104679905
251	0xbd39f48c	-0.045399234
252	0x3e2f4352	0.17115524
253	0xbdc14e49	-0.0943876
254	0x3d050986	0.032479785
255	0xbd49f735	-0.04930802

fc2.bias f4 [256]
0	0x00000000	0.0
1	0x00000000	0.0
2	0x00000000	0.0
3	0x00000000	0.0
4	0x00000000	0.0
5	0x00000000	0.0
6	0x00000000	0.0
7	0x00000000	0.0
8	0x00000000	0.0
9	0x00000000	0.0
10	0x00000000	0.0
11	0x00000000	0.0
12	0x00000000	0.0
13	0x00000000	0.0
14	0x00000000	0.0
15	0x00000000	0.0
16	0x00000000	0.0
17	0x00000000	0.0
18	0x00000000	0.0
19	0x00000000	0.0
20	0x00000000	0.0
21	0x00000000	0.0
22	0x00000000	0.0
23	0x00000000	0.0
24	0x00000000	0.0
25	0x00000000	0.0
26	0x00000000	0.0
27	0x00000000	0.0
28	0x00000000	0.0
29	0x00000000	0.0
30	0x00000000	0.0
31	0x00000000	0.0
32	0x00000000	0.0
33	0x00000000	0.0
34	0x00000000	0.0
35	0x00000000	0.0
36	0x00000000	0.0
37	0x00000000	0.0
38	0x00000000	0.0
39	0x00000000	0.0
40	0x00000000	0.0
41	0x00000000	0.0
42	0x00000000	0.0
43	0x00000000	0.0
44	0x00000000	0.0
45	0x00000000	0.0
46	0x00000000	0.0
47	0x00000000	0.0
48	0x00000000	0.0
49	0x00000000	0.0
50	0x00000000	0.0
51	0x00000000	0.0
52	0x00000000	0.0
53	0x00000000	0.0
54	0x00000000	0.0
55	0x00000000	0.0
56	0x00000000	0.0
57	0x00000000	0.0
58	0x00000000	0.0
59	0x00000000	0.0
60	0x00000000	0.0
61	0x00000000	0.0
62	0x00000000	0.0
63	0x00000000	0.0
64	0x00000000	0.0
65	0x00000000	0.0
66	0x00000000	0.0
67	0x00000000	0.0
68	0x00000000	0.0
69	0x00000000	0.0
70	0x00000000	0.0
71	0x00000000	0.0
72	0x00000000	0.0
73	0x00000000	0.0
74	0x00000000	0.0
75	0x00000000	0.0
76	0x00000000	0.0
77	0x00000000	0.0
78	0x00000000	0.0
79	0x00000000	0.0
80	0x00000000	0.0
81	0x00000000	0.0
82	0x00000000	0.0
83	0x00000000	0.0
84	0x00000000	0.0
85	0x00000000	0.0
86	0x00000000	0.0
87	0x00000000	0.0
88	0x00000000	0.0
89	0x00000000	0.0
90	0x00000000	0.0
91	0x00000000	0.0
92	0x00000000	0.0
93	0x00000000	0.0
94	0x00000000	0.0
95	0x00000000	0.0
96	0x00000000	0.0
97	0x00000000	0.0
98	0x00000000	0.0
99	0x00000000	0.0
100	0x00000000	0.0
101	0x00000000	0.0
102	0x00000000	0.0
103	0x00000000	0.0
104	0x00000000	0.0
105	0x00000000	0.0
106	0x00000000	0.0
107	0x00000000	0.0
108	0x00000000	0.0
109	0x00000000	0.0
110	0x00000000	0.0
111	0x00000000	0.0
112	0x00000000	0.0
113	0x00000000	0.0
114	0x00000000	0.0
115	0x00000000	0.0
116	0x00000000	0.0
117	0x00000000	0.0
118	0x00000000	0.0
119	0x00000000	0.0
120	0x00000000	0.0
121	0x00000000	0.0
122	0x00000000	0.0
123	0x00000000	0.0
124	0x00000000	0.0
125	0x00000000	0.0
126	0x00000000	0.0
127	0x00000000	0.0
128	0x00000000	0.0
129	0x00000000	0.0
130	0x00000000	0.0
131	0x00000000	0.0
132	0x00000000	0.0
133	0x00000000	0.0
134	0x00000000	0.0
135	0x00000000	0.0
136	0x00000000	0.0
137	0x00000000	0.0
138	0x00000000	0.0
139	0x00000000	0.0
140	0x00000000	0.0
141	0x00000000	0.0
142	0x00000000	0.0
143	0x00000000	0.0
144	0x00000000	0.0
145	0x00000000	0.0
146	0x00000000	0.0
147	0x00000000	0.0
148	0x00000000	0.0
149	0x00000000	0.0
150	0x00000000	0.0
151	0x00000000	0.0
152	0x00000000	0.0
153	0x00000000	0.0
154	0x00000000	0.0
155	0x00000000	0.0
156	0x00000000	0.0
157	0x00000000	0.0
158	0x00000000	0.0
159	0x00000000	0.0
160	0x00000000	0.0
161	0x00000000	0.0
162	0x00000000	0.0
163	0x00000000	0.0
164	0x00000000	0.0
165	0x00000000	0.0
166	0x00000000	0.0
167	0x00000000	0.0
168	0x00000000	0.0
169	0x00000000	0.0
170	0x00000000	0.0
171	0x00000000	0.0
172	0x00000000	0.0
173	0x00000000	0.0
174	0x00000000	0.0
175	0x00000000	0.0
176	0x00000000	0.0
177	0x00000000	0.0
178	0x00000000	0.0
179	0x00000000	0.0
180	0x00000000	0.0
181	0x00000000	0.0
182	0x00000000	0.0
183	0x00000000	0.0
184	0x00000000	0.0
185	0x00000000	0.0
186	0x00000000	0.0
187	0x00000000	0.0
188	0x00000000	0.0
189	0x00000000	0.0
190	0x00000000	0.0
191	0x00000000	0.0
192	0x00000000	0.0
193	0x00000000	0.0
194	0x00000000	0.0
195	0x00000000	0.0
196	0x00000000	0.0
197	0x00000000	0.0
198	0x00000000	0.0
199	0x00000000	0.0
200	0x00000000	0.0
201	0x00000000	0.0
202	0x00000000	0.0
203	0x00000000	0.0
204	0x00000000	0.0
205	0x00000000	0.0
206	0x00000000	0.0
207	0x00000000	0.0
208	0x00000000	0.0
209	0x00000000	0.0
210	0x00000000	0.0
211	0x00000000	0.0
212	0x00000000	0.0
213	0x00000000	0.0
214	0x00000000	0.0
215	0x00000000	0.0
216	0x00000000	0.0
217	0x00000000	0.0
218	0x00000000	0.0
219	0x00000000	0.0
220	0x00000000	0.0
221	0x00000000	0.0
222	0x00000000	0.0
223	0x00000000	0.0
224	0x00000000	0.0
225	0x00000000	0.0
226	0x00000000	0.0
227	0x00000000	0.0
228	0x00000000	0.0
229	0x00000000	0.0
230	0x00000000	0.0
231	0x00000000	0.0
232	0x00000000	0.0
233	0x00000000	0.0
234	0x00000000	0.0
235	0x00000000	0.0
236	0x00000000	0.0
237	0x00000000	0.0
238	0x00000000	0.0
239	0x00000000	0.0
240	0x00000000	0.0
241	0x00000000	0.0
242	0x00000000	0.0
243	0x00000000	0.0
244	0x00000000	0.0
245	0x00000000	0.0
246	0x00000000	0.0
247	0x00000000	0.0
248	0x00000000	0.0
249	0x00000000	0.0
250	0x00000000	0.0
251	0x00000000	0.0
252	0x00000000	0.0
253	0x00000000	0.0
254	0x00000000	0.0
255	0x00000000	0.0

fc3.weight f4 [128, 256]
0	0xbddf0057	-0.10888737
1	0xbe1b1edf	-0.15148495
2	0x3d99d1df	0.07510733
3	0x3d7cc265	0.061708827
4	0xbc68c4fe	-0.014207123
5	0x3c001f67	0.007819987
6	0xbdbd2b1e	-0.092367396
7	0x3de7bab1	0.113149054
8	0x3d6d0124	0.057862416
9	0x37d616b0	2.5521353e-05
10	0x3ce376e7	0.027766658
11	0x3d1d74fc	0.038441643
12	0xbe2723a0	-0.16322184
13	0x3d4ca742	0.049964197
14	0x3d04e8c0	0.03244853
15	0x3b4c0a4e	0.0031134072
16	0xbd502978	-0.050820798
17	0x3dc3f70d	0.095686056
18	0x3def2f4f	0.11678945
19	0x3cff04fd	0.031130308
20	0x3ceafced	0.028685058
21	0xbd6f1283	-0.058367264
22	0xbddf6273	-0.109074496
23	0xbd013e11	-0.03155333
24	0x3ddffe87	0.10937219
25	0xbda0e032	-0.07855262
26	0xbe11b67d	-0.1422977
27	0x3d7ddb8b	0.06197695
28	0xbd5bee9e	-0.05369436
29	0xbe0316e7	-0.12801705
30	0xbb5868bf	-0.0033021418
31	0xbd8892b2	-0.06668605
32	0x3d89380b	0.067001425
33	0x3d5b2fe2	0.05351246
34	0xbdbf9aac	-0.09355673
35	0x3de768dd	0.11299298
36	0xbcb3b4a5	-0.021936724
37	0x3e06802c	0.13134831
38	0x3e02f24f	0.12787746
39	0x3dba85f2	0.09107579
40	0x3c9d9217	0.0192347
41	0x3de16d6e	0.110072
42	0x3d2e20c4	0.042511716
43	0x3c1d1812	0.009588258
44	0x3cf77b59	0.030210184
45	0x3d2d13d1	0.042255227
46	0xbd3a467a	-0.045477368
47	0xbd8cd9e7	-0.06877499
48	0xbb62d9c5	-0.0034614664
49	0xbda860d7	-0.08221596
50	0xbca4ae20	-0.02010256
51	0x3c163888	0.009168752
52	0xbdc4db26	-0.09612112
53	0x3d8effd4	0.06982389
54	0xb9da4009	-0.0004162791
55	0x3d404e8b	0.046949904
56	0xbdb8d64a	-0.090252474
57	0xbd03b903	-0.032158863
58	0x3e103d69	0.14085926
59	0x3c8766f3	0.016528582
60	0x3c763b9c	0.01502886
61	0xbdffe431	-0.12494696
62	0xbd75a370	-0.05997032
63	0x3df391a6	0.118930146
64	0x3df29349	0.11844499
65	0xbc49e570	-0.012322769
66	0xbc2554f5	-0.010091056
67	0x3dd336ce	0.103131875
68	0x3d1a67a5	0.0376965
69	0xbd1fa994	-0.03898008
70	0x3dc8fe24	0.098140985
71	0xbcf2ac6d	-0.029623235
72	0xbc8ec588	-0.017428175
73	0x3d127b07	0.03576186
74	0x3a837fa3	0.0010032546
75	0xbdc3d071	-0.095612414
76	0xbcb1023d	-0.021607513
77	0xbd89746f	-0.06711661
78	0xbdf1992a	-0.11796792
79	0x3d8a7474	0.06760493
80	0xbbe67130	-0.007032536
81	0xbccde4ba	-0.02513348
82	0xbe0871ed	-0.13324709
83	0xbd838bed	-0.06423173
84	0x3d9b35b6	0.07578604
85	0xbe2d7383	-0.16938595
86	0x3c1f03df	0.009705513
87	0xba32fa0d	-0.00068274216
88	0xbe066d0d	-0.13127537
89	0x3d6c1e78	0.057646245
90	0xbdbca346	-0.092108294
91	0xbd897fc8	-0.067138255
92	0xbcfa870d	-0.030581975
93	0x3d277a30	0.04088801
94	0xbd4c4615	-0.049871523
95	0x3dd05ddf	0.101741545
96	0xbd37a74c	-0.04483728
97	0x3e25e847	0.16201888
98	0xbd2824aa	-0.04105059
99	0x3d801b0f	0.06255161
100	0x3d808058	0.0627448
101	0x3d80305f	0.06259226
102	0x3c9d394f	0.019192366
103	0x3d995c96	0.074883625
104	0xbcc8c2a2	-0.02450687
105	0xbccce9fa	-0.025013912
106	0x3daf89f5	0.08571235
107	0xbc9390da	-0.018013407
108	0xbc4af7c2	-0.012388172
109	0xbd25049a	-0.04028759
110	0x3c870558	0.01648204
111	0xbac6226d	-0.0015116461
112	0xbcc2fad7	-0.02380125
113	0x3dc040d7	0.09387367
114	0xbcfc8743	-0.030826217
115	0xbd30a8f2	-0.04312987
116	0xbbeb9a70	-0.0071900412
117	0x3c114c3e	0.008868275
118	0x3dbf89f9	0.09352488
119	0xbd073346	-0.033007883
120	0xbce95be7	-0.028486205
121	0xbd80ce26	-0.0628932
122	0xbd26954c	-0.040669724
123	0x3da2bced	0.07946191
124	0xbd5e4878	-0.05426833
125	0xbcc1f9c0	-0.02367866
126	0x3d6f5bc5	0.058437128
127	0xbd19a52a	-0.03751103
128	0xbd64bcfd	-0.055844296
129	0xbdd7ba60	-0.10533595
130	0x3c91792b	0.017757973
131	0x3c0cb3bc	0.008587774
132	0xbc52e629	-0.012872257
133	0x3b07fc3f	0.0020749716
134	0x3d9d5625	0.076824464
135	0x3ccb3707	0.024806513
136	0xbc3121b7	-0.010811261
137	0x3d9ab648	0.07554299
138	0xbd5fbc44	-0.054622903
139	0xbcb27143	-0.021782523
140	0xbd345fe3	-0.044036757
141	0x3d45389e	0.048149697
142	0x3d78f772	0.060782857
143	0xbc1e1bd9	-0.009650194
144	0xbda1e48c	-0.0790492
145	0xbd4bdf19	-0.04977331
146	0x3cfacead	0.030616129
147	0x3d944b81	0.07240964
148	0xbded522f	-0.11587941
149	0xbd04f9aa	-0.03246466
150	0x3cfff0ac	0.031242691
151	0xbda63c1f	-0.08116936
152	0xbe07d52c	-0.13264912
153	0xbd976b47	-0.073935084
154	0x3ca075c6	0.019587409
155	0x3d17560e	0.036947303
156	0x3c722341	0.014778913
157	0xbe00eeda	-0.12591115
158	0x3dd25a52	0.102711335
159	0x3cf6c461	0.030122938
160	0xbaa048e0	-0.001222875
161	0x3b524122	0.003208228
162	0x3d9471ca	0.07248266
163	0x3df35c54	0.118828446
164	0x3e1e06b0	0.15432239
165	0x3d0c2fb0	0.034225166
166	0xbe05b4f3	-0.13057308
167	0x3cf3244f	0.0296804
168	0x3d1d43a8	0.0383946
169	0x3db16363	0.08661535
170	0x3d61b8c7	0.055107858
171	0xbc1a4a66	-0.009417152
172	0x3da30221	0.079593904
173	0xbd0a3892	-0.033745356
174	0xbd387ac6	-0.04503896
175	0xbcd415f0	-0.025889367
176	0xbc1081ce	-0.00882001
177	0x3c8dc8b0	0.01730761
178	0x3d9a8e5f	0.075466864
179	0x3df48c3c	0.1194081
180	0x3d00e018	0.031463712
181	0x3c3eb3e7	0.011639572
182	0xbd1545cb	-0.036443513
183	0x3e19b565	0.15010603
184	0x3c5a4e5e	0.013324348
185	0x3dcc128c	0.09964475
186	0x3cda0cef	0.026617495
187	0xbc1957e6	-0.0093593355
188	0xbd375974	-0.044763044
189	0x3c3fc841	0.011705459
190	0xbd02f751	-0.03197414
191	0xbd0a2df9	-0.03373525
192	0xbc858d4a	-0.016302723
193	0x3aa603a2	0.0012665878
194	0xbc424e9d	-0.011859563
195	0x3cf89ebc	0.030349128
196	0xbe0ba9f3	-0.13639049
197	0xbd09f681	-0.03368235
198	0x3c3988e2	0.011324139
199	0xbe023bf3	-0.12718181
200	0xbd9a4c1b	-0.07534047
201	0xbe1609f5	-0.14652236
202	0x3cc4cbf8	0.024023041
203	0x3d3d5a64	0.04622878
204	0xbd8aae74	-0.067715555
205	0x3d279f37	0.040923323
206	0xbe294bdb	-0.16532843
207	0xbceec1f8	-0.029145226
208	0xbdb4c0e3	-0.08825853
209	0xbcdc4e53	-0.026892817
210	0xbd5fb7da	-0.054618694
211	0xbd8dec23	-0.06929805
212	0xbe119c49	-0.14219774
213	0xbd9546f1	-0.072889216
214	0x3da9f701	0.082990654
215	0x3c2f1678	0.010686509
216	0x3da779fa	0.08177562
217	0x3cc8bf34	0.024505235
218	0x3db13e7e	0.086544976
219	0xbe00ba24	-0.12571007
220	0xbd337fc2	-0.04382301
221	0x3c9be74e	0.019031193
222	0xbd7af108	-0.06126502
223	0x3ddb64dd	0.107125975
224	0xbb947028	-0.0045299716
225	0x3da8333f	0.082128994
226	0x3da861bc	0.08221766
227	0xbd01ce47	-0.031690862
228	0xbe0e98d2	-0.13925484
229	0xbd29e665	-0.041479487
230	0x3ca77c22	0.020444933
231	0x3de86d36	0.11348955
232	0x3cb3102f	0.021858303
233	0xbc4396de	-0.011937825
234	0xbe513333	-0.20429687
235	0xbd3ae8fc	-0.045632347
236	0x3d9e48fa	0.07728763
237	0x3d0c9dbf	0.034330126
238	0xbc92d33e	-0.017922994
239	0x3cdd183b	0.026989093
240	0x3d144dc1	0.036206964
241	0x3d673685	0.05644848
242	0x3b592dbb	0.003313883
243	0xbd1285ca	-0.035772122
244	0xbe251fdc	-0.16125435
245	0xbc3d1345	-0.011540239
246	0x3d9f6f2d	0.07784877
247	0xbd2410d4	-0.04005511
248	0xbdbc9c8f	-0.09209549
249	0xbcc9a905	-0.024616728
250	0x3c6bde14	0.014396209
251	0x3be4062b	0.006958743
252	0xbd99e64e	-0.0751463
253	0x3d2f2614	0.042760924
254	0x3d39b3c3	0.04533745
255	0x3cc0b1b9	0.023522245

fc3.bias f4 [128]
0	0x00000000	0.0
1	0x00000000	0.0
2	0x00000000	0.0
3	0x00000000	0.0
4	0x00000000	0.0
5	0x00000000	0.0
6	0x00000000	0.0
7	0x00000000	0.0
8	0x00000000	0.0
9	0x00000000	0.0
10	0x00000000	0.0
11	0x00000000	0.0
12	0x00000000	0.0
13	0x00000000	0.0
14	0x00000000	0.0
15	0x00000000	0.0
16	0x00000000	0.0
17	0x00000000	0.0
18	0x00000000	0.0
19	0x00000000	0.0
20	0x00000000	0.0
21	0x00000000	0.0
22	0x00000000	0.0
23	0x00000000	0.0
24	0x00000000	0.0
25	0x00000000	0.0
26	0x00000000	0.0
27	0x00000000	0.0
28	0x00000000	0.0
29	0x00000000	0.0
30	0x00000000	0.0
31	0x00000000	0.0
32	0x00000000	0.0
33	0x00000000	0.0
34	0x00000000	0.0
35	0x00000000	0.0
36	0x00000000	0.0
37	0x00000000	0.0
38	0x00000000	0.0
39	0x00000000	0.0
40	0x00000000	0.0
41	0x00000000	0.0
42	0x00000000	0.0
43	0x00000000	0.0
44	0x00000000	0.0
45	0x00000000	0.0
46	0x00000000	0.0
47	0x00000000	0.0
48	0x00000000	0.0
49	0x00000000	0.0
50	0x00000000	0.0
51	0x00000000	0.0
52	0x00000000	0.0
53	0x00000000	0.0
54	0x00000000	0.0
55	0x00000000	0.0
56	0x00000000	0.0
57	0x00000000	0.0
58	0x00000000	0.0
59	0x00000000	0.0
60	0x00000000	0.0
61	0x00000000	0.0
62	0x00000000	0.0
63	0x00000000	0.0
64	0x00000000	0.0
65	0x00000000	0.0
66	0x00000000	0.0
67	0x00000000	0.0
68	0x00000000	0.0
69	0x00000000	0.0
70	0x00000000	0.0
71	0x00000000	0.0
72	0x00000000	0.0
73	0x00000000	0.0
74	0x00000000	0.0
75	0x00000000	0.0
76	0x00000000	0.0
77	0x00000000	0.0
78	0x00000000	0.0
79	0x00000000	0.0
80	0x00000000	0.0
81	0x00000000	0.0
82	0x00000000	0.0
83	0x00000000	0.0
84	0x00000000	0.0
85	0x00000000	0.0
86	0x00000000	0.0
87	0x00000000	0.0
88	0x00000000	0.0
89	0x00000000	0.0
90	0x00000000	0.0
91	0x00000000	0.0
92	0x00000000	0.0
93	0x00000000	0.0
94	0x00000000	0.0
95	0x00000000	0.0
96	0x00000000	0.0
97	0x00000000	0.0
98	0x00000000	0.0
99	0x00000000	0.0
100	0x00000000	0.0
101	0x00000000	0.0
102	0x00000000	0.0
103	0x00000000	0.0
104	0x00000000	0.0
105	0x00000000	0.0
106	0x00000000	0.0
107	0x00000000	0.0
108	0x00000000	0.0
109	0x00000000	0.0
110	0x00000000	0.0
111	0x00000000	0.0
112	0x00000000	0.0
113	0x00000000	0.0
114	0x00000000	0.0
115	0x00000000	0.0
116	0x00000000	0.0
117	0x00000000	0.0
118	0x00000000	0.0
119	0x00000000	0.0
120	0x00000000	0.0
121	0x00000000	0.0
122	0x00000000	0.0
123	0x00000000	0.0
124	0x00000000	0.0
125	0x00000000	0.0
126	0x00000000	0.0
127	0x00000000	0.0

action_type_head.weight f4 [5, 128]
0	0x3dcc288e	0.09968673
1	0x3dc5d3b3	0.09659519
2	0xbe0459d9	-0.12924899
3	0x3e221656	0.15828833
4	0xbd63dbac	-0.055629417
5	0xbdca2018	-0.09869403
6	0x3d43ce8f	0.04780441
7	0xbdf97466	-0.12180404
8	0xbeac8958	-0.33698535
9	0x3c751f98	0.014961146
10	0xbd8e1e42	-0.06939365
11	0x3dda7c8a	0.10668285
12	0x3c48f193	0.012264627
13	0x3badbb15	0.005301843
14	0xbe4e61c3	-0.2015448
15	0x3df941f7	0.12170785
16	0xbb1f422c	-0.0024300916
17	0x3e0452dc	0.12922233
18	0xbe6e7288	-0.23285878
19	0xbdd663b8	-0.104682386
20	0xbd9b76f6	-0.075910494
21	0x3e0ec943	0.13943963
22	0x3d1d4234	0.038393214
23	0xbd85f889	-0.06541545
24	0xbdc32d25	-0.09530095
25	0xbe355975	-0.17709906
26	0xbda569d8	-0.08076829
27	0xbc1d5a5f	-0.009604066
28	0x3e0bd084	0.13653761
29	0xbd73641b	-0.05942164
30	0x3e953631	0.29142907
31	0xbe8b69ae	-0.27229065
32	0xbb7a402e	-0.0038185227
33	0x3e1d7cdb	0.1537966
34	0xbe7a1a64	-0.2442413
35	0x3e8aa823	0.27081403
36	0x3d9f273e	0.07771157
37	0xbc0fed1a	-0.008784557
38	0xbd1e77a7	-0.038688328
39	0x3c21d1a1	0.00987664
40	0x3c6155e8	0.013753392
41	0x3b909a47	0.0044129225
42	0xbc95c80a	-0.018283863
43	0x3b981470	0.004641108
44	0x3d780865	0.06055488
45	0xbda137cb	-0.0787197
46	0x3b2487a0	0.0025105253
47	0xbd425c8b	-0.047451537
48	0xbd9f5acb	-0.07780989
49	0x3d1f4042	0.03887964
50	0xbc7c9077	-0.0154153025
51	0xbe0ac768	-0.1355263
52	0x3d643e84	0.055723682
53	0xbd10fb06	-0.035395645
54	0xbd1be481	-0.038059715
55	0x3e3a655b	0.18202727
56	0x3e1ac195	0.15112908
57	0xbd5d96db	-0.054098945
58	0x3d49fb08	0.049311668
59	0x3c1e497e	0.009661077
60	0x3d463c59	0.048397396
61	0xbe023410	-0.12715173
62	0x3d4c63f7	0.04990002
63	0xbda29fcb	-0.07940634
64	0x3e02de0e	0.1278002
65	0x3dc6c6fe	0.097059235
66	0x3c227741	0.009916128
67	0x3e1902f1	0.14942528
68	0x3e08a444	0.13343912
69	0x3d6438e9	0.055718336
70	0xbe2780c7	-0.16357718
71	0xbd8c55d1	-0.06852306
72	0xbe20cf76	-0.1570414
73	0xbccd7508	-0.025080219
74	0xbe466fbd	-0.19378562
75	0x3e073eb5	0.13207515
76	0x3d83a2fa	0.0642757
77	0x3d4683a3	0.048465382
78	0x3e0b5e11	0.13610102
79	0xbdfbbfcc	-0.12292442
80	0x3d6fff18	0.058592886
81	0x3d20af04	0.039229408
82	0xbdd7adc1	-0.10531188
83	0xbd4880a9	-0.048950825
84	0xbd7e1231	-0.062029067
85	0x3e8b6456	0.27224988
86	0xbe1f3233	-0.15546493
87	0xbdc1025e	-0.0942428
88	0x3e11d917	0.1424297
89	0xbdaec35d	-0.08533356
90	0xbd8626d1	-0.065503724
91	0xbe255d89	-0.16148962
92	0xbcc78688	-0.024356142
93	0xbd00249e	-0.03128492
94	0x3e035185	0.12824066
95	0x3e32ea9d	0.1747231
96	0xbe76bff0	-0.24096656
97	0x3e3ef3c7	0.18647681
98	0xbe3a8da3	-0.18218093
99	0x3d93ca25	0.072162904
100	0xbd71e4a2	-0.059055932
101	0xbdd56ffb	-0.10421749
102	0x3e8a591b	0.27021107
103	0xbd260008	-0.040527374
104	0xbd2b6232	-0.041841693
105	0xbe00daec	-0.12583512
106	0x3e016f98	0.12640226
107	0xbda224cc	-0.07917175
108	0xbd63ca33	-0.055612754
109	0x3cc733f5	0.024316767
110	0xbccfa4e7	-0.025347186
111	0xbd42bb3b	-0.04754184
112	0x3dd418da	0.103563026
113	0xbe011e71	-0.12609269
114	0xbe4cbfe3	-0.19995074
115	0x3ddfcdfe	0.10927962
116	0x3d0e7332	0.034777828
117	0xbd87d7f4	-0.06632987
118	0xbd8f88b0	-0.07008493
119	0xbe00544f	-0.12532161
120	0x3da6df70	0.08148086
121	0x3dd6fe3a	0.104977086
122	0xbe214eb0	-0.15752673
123	0x3db7c390	0.089728475
124	0x3d889951	0.06669868
125	0x3e07b1f5	0.13251479
126	0xbe74e96d	-0.2391717
127	0x3e463d21	0.19359256
128	0x3c3ad325	0.01140288
129	0xb9c6433b	-0.00037815594
130	0xbe021baf	-0.12705873
131	0x3e10a75b	0.14126341
132	0x3da6f23c	0.08151671
133	0x3e06bda9	0.13158287
134	0x3e49123e	0.19635865
135	0xbe7fd063	-0.24981837
136	0xbd7d43ab	-0.06183211
137	0x3d0f2dd4	0.034955814
138	0xbd1246a0	-0.035711884
139	0x3d001168	0.0312666
140	0xb9ca760f	-0.00038616403
141	0x3cc2d29c	0.023782067
142	0xbe8b541e	-0.27212614
143	0x3cefba54	0.029263653
144	0x3dc6ae7a	0.097012475
145	0x3dddcd49	0.10830171
146	0x3ddc4f5f	0.10757326
147	0xbe86281f	-0.26202485
148	0xbd259092	-0.040421076
149	0xbbcb0a19	-0.006196272
150	0x3de81ce2	0.11333634
151	0xbc36cc47	-0.011157102
152	0x3dc128e1	0.09431625
153	0x3b864cf7	0.0040985304
154	0xbca14737	-0.019687278
155	0xbde2fd87	-0.11083513
156	0x3e40cc80	0.1882801
157	0xbdd8a78b	-0.10578831
158	0x3c0b0051	0.008483962
159	0xbdb022a9	-0.08600361
160	0x3e3bdc1d	0.18345685
161	0x3e185921	0.1487775
162	0xbcc55ca0	-0.024092019
163	0xbe43f31c	-0.19135708
164	0x3decac51	0.11556304
165	0x3c715cd3	0.014731604
166	0x3db6dba4	0.08928612
167	0x3da88891	0.08229173
168	0x3e5cc16c	0.2155816
169	0xbce32d37	-0.027731521
170	0xbb895e84	-0.0041921753
171	0x3d1f8aec	0.038950846
172	0x3bc047cf	0.0058679353
173	0x3c5029ed	0.012705308
174	0xbd4666af	-0.04843777
175	0x3dbd5081	0.092438705
176	0xbdd47feb	-0.10375961
177	0xbe317f8e	-0.17333815
178	0xbe80d68f	-0.25163695
179	0xbd20d2ed	-0.039263655
180	0x3c4c19a5	0.012457286
181	0xbc5adc1c	-0.013358142
182	0xbe0343c0	-0.12818813
183	0xbe2e8803	-0.17044072
184	0xbdbf9057	-0.093537025
185	0x3daf87fa	0.08570857
186	0x3e8e2212	0.2776037
187	0xbe016014	-0.12634307
188	0xbb19a324	-0.0023443187
189	0x3d8e8c34	0.069603354
190	0x3e67098c	0.22562236
191	0xbd49bea0	-0.04925406
192	0xbd9e1311	-0.077184804
193	0xbd26308f	-0.040573653
194	0xbc8ef3bd	-0.017450208
195	0x3dd04d6d	0.10171018
196	0x3e36bd35	0.17845614
197	0x3c8d60bc	0.01725804
198	0xbe0cb504	-0.13740927
199	0xbd500a92	-0.05079133
200	0x3d02c1d8	0.031923145
201	0x3df564c3	0.119821094
202	0xbe905c45	-0.28195396
203	0x3dbf158c	0.093302816
204	0x3e26ebfb	0.16300957
205	0x3c9f7980	0.019467115
206	0x3e4a2838	0.19741905
207	0xbdb8a904	-0.09016612
208	0xbd9dfa79	-0.077137895
209	0x3e007572	0.12544802
210	0xbdb93654	-0.090435654
211	0x3d93beb0	0.07214105
212	0x3cfb6676	0.030688506
213	0x3b742837	0.0037255415
214	0x3e427533	0.1899002
215	0x3d954a72	0.0728959
216	0x3e581617	0.21102177
217	0xbc9bdc46	-0.019025933
218	0x3e31a05f	0.17346333
219	0xbb933352	-0.004492202
220	0x3dad710c	0.084688276
221	0xbdfd931a	-0.12381573
222	0x3e3a4e33	0.18193893
223	0xbe188ed4	-0.14898235
224	0xbd06a9f2	-0.032876916
225	0x3d7ab80a	0.06121067
226	0xbd908cac	-0.07058081
227	0x3e05b855	0.13058598
228	0x3d8ba6cf	0.068189256
229	0x3d34089f	0.043953534
230	0xbd590346	-0.052981637
231	0xbdbbfaab	-0.091786705
232	0xbda0a374	-0.07843676
233	0x3e1cc8ec	0.1531102
234	0x3ba336a4	0.004980879
235	0xbdc55314	-0.096349865
236	0xbe2454e8	-0.16048014
237	0x3d90232d	0.07037959
238	0x3cd46ed2	0.02593175
239	0xbe3f9a50	-0.1871121
240	0xbd876f62	-0.066130415
241	0xbde46b52	-0.11153282
242	0x3e84f185	0.25965515
243	0x3db7c2fc	0.08972737
244	0x3dff2e20	0.124599695
245	0xbd75e373	-0.060031366
246	0x3e0c93c8	0.13728249
247	0x3e2ff38c	0.1718275
248	0xbcaa66b5	-0.020800928
249	0x3eaf7777	0.34270832
250	0x3d641ad8	0.055689663
251	0x3dbd2815	0.09236161
252	0x3d8bf788	0.06834322
253	0xbd295180	-0.04133749
254	0xbe5df942	-0.21677116
255	0xbe197f03	-0.14989857

action_type_head.bias f4 [5]
0	0x00000000	0.0
1	0x00000000	0.0
2	0x00000000	0.0
3	0x00000000	0.0
4	0x00000000	0.0

raise_head.weight f4 [100, 128]
0	0x3de3727a	0.11105819
1	0xbd48cb16	-0.049021803
2	0x3e01b1ed	0.1266553
3	0xbcff1af8	-0.03114079
4	0xbbd4c5c4	-0.006493302
5	0x3dbe38ad	0.09288154
6	0x3d109318	0.03529653
7	0x3dbfb9e8	0.09361631
8	0xbc28e06c	-0.010307413
9	0xbdea8f01	-0.11453057
10	0x3d4f3084	0.050583377
11	0x3bc172f4	0.005903596
12	0xbdbf8133	-0.09350815
13	0x3d8abe14	0.06774536
14	0xbcd02991	-0.025410445
15	0x3d1ddaf0	0.038538873
16	0x3cc09b1c	0.023511462
17	0x3d244744	0.040107027
18	0xbc8fcef5	-0.01755474
19	0xbd62c052	-0.055359192
20	0xbdd193cf	-0.102332704
21	0x3e3c490b	0.18387239
22	0xbc9d8636	-0.019229036
23	0xbdb322cd	-0.08746872
24	0xbda951e5	-0.08267573
25	0xbbdd161c	-0.0067470204
26	0x3dd14496	0.1021816
27	0x3d5b8046	0.053589128
28	0x3d076f5d	0.03306519
29	0x3b4825d6	0.003054013
30	0x3dac973a	0.08427282
31	0x3cfae1fc	0.030625336
32	0x3e8b31aa	0.27186328
33	0x3e09dc78	0.13463008
34	0xbd45a3e2	-0.048251994
35	0xbce09284	-0.027413614
36	0xb980cf1f	-0.0002456838
37	0xbd9f6684	-0.07783225
38	0xbc9a363d	-0.018824691
39	0xbd1c16a9	-0.038107548
40	0xbde0cf8b	-0.10977086
41	0xbdb3a790	-0.087721944
42	0x3c1eaf09	0.009685286
43	0x3e23246d	0.15931864
44	0xbd45dca2	-0.048306115
45	0xbe2d7aa6	-0.16941318
46	0x3c8a5300	0.01688528
47	0xbdbe3b0d	-0.09288607
48	0x3dd5694e	0.10420476
49	0x3c89473a	0.016757596
50	0xbe80e7ac	-0.25176752
51	0x3d8bbfee	0.06823717
52	0xbd040b4f	-0.032237347
53	0xbdf9118e	-0.121615514
54	0x3cd67e8a	0.026183385
55	0x3d00a198	0.031404108
56	0x3e59ff0c	0.21288699
57	0xbda0618d	-0.07831106
58	0xb980fac0	-0.00024600886
59	0xbd059de4	-0.03262128
60	0x3ded845e	0.11597513
61	0xbdba3ef2	-0.09094037
62	0x3cb3d7c9	0.02195348
63	0x3dcd149f	0.10013699
64	0xbcf4da20	-0.029889166
65	0x3cb42828	0.021991804
66	0xbd28fce4	-0.0412568
67	0x3e4905f6	0.1963118
68	0x3ce5d644	0.028056271
69	0x3b14fdc0	0.0022734255
70	0x3dcc3879	0.09971709
71	0xbe063129	-0.1310469
72	0x3bbb2304	0.0057109613
73	0x3d8827da	0.06648226
74	0x3e069c56	0.13145575
75	0xbe37d32e	-0.17951652
76	0xbd68c4f6	-0.05682846
77	0xbd8fcb3e	-0.07021187
78	0xbda7efe4	-0.082000524
79	0xbd613fc8	-0.054992467
80	0xbdd5bb2f	-0.10436093
81	0x3cbf4538	0.023348436
82	0x3de20f25	0.11038045
83	0xbe1ce320	-0.15321016
84	0xbdba46bf	-0.09095525
85	0x3dc3faf1	0.09569348
86	0xbb8d5576	-0.0043131663
87	0xbd972469	-0.073799916
88	0xbddae295	-0.10687748
89	0xbdf85103	-0.12124827
90	0x3d47b73e	0.048758738
91	0x3ae26520	0.0017272569
92	0xbe115cfb	-0.14195625
93	0x3dbb982b	0.09159883
94	0xbd98510e	-0.07437335
95	0x3da5d201	0.08096696
96	0xbe6b66b8	-0.22988403
97	0x3e14493a	0.14481059
98	0xbde918c8	-0.1138168
99	0x3e0c153f	0.1367998
100	0x3d07f53d	0.03319286
101	0xbbda4d86	-0.0066620735
102	0x3d866c11	0.06563581
103	0x3d3111c1	0.043229822
104	0xbc9f0997	-0.019413752
105	0x3c6dc6ff	0.014512776
106	0xbdc1d9f4	-0.094653994
107	0x3da98ed3	0.08279195
108	0x3deaf9e0	0.11473441
109	0xbd082d96	-0.0332466
110	0xbd048129	-0.03234974
111	0xbc679b0d	-0.014136088
112	0x3e05119d	0.12995
113	0xbd53d04b	-0.051712316
114	0xbb9811bd	-0.0046407864
115	0x3d669b1f	0.05630028
116	0xbdf71943	-0.12065365
117	0xbcc552d2	-0.024087343
118	0xbd37efb3	-0.04490633
119	0x3dcd4e63	0.10024717
120	0xbdc15a68	-0.09441072
121	0x3d5fd05d	0.05464207
122	0x3d955c88	0.072930396
123	0x3df89824	0.121383935
124	0xbd123605	-0.03569605
125	0xbd39d8d8	-0.045372814
126	0xbc87462e	-0.016512956
127	0x3c8ccd38	0.0171877
128	0xbc846c2d	-0.016164863
129	0xbe76fe50	-0.2412045
130	0xbe2a56d1	-0.1663468
131	0xbda2f3c3	-0.0795665
132	0x3d7a0c5d	0.061046947
133	0x3d9629db	0.07332202
134	0xbbcc4b0d	-0.0062345327
135	0xbc6be25a	-0.014397228
136	0x3d0cf886	0.034416698
137	0x3e2c5402	0.16828921
138	0xbdaef700	-0.08543205
139	0x3d63bec1	0.05560184
140	0xbcd3e9ea	-0.025868375
141	0x3ca16051	0.019699248
142	0x3e4141c8	0.1887275
143	0xbe14a863	-0.1451736
144	0x3d652200	0.055940628
145	0xbe2c16e3	-0.16805606
146	0x3d2c3fe8	0.042053133
147	0xbcae90aa	-0.021309216
148	0x3d2c1b2c	0.0420181
149	0xbd87f734	-0.06638947
150	0xbe50906c	-0.20367593
151	0x3dd45e9d	0.103696086
152	0x3cfda080	0.030960321
153	0x3d835de7	0.06414395
154	0x3e2acf3a	0.16680613
155	0x3d8eda72	0.06975259
156	0x3dd61354	0.10452905
157	0xbddbb458	-0.10727757
158	0x3c36cea2	0.011157664
159	0x3d756361	0.05990923
160	0xbe167879	-0.14694394
161	0x3d01b5c6	0.031667493
162	0x3e83f198	0.2577026
163	0xbd957331	-0.07297362
164	0xbc7f3ff4	-0.015579212
165	0x3ec43998	0.3832519
166	0xbdcdc569	-0.100474186
167	0x3d4b4a8e	0.049631648
168	0x3de364e5	0.111032285
169	0xbd18a5b5	-0.037267406
170	0x3d6b12fa	0.057391144
171	0xbe2941a6	-0.16528949
172	0xbb829d1a	-0.003986013
173	0xbd84154d	-0.06449375
174	0xbce1adc7	-0.027548684
175	0x3c8e2fc3	0.017356759
176	0xbcc98125	-0.024597714
177	0xbd3eff48	-0.046630174
178	0xbcc9987d	-0.024608845
179	0x3d216763	0.039405238
180	0x3d403708	0.046927482
181	0x3dc54108	0.09631544
182	0xbe48af6d	-0.1959817
183	0xbd203ca7	-0.039120343
184	0xbba5a905	-0.005055549
185	0x3c8fd2b0	0.017556518
186	0x3d46ca19	0.04853258
187	0x3e3ad3ac	0.18244809
188	0x3e239823	0.15976004
189	0xbd88db62	-0.06682469
190	0x3c30a6f9	0.010781997
191	0x3d289844	0.041160837
192	0xbc047aa7	-0.008085883
193	0x3d8c531c	0.06851789
194	0xbde27fd9	-0.11059541
195	0xbc662e13	-0.014049071
196	0x3cd7f6e5	0.026362846
197	0x3e3de4d1	0.18544318
198	0xbe293537	-0.16524206
199	0xbb7eb738	-0.003886653
200	0xbe270aa4	-0.16312653
201	0x3dd73f96	0.10510175
202	0x3c541c3e	0.012946187
203	0xbd5d02de	-0.053957812
204	0xbd7a0c25	-0.06104674
205	0x3cc5dd23	0.024153298
206	0xbd2bf824	-0.041984692
207	0x3e53c9d4	0.2068246
208	0xbd8f5347	-0.06998306
209	0x3c462170	0.012092933
210	0x3d08d9ef	0.033410963
211	0x3e74d572	0.23909548
212	0x3d64c1d9	0.05584893
213	0x3e0b7ba3	0.13621382
214	0xbd4ecb9b	-0.050487142
215	0xbb22b327	-0.0024826021
216	0xbe445681	-0.19173624
217	0x3d358eb0	0.04432553
218	0x3c867c82	0.016416792
219	0xbca15453	-0.01969353
220	0xbcf1782a	-0.029476244
221	0xbd94eef0	-0.07272136
222	0xbd718cd5	-0.0589722
223	0xbc4f4c33	-0.012652445
224	0xbdfc47f4	-0.123184115
225	0xbd80224a	-0.0625654
226	0xbe33042b	-0.17482059
227	0x3ce132ea	0.027490098
228	0xbd380cc4	-0.04493405
229	0x3d8638b9	0.06553788
230	0x3d038e46	0.032118104
231	0xba23aef8	-0.0006244029
232	0xbc890dd5	-0.016730228
233	0x3d47c893	0.048775267
234	0xbbaab56b	-0.005209615
235	0xbb9bf5f0	-0.0047595426
236	0xbe36e676	-0.17861351
237	0xbd84ce6c	-0.06484684
238	0xbd30c05b	-0.043152194
239	0xbc4185cc	-0.011811685
240	0xbe1a7552	-0.15083817
241	0xbc81cbe7	-0.015844299
242	0xbde8de23	-0.11370494
243	0x3e1c610b	0.15271394
244	0x3d002960	0.03128946
245	0xbd6b94f2	-0.057515092
246	0x3d8ef8ab	0.069810234
247	0xbe1ac7e1	-0.1511531
248	0xbd789463	-0.060688388
249	0xbdcb39cd	-0.09923134
250	0xbdbf6e73	-0.093472384
251	0xbe0a9b9b	-0.13535921
252	0x3d3f8c14	0.04676445
253	0xbca85b2e	-0.02055129
254	0xbd7a51db	-0.06111322
255	0x3d8070b3	0.06271496

raise_head.bias f4 [100]
0	0x00000000	0.0
1	0x00000000	0.0
2	0x00000000	0.0
3	0x00000000	0.0
4	0x00000000	0.0
5	0x00000000	0.0
6	0x00000000	0.0
7	0x00000000	0.0
8	0x00000000	0.0
9	0x00000000	0.0
10	0x00000000	0.0
11	0x00000000	0.0
12	0x00000000	0.0
13	0x00000000	0.0
14	0x00000000	0.0
15	0x00000000	0.0
16	0x00000000	0.0
17	0x00000000	0.0
18	0x00000000	0.0
19	0x00000000	0.0
20	0x00000000	0.0
21	0x00000000	0.0
22	0x00000000	0.0
23	0x00000000	0.0
24	0x00000000	0.0
25	0x00000000	0.0
26	0x00000000	0.0
27	0x00000000	0.0
28	0x00000000	0.0
29	0x00000000	0.0
30	0x00000000	0.0
31	0x00000000	0.0
32	0x00000000	0.0
33	0x00000000	0.0
34	0x00000000	0.0
35	0x00000000	0.0
36	0x00000000	0.0
37	0x00000000	0.0
38	0x00000000	0.0
39	0x00000000	0.0
40	0x00000000	0.0
41	0x00000000	0.0
42	0x00000000	0.0
43	0x00000000	0.0
44	0x00000000	0.0
45	0x00000000	0.0
46	0x00000000	0.0
47	0x00000000	0.0
48	0x00000000	0.0
49	0x00000000	0.0
50	0x00000000	0.0
51	0x00000000	0.0
52	0x00000000	0.0
53	0x00000000	0.0
54	0x00000000	0.0
55	0x00000000	0.0
56	0x00000000	0.0
57	0x00000000	0.0
58	0x00000000	0.0
59	0x00000000	0.0
60	0x00000000	0.0
61	0x00000000	0.0
62	0x00000000	0.0
63	0x00000000	0.0
64	0x00000000	0.0
65	0x00000000	0.0
66	0x00000000	0.0
67	0x00000000	0.0
68	0x00000000	0.0
69	0x00000000	0.0
70	0x00000000	0.0
71	0x00000000	0.0
72	0x00000000	0.0
73	0x00000000	0.0
74	0x00000000	0.0
75	0x00000000	0.0
76	0x00000000	0.0
77	0x00000000	0.0
78	0x00000000	0.0
79	0x00000000	0.0
80	0x00000000	0.0
81	0x00000000	0.0
82	0x00000000	0.0
83	0x00000000	0.0
84	0x00000000	0.0
85	0x00000000	0.0
86	0x00000000	0.0
87	0x00000000	0.0
88	0x00000000	0.0
89	0x00000000	0.0
90	0x00000000	0.0
91	0x00000000	0.0
92	0x00000000	0.0
93	0x00000000	0.0
94	0x00000000	0.0
95	0x00000000	0.0
96	0x00000000	0.0
97	0x00000000	0.0
98	0x00000000	0.0
99	0x00000000	0.0
