models/self_play_model_epoch_30.pth (torch, 477570 bytes, 12 tensors)

fc1.weight f4 [256, 21]
0	0xbcc6baae	-0.024258938
1	0xbc2bb843	-0.010480943
2	0xbd2b9883	-0.041893493
3	0x3c61a091	0.013771192
4	0xbc897da6	-0.016783547
5	0xbdac069b	-0.083996974
6	0xbe2d5701	-0.1692772
7	0xba5499de	-0.0008110086
8	0x3ce85d4f	0.028364806
9	0x3ddfd292	0.10928835
10	0x3d07efe3	0.03318776
11	0x3d895ef8	0.06707567
12	0xbcbcd737	-0.023051841
13	0xbdfa15f4	-0.122112185
14	0xbe40fcff	-0.1884651
15	0xbdb5a1e0	-0.08868766
16	0x3ddd8dde	0.10818075
17	0x3d334c83	0.04377414
18	0xbccd1297	-0.025033278
19	0x3cdd1c07	0.026990904
20	0x3e0a4f4f	0.13506816
21	0xbd3645da	-0.04450021
22	0xbd26cc4e	-0.040722184
23	0xbd1ebb75	-0.03875299
24	0x3cf3d92f	0.029766647
25	0xbd13042d	-0.035892654
26	0xbe002b56	-0.12516531
27	0xbc5e0017	-0.013549826
28	0xbdaa4176	-0.08313267
29	0xbd3a334a	-0.04545907
30	0xbde4e2d4	-0.111760765
31	0xbe0c49fe	-0.13700101
32	0x3d7d734d	0.061877538
33	0xbde7bb65	-0.113150395
34	0xbceedf7b	-0.029159298
35	0x3dc604dc	0.096688956
36	0xbc826847	-0.015918864
37	0x3db14ddc	0.086574286
38	0xbcc98563	-0.024599737
39	0xbe213706	-0.15743646
40	0xbd1e7849	-0.03868893
41	0x3a966178	0.001147314
42	0xbe09f541	-0.13472463
43	0x3c9dad67	0.019247724
44	0xbdb6db6c	-0.0892857
45	0xbdea0a8a	-0.114277914
46	0xbcf3da01	-0.029767038
47	0xbdbf755e	-0.09348558
48	0xbdc624cd	-0.09674988
49	0x3dc1d12f	0.09463727
50	0xbd32322f	-0.04350489
51	0x3b51ebe4	0.003203147
52	0xbd1f532e	-0.038897686
53	0x3e00c9e7	0.1257702
54	0xbdb5e526	-0.08881597
55	0x3dcf2fcc	0.101165384
56	0x3d4513a5	0.048114438
57	0x3dd4d3b5	0.103919424
58	0x3de99589	0.11405475
59	0x3da5b6cc	0.08091506
60	0x3d860da7	0.06545573
61	0xbcc3fc26	-0.023923945
62	0x3d9a670f	0.07539188
63	0x3a873cbf	0.0010317786
64	0x3c3cca36	0.01152282
65	0x3cb1f884	0.021724947
66	0xbab2a357	-0.0013629001
67	0xbd25313b	-0.040330153
68	0x3db431a9	0.087985344
69	0x3e2bcc6e	0.16777202
70	0x3dcadcd2	0.099053994
71	0x3bd46c9c	0.006482674
72	0x3d086385	0.033298034
73	0xbd92997d	-0.07158182
74	0x3c7bfeb2	0.015380548
75	0x3db1576f	0.08659255
76	0x3b892417	0.0041852104
77	0x3d20cdfa	0.039258935
78	0x3d5e5481	0.054279808
79	0xbc9d64ab	-0.019213041
80	0x3d3d77e7	0.046256926
81	0xbd60cf63	-0.05488528
82	0xbce976f7	-0.02849911
83	0x3cb2055b	0.02173107
84	0x3d6df88f	0.058098372
85	0x3e01f9b7	0.12692915
86	0x3c534b2b	0.012896339
87	0xbce84e05	-0.028357515
88	0x3de92d01	0.11385537
89	0xbc2ce6f1	-0.010553108
90	0xbd07ad22	-0.033124097
91	0x3db97d65	0.0905712
92	0x3d220601	0.039556507
93	0xbde093b5	-0.10965673
94	0xbd921a61	-0.071339376
95	0x3dab454f	0.08362829
96	0xbdf75fd5	-0.120788254
97	0x3c7c9a61	0.015417666
98	0xbd6c02c3	-0.05761982
99	0xbd2dcf1d	-0.042433847
100	0xbd10bfd4	-0.03533919
101	0x3e539e93	0.2066596
102	0xbe68328b	-0.2267553
103	0xbd47276f	-0.04862159
104	0xbd354da0	-0.044263482
105	0xbc186049	-0.0093003
106	0x3de1dce2	0.11028458
107	0xbd8e78ef	-0.0695666
108	0x3d47b1ea	0.048753656
109	0xbdbc450c	-0.09192857
110	0x3ae8d0eb	0.0017762458
111	0xbd2102ec	-0.039309427
112	0xbe0bbb34	-0.13645631
113	0x3e45aea6	0.19304904
114	0xbd413a46	-0.047174715
115	0xbd9459c6	-0.072436854
116	0xbd7aa79e	-0.06119501
117	0xbdc9990a	-0.09843643
118	0x3d65b7f1	0.056083623
119	0x3cf91e68	0.030410007
120	0x3d80bd30	0.06286085
121	0xbe59fb65	-0.21287306
122	0x3dedef88	0.116179526
123	0xbd95a275	-0.07306377
124	0x3dc8f5db	0.09812518
125	0xbd48f0b6	-0.049057685
126	0x3d9d1996	0.07670896
127	0x3cb78b85	0.022405395
128	0x3dc76c38	0.09737438
129	0xbdb45fec	-0.08807358
130	0x3cf9d78c	0.030498289
131	0x3e3d4a49	0.18485369
132	0xbd26fbab	-0.040767353
133	0xbdd4a8b9	-0.10383744
134	0x3d4443ea	0.04791633
135	0x3d1146f6	0.035468064
136	0x3d8336b9	0.06406922
137	0xbd85e91e	-0.06538604
138	0xbd605a68	-0.054773718
139	0xbe3c2909	-0.18375029
140	0x3d5c6b47	0.053813245
141	0x3bcf1927	0.006320137
142	0x3c959b2c	0.018262468
143	0xbd802228	-0.06256515
144	0xbc5c83e1	-0.013459177
145	0x3ce6626c	0.028123103
146	0x3e1345b2	0.14382055
147	0xbdd62f6c	-0.10458264
148	0xbd36bcd1	-0.044613663
149	0x3d8512ec	0.0649775
150	0x3bb546df	0.00553213
151	0x3addafa3	0.0016913306
152	0x3d092803	0.033485424
153	0x3d5bd1fc	0.053667054
154	0x3c8bc284	0.017060526
155	0x3dc29737	0.09501498
156	0xbd671c25	-0.056423325
157	0xbc5f0779	-0.013612621
158	0xbc8e2482	-0.017351393
159	0xbe230ef8	-0.15923679
160	0xbd4a3ca0	-0.049374223
161	0x3d378b17	0.04481038
162	0xbe81caf6	-0.2535016
163	0x3d9deac6	0.07710795
164	0xbdab6479	-0.08368773
165	0xbccf2d98	-0.025290295
166	0x3d5b18e5	0.05349054
167	0x3c5df30c	0.013546716
168	0x3dda925a	0.106724456
169	0x3da20358	0.07910794
170	0xbd1409f2	-0.036142297
171	0x3c9388a5	0.018009493
172	0xbe2e4a88	-0.17020619
173	0xbd5ca8b4	-0.053871825
174	0x3e1c62aa	0.15272012
175	0x3c8d897b	0.01727747
176	0xbdeca3d5	-0.11554686
177	0xbd64d975	-0.055871446
178	0x3d5ed65d	0.05440365
179	0xbd8fd0b5	-0.070222296
180	0xbd59ad6b	-0.0531439
181	0x3d9b2f78	0.07577413
182	0x3d18c968	0.03730145
183	0x3dd1152d	0.10209117
184	0x3dc9a4e7	0.09845906
185	0xbd33e48e	-0.04391914
186	0xbe7441d9	-0.23853244
187	0x3e36edd8	0.17864168
188	0x3e04d51f	0.12971924
189	0x3cb9cac2	0.02267969
190	0xbe1a1505	-0.15047081
191	0x3b1260e2	0.0022335579
192	0xbd31dfe5	-0.043426413
193	0xbde508ac	-0.11183295
194	0xbe0a192f	-0.1348617
195	0x3e18c599	0.14919128
196	0x3d2cb05a	0.04216037
197	0xbe1e6b65	-0.15470655
198	0xbb89e98e	-0.00420875
199	0x3db6cfea	0.08926375
200	0x3c8d335a	0.0172364
201	0xbd4a6665	-0.049414057
202	0xbe05e54a	-0.13075748
203	0x3d071111	0.03297526
204	0xbd220af9	-0.039561246
205	0x3d7c36f5	0.06157585
206	0x3d62eb68	0.055400282
207	0xbde6b668	-0.1126526
208	0x3db0a0cc	0.086244196
209	0x3d00f3b9	0.031482432
210	0x3d64ed4e	0.055890374
211	0xbc1a6c7c	-0.009425279
212	0xbc8b85d3	-0.017031586
213	0xbe0decbb	-0.13859837
214	0x3db693b2	0.089148894
215	0x3d431f1d	0.047637094
216	0xbd5ffc88	-0.054684192
217	0x3d03a374	0.032138303
218	0x3dafa3e7	0.08576184
219	0x3dc7c9ed	0.09755311
220	0x3d098779	0.033576462
221	0xbc9f5146	-0.019447934
222	0x3dd3f07b	0.103486024
223	0x3c741d81	0.014899612
224	0xbbf649ca	-0.0075161206
225	0xbe269329	-0.16267075
226	0x3da7a5c0	0.08185911
227	0xbdd9cb38	-0.10634464
228	0xbe3c21dd	-0.18372293
229	0xbe394481	-0.18092538
230	0x3cf0f80d	0.029415155
231	0x3deac5f3	0.11463537
232	0x3cbc931a	0.023019362
233	0xbd83d0ec	-0.06436333
234	0x3d5d9a0e	0.054101996
235	0xbab8d880	-0.0014102608
236	0xbdf23b58	-0.11827725
237	0xbe033d09	-0.12816252
238	0x3d16ace8	0.03678599
239	0x3cb54b26	0.02213056
240	0xbd33d2f3	-0.04390235
241	0xbccbe6aa	-0.024890263
242	0xbd461f01	-0.04836941
243	0xbdb6b7aa	-0.0892175
244	0x3cbb1d69	0.022841172
245	0x3ce4a131	0.027908893
246	0x3abf7948	0.0014608288
247	0xbd7ab5d1	-0.06120855
248	0x3d44e2b3	0.04806776
249	0xbd582975	-0.05277391
250	0xbd99f385	-0.07517151
251	0x3c610fe4	0.013736699
252	0xbe38288e	-0.1798422
253	0x3de4a195	0.11163632
254	0xbd470051	-0.048584286
255	0xbc8c6d81	-0.01714206

fc1.bias f4 [256]
0	0x00000000	0.0
1	0x00000000	0.0
2	0x00000000	0.0
3	0x00000000	0.0
4	0x00000000	0.0
5	0x00000000	0.0
6	0x00000000	0.0
7	0x00000000	0.0
8	0x00000000	0.0
9	0x00000000	0.0
10	0x00000000	0.0
11	0x00000000	0.0
12	0x00000000	0.0
13	0x00000000	0.0
14	0x00000000	0.0
15	0x00000000	0.0
16	0x00000000	0.0
17	0x00000000	0.0
18	0x00000000	0.0
19	0x00000000	0.0
20	0x00000000	0.0
21	0x00000000	0.0
22	0x00000000	0.0
23	0x00000000	0.0
24	0x00000000	0.0
25	0x00000000	0.0
26	0x00000000	0.0
27	0x00000000	0.0
28	0x00000000	0.0
29	0x00000000	0.0
30	0x00000000	0.0
31	0x00000000	0.0
32	0x00000000	0.0
33	0x00000000	0.0
34	0x00000000	0.0
35	0x00000000	0.0
36	0x00000000	0.0
37	0x00000000	0.0
38	0x00000000	0.0
39	0x00000000	0.0
40	0x00000000	0.0
41	0x00000000	0.0
42	0x00000000	0.0
43	0x00000000	0.0
44	0x00000000	0.0
45	0x00000000	0.0
46	0x00000000	0.0
47	0x00000000	0.0
48	0x00000000	0.0
49	0x00000000	0.0
50	0x00000000	0.0
51	0x00000000	0.0
52	0x00000000	0.0
53	0x00000000	0.0
54	0x00000000	0.0
55	0x00000000	0.0
56	0x00000000	0.0
57	0x00000000	0.0
58	0x00000000	0.0
59	0x00000000	0.0
60	0x00000000	0.0
61	0x00000000	0.0
62	0x00000000	0.0
63	0x00000000	0.0
64	0x00000000	0.0
65	0x00000000	0.0
66	0x00000000	0.0
67	0x00000000	0.0
68	0x00000000	0.0
69	0x00000000	0.0
70	0x00000000	0.0
71	0x00000000	0.0
72	0x00000000	0.0
73	0x00000000	0.0
74	0x00000000	0.0
75	0x00000000	0.0
76	0x00000000	0.0
77	0x00000000	0.0
78	0x00000000	0.0
79	0x00000000	0.0
80	0x00000000	0.0
81	0x00000000	0.0
82	0x00000000	0.0
83	0x00000000	0.0
84	0x00000000	0.0
85	0x00000000	0.0
86	0x00000000	0.0
87	0x00000000	0.0
88	0x00000000	0.0
89	0x00000000	0.0
90	0x00000000	0.0
91	0x00000000	0.0
92	0x00000000	0.0
93	0x00000000	0.0
94	0x00000000	0.0
95	0x00000000	0.0
96	0x00000000	0.0
97	0x00000000	0.0
98	0x00000000	0.0
99	0x00000000	0.0
100	0x00000000	0.0
101	0x00000000	0.0
102	0x00000000	0.0
103	0x00000000	0.0
104	0x00000000	0.0
105	0x00000000	0.0
106	0x00000000	0.0
107	0x00000000	0.0
108	0x00000000	0.0
109	0x00000000	0.0
110	0x00000000	0.0
111	0x00000000	0.0
112	0x00000000	0.0
113	0x00000000	0.0
114	0x00000000	0.0
115	0x00000000	0.0
116	0x00000000	0.0
117	0x00000000	0.0
118	0x00000000	0.0
119	0x00000000	0.0
120	0x00000000	0.0
121	0x00000000	0.0
122	0x00000000	0.0
123	0x00000000	0.0
124	0x00000000	0.0
125	0x00000000	0.0
126	0x00000000	0.0
127	0x00000000	0.0
128	0x00000000	0.0
129	0x00000000	0.0
130	0x00000000	0.0
131	0x00000000	0.0
132	0x00000000	0.0
133	0x00000000	0.0
134	0x00000000	0.0
135	0x00000000	0.0
136	0x00000000	0.0
137	0x00000000	0.0
138	0x00000000	0.0
139	0x00000000	0.0
140	0x00000000	0.0
141	0x00000000	0.0
142	0x00000000	0.0
143	0x00000000	0.0
144	0x00000000	0.0
145	0x00000000	0.0
146	0x00000000	0.0
147	0x00000000	0.0
148	0x00000000	0.0
149	0x00000000	0.0
150	0x00000000	0.0
151	0x00000000	0.0
152	0x00000000	0.0
153	0x00000000	0.0
154	0x00000000	0.0
155	0x00000000	0.0
156	0x00000000	0.0
157	0x00000000	0.0
158	0x00000000	0.0
159	0x00000000	0.0
160	0x00000000	0.0
161	0x00000000	0.0
162	0x00000000	0.0
163	0x00000000	0.0
164	0x00000000	0.0
165	0x00000000	0.0
166	0x00000000	0.0
167	0x00000000	0.0
168	0x00000000	0.0
169	0x00000000	0.0
170	0x00000000	0.0
171	0x00000000	0.0
172	0x00000000	0.0
173	0x00000000	0.0
174	0x00000000	0.0
175	0x00000000	0.0
176	0x00000000	0.0
177	0x00000000	0.0
178	0x00000000	0.0
179	0x00000000	0.0
180	0x00000000	0.0
181	0x00000000	0.0
182	0x00000000	0.0
183	0x00000000	0.0
184	0x00000000	0.0
185	0x00000000	0.0
186	0x00000000	0.0
187	0x00000000	0.0
188	0x00000000	0.0
189	0x00000000	0.0
190	0x00000000	0.0
191	0x00000000	0.0
192	0x00000000	0.0
193	0x00000000	0.0
194	0x00000000	0.0
195	0x00000000	0.0
196	0x00000000	0.0
197	0x00000000	0.0
198	0x00000000	0.0
199	0x00000000	0.0
200	0x00000000	0.0
201	0x00000000	0.0
202	0x00000000	0.0
203	0x00000000	0.0
204	0x00000000	0.0
205	0x00000000	0.0
206	0x00000000	0.0
207	0x00000000	0.0
208	0x00000000	0.0
209	0x00000000	0.0
210	0x00000000	0.0
211	0x00000000	0.0
212	0x00000000	0.0
213	0x00000000	0.0
214	0x00000000	0.0
215	0x00000000	0.0
216	0x00000000	0.0
217	0x00000000	0.0
218	0x00000000	0.0
219	0x00000000	0.0
220	0x00000000	0.0
221	0x00000000	0.0
222	0x00000000	0.0
223	0x00000000	0.0
224	0x00000000	0.0
225	0x00000000	0.0
226	0x00000000	0.0
227	0x00000000	0.0
228	0x00000000	0.0
229	0x00000000	0.0
230	0x00000000	0.0
231	0x00000000	0.0
232	0x00000000	0.0
233	0x00000000	0.0
234	0x00000000	0.0
235	0x00000000	0.0
236	0x00000000	0.0
237	0x00000000	0.0
238	0x00000000	0.0
239	0x00000000	0.0
240	0x00000000	0.0
241	0x00000000	0.0
242	0x00000000	0.0
243	0x00000000	0.0
244	0x00000000	0.0
245	0x00000000	0.0
246	0x00000000	0.0
247	0x00000000	0.0
248	0x00000000	0.0
249	0x00000000	0.0
250	0x00000000	0.0
251	0x00000000	0.0
252	0x00000000	0.0
253	0x00000000	0.0
254	0x00000000	0.0
255	0x00000000	0.0

fc2.weight f4 [256, 256]
0	0xbd1830c2	-0.037155874
1	0xbdd4f5db	-0.10398456
2	0x3d99a19f	0.0750153
3	0x3d1bd2c7	0.03804281
4	0x3cb82808	0.022480026
5	0x3cefc338	0.029267892
6	0x3d41ffa8	0.047362953
7	0x3cc84b0f	0.024449853
8	0x3d3775a5	0.04478993
9	0xbd68ea15	-0.056863863
10	0xbdf296dc	-0.118451804
11	0xbdfb48e0	-0.12269759
12	0x3c49295b	0.012277926
13	0xbdc408fc	-0.09572026
14	0x3b498040	0.003074661
15	0xbcf96423	-0.030443257
16	0xbdc21bf1	-0.09477986
17	0xbc274b95	-0.010210891
18	0x3c9d6b55	0.019216219
19	0xbd559d22	-0.052151807
20	0x3d824085	0.063599624
21	0x3c77a03d	0.015113887
22	0x3c67df92	0.014152424
23	0xbc2a022d	-0.010376495
24	0x3c7c775c	0.015409317
25	0xbd9e9af7	-0.07744401
26	0xbd827f57	-0.063719444
27	0x3ae25b11	0.0017269572
28	0x3dc1fdb3	0.094722174
29	0x3cf87e14	0.030333556
30	0xbd080813	-0.033210825
31	0xbc28a4d5	-0.010293205
32	0xbc8b742b	-0.017023167
33	0x3c97d43f	0.018533824
34	0xbd4595ca	-0.048238553
35	0x3d640bfd	0.055675495
36	0xbd66a335	-0.05630799
37	0x3cb1424e	0.021638062
38	0x3d9a9e8c	0.07549772
39	0xbcd0f896	-0.02550916
40	0x3d3b717c	0.045762524
41	0x3c81c54e	0.015841153
42	0x3d00ed82	0.031476505
43	0x3b54b9cd	0.0032459379
44	0xbd95b723	-0.07310321
45	0xbc7466c9	-0.014917084
46	0x3d1c45d2	0.038152523
47	0xbdd2992b	-0.10283121
48	0x3ce06bee	0.027395215
49	0xbd46e58e	-0.048558764
50	0x3d817c61	0.063225515
51	0x3bc52f94	0.0060176346
52	0x3db9f97a	0.09080787
53	0xbd4d296e	-0.05008834
54	0x3d8e8336	0.0695862
55	0xbb2fe4a6	-0.0026839166
56	0xbdeac84d	-0.114639856
57	0x3dc70754	0.097181946
58	0xbd44fd76	-0.04809328
59	0xbd94b400	-0.07260895
60	0x3c3f61c7	0.011681027
61	0x3d09d31f	0.033648606
62	0xba8f168c	-0.0010916754
63	0xbd6627c1	-0.056190256
64	0xbd684379	-0.056704972
65	0x3dbcf12a	0.09225686
66	0x3d4c8f88	0.04994157
67	0x3c96d308	0.018411174
68	0xbd2636d4	-0.040579632
69	0xbd101f38	-0.035186023
70	0xbbfed7c7	-0.0077771875
71	0x3df0c07e	0.11755465
72	0x3c94a992	0.018147264
73	0xbd389ff6	-0.045074426
74	0x3c3594e4	0.011082862
75	0x3c3c56b3	0.01149528
76	0x3dae85bb	0.08521601
77	0x3d5c835d	0.053836215
78	0x3cfb9a1a	0.03071313
79	0x3dc3733a	0.09543462
80	0x3c64c30e	0.01396252
81	0xbb0badf2	-0.0021313396
82	0x3d82fd97	0.06396025
83	0xbda7337a	-0.08164115
84	0xbd56a99e	-0.052407853
85	0x3b67f4f8	0.0035393815
86	0x3d3db4cb	0.046314996
87	0xbd0ffe1d	-0.03515445
88	0xbcd24369	-0.02566691
89	0xbbd3efa4	-0.0064677764
90	0x3d783088	0.060593158
91	0x3bb1ab72	0.005422049
92	0x3d8992ac	0.067174286
93	0x3e222d6e	0.15837643
94	0xbdd357a8	-0.103194535
95	0xb9957c6a	-0.0002851219
96	0xbd21183a	-0.039329745
97	0xbb60879f	-0.0034260524
98	0x3c168820	0.009187728
99	0x3d1d2968	0.038369566
100	0xbd37076d	-0.044684816
101	0x3c2ec5e6	0.0106673
102	0xbce528f3	-0.027973628
103	0x3dc3f78f	0.095687024
104	0xbc9ef89a	-0.019405652
105	0xbd1876ca	-0.03722266
106	0xbd7d64f5	-0.06186386
107	0xbd8c80c2	-0.06860496
108	0xbd011056	-0.03150972
109	0xbe05c8ba	-0.13064852
110	0x3ce6dd1b	0.028181603
111	0xbc8de781	-0.017322304
112	0x3c908256	0.017640274
113	0x3da46912	0.08027853
114	0x3e014081	0.12622263
115	0x3cd0570d	0.025432134
116	0xbdc652c4	-0.09683755
117	0xbc138d77	-0.009005896
118	0xbb8fc92c	-0.004387995
119	0x3d854a47	0.06508308
120	0x3d7a76dc	0.06114851
121	0xbdc94b07	-0.098287635
122	0x3d243b16	0.04009541
123	0xbcf2a572	-0.029619906
124	0xbd970801	-0.073745735
125	0xbcd0b0e9	-0.025474982
126	0x3d0da8ac	0.034584686
127	0xbd2b8304	-0.041872993
128	0xba93bc31	-0.0011271295
129	0xbd06960c	-0.03285794
130	0xbdbd3c93	-0.09240069
131	0xbd3c1119	-0.045914743
132	0xbd8493f9	-0.06473536
133	0xbd62ca19	-0.055368517
134	0xbd0a36ab	-0.03374354
135	0xbd98bd71	-0.07458008
136	0x3b9f2613	0.0048568337
137	0x3d6ed2ee	0.058306627
138	0xbd82f241	-0.063938625
139	0x3d840070	0.06445396
140	0x3d07dbd7	0.03316864
141	0xbcb77f19	-0.022399472
142	0xbd30d66f	-0.04317325
143	0x3d8e57bc	0.06950328
144	0x3da6b8c3	0.08140709
145	0xbd456174	-0.04818864
146	0x3cea6ab4	0.028615333
147	0x3c6146ff	0.013749837
148	0xbd90b1bd	-0.07065151
149	0x3c1be8f7	0.009515992
150	0x3d80a7be	0.06281994
151	0x3e1cea89	0.15323843
152	0xbc10b2fe	-0.008831738
153	0xbcf88e10	-0.030341178
154	0xbda2c327	-0.079473786
155	0xbde049ac	-0.10951552
156	0xbbefaa6a	-0.007314016
157	0xbda20d78	-0.07912725
158	0x3d4c8a09	0.049936328
159	0x3c84aecc	0.01619663
160	0xbe13d5b7	-0.14436994
161	0x3c1a8c8f	0.009432926
162	0xbcc6da4e	-0.024274018
163	0x3e04c362	0.12965158
164	0x3d8eaf42	0.069670215
165	0xbcfc9153	-0.030831015
166	0xbd53f2b9	-0.05174515
167	0x3cce6ddb	0.025198868
168	0x3d83d38d	0.064368345
169	0xbd63cbbc	-0.055614218
170	0xbda85747	-0.08219772
171	0x3d2506a7	0.040289547
172	0xbd2afcca	-0.041744985
173	0x3d62e9fb	0.055398922
174	0x3db3070c	0.087415785
175	0x3e1152ff	0.14191817
176	0xbe4a8041	-0.19775487
177	0x3d351a69	0.04421464
178	0xbd9f04b9	-0.07764573
179	0x3b320844	0.0027165571
180	0xbd3d79c5	-0.046258707
181	0xbbe43939	-0.0069648293
182	0xbdc6307c	-0.096772164
183	0xbb92ab2b	-0.004475971
184	0x3d09a1c7	0.03360155
185	0x3dab3e99	0.08361549
186	0xbe3671ee	-0.17816898
187	0xbd38a776	-0.04508158
188	0x3bb355e3	0.005472885
189	0xbca781fb	-0.020447722
190	0xbcc32c65	-0.02382488
191	0x3c51a0dc	0.0127946995
192	0xbe1cc31a	-0.153088
193	0xbdc7bee1	-0.09753204
194	0xbc7810ab	-0.015140693
195	0xbb6602d9	-0.0035096912
196	0x3d955c0c	0.07292947
197	0x3ba0b15d	0.004903956
198	0xbd1e0949	-0.038583074
199	0x3d734ba4	0.05939831
200	0x3d021273	0.031755876
201	0xbd70ce61	-0.05879057
202	0xbc8f5543	-0.01749671
203	0xbcc82e1b	-0.024436047
204	0xbc5d678e	-0.013513459
205	0x3d3dc09b	0.04632626
206	0x3bacd405	0.005274298
207	0x3da9edb6	0.08297293
208	0xbd6392d9	-0.055559967
209	0xbda29702	-0.07938959
210	0xbe0251b5	-0.12726481
211	0xbcb12aa9	-0.021626787
212	0xbbbdad50	-0.0057884827
213	0x3d392757	0.045203533
214	0xbcec8b3d	-0.028874988
215	0xbc21ef28	-0.009883679
216	0x3dcc05d7	0.09962051
217	0x3bf80816	0.0075693233
218	0x3d60a3dd	0.054843772
219	0xbc430839	-0.011903816
220	0x3d8f3e07	0.06994253
221	0xbd288eb6	-0.041151725
222	0xbc718980	-0.014742255
223	0x3d8e602d	0.06951938
224	0xbd0b7034	-0.034042552
225	0xbdc82da1	-0.09774328
226	0xbbec9415	-0.007219801
227	0x3d11c778	0.03559062
228	0x3c5bd311	0.013417021
229	0x3caba3d9	0.020952152
230	0xbc5df099	-0.0135461325
231	0xbdcf44f2	-0.10120572
232	0xbd6b8d96	-0.057508074
233	0x3d30aa9d	0.04313146
234	0x3ddd4436	0.10804026
235	0x3c98085d	0.018558675
236	0x39994831	0.0002923622
237	0xbe0e08b9	-0.13870515
238	0xbbac2ab1	-0.0052541126
239	0x3c93f1e3	0.018059677
240	0xbca34233	-0.019929027
241	0xbcd11c2e	-0.025526132
242	0x3d9245c7	0.07142215
243	0xbcd212bd	-0.0256437
244	0x3c6ab86b	0.014326195
245	0x3d47c056	0.04876741
246	0xbcf90ca0	-0.030401528
247	0x3d39b240	0.045336008
248	0x3d62e92b	0.055398148
249	0xbdb94829	-0.090469666
250	0xbca130f4	-0.019676663
251	0x3dc4b330	0.0960449
252	0xbce2fbee	-0.02770802
253	0xbd2119d9	-0.03933129
254	0x3d76c0f8	0.060242623
255	0x3d90246b	0.07038196

fc2.bias f4 [256]
0	0x00000000	0.0
1	0x00000000	0.0
2	0x00000000	0.0
3	0x00000000	0.0
4	0x00000000	0.0
5	0x00000000	0.0
6	0x00000000	0.0
7	0x00000000	0.0
8	0x00000000	0.0
9	0x00000000	0.0
10	0x00000000	0.0
11	0x00000000	0.0
12	0x00000000	0.0
13	0x00000000	0.0
14	0x00000000	0.0
15	0x00000000	0.0
16	0x00000000	0.0
17	0x00000000	0.0
18	0x00000000	0.0
19	0x00000000	0.0
20	0x00000000	0.0
21	0x00000000	0.0
22	0x00000000	0.0
23	0x00000000	0.0
24	0x00000000	0.0
25	0x00000000	0.0
26	0x00000000	0.0
27	0x00000000	0.0
28	0x00000000	0.0
29	0x00000000	0.0
30	0x00000000	0.0
31	0x00000000	0.0
32	0x00000000	0.0
33	0x00000000	0.0
34	0x00000000	0.0
35	0x00000000	0.0
36	0x00000000	0.0
37	0x00000000	0.0
38	0x00000000	0.0
39	0x00000000	0.0
40	0x00000000	0.0
41	0x00000000	0.0
42	0x00000000	0.0
43	0x00000000	0.0
44	0x00000000	0.0
45	0x00000000	0.0
46	0x00000000	0.0
47	0x00000000	0.0
48	0x00000000	0.0
49	0x00000000	0.0
50	0x00000000	0.0
51	0x00000000	0.0
52	0x00000000	0.0
53	0x00000000	0.0
54	0x00000000	0.0
55	0x00000000	0.0
56	0x00000000	0.0
57	0x00000000	0.0
58	0x00000000	0.0
59	0x00000000	0.0
60	0x00000000	0.0
61	0x00000000	0.0
62	0x00000000	0.0
63	0x00000000	0.0
64	0x00000000	0.0
65	0x00000000	0.0
66	0x00000000	0.0
67	0x00000000	0.0
68	0x00000000	0.0
69	0x00000000	0.0
70	0x00000000	0.0
71	0x00000000	0.0
72	0x00000000	0.0
73	0x00000000	0.0
74	0x00000000	0.0
75	0x00000000	0.0
76	0x00000000	0.0
77	0x00000000	0.0
78	0x00000000	0.0
79	0x00000000	0.0
80	0x00000000	0.0
81	0x00000000	0.0
82	0x00000000	0.0
83	0x00000000	0.0
84	0x00000000	0.0
85	0x00000000	0.0
86	0x00000000	0.0
87	0x00000000	0.0
88	0x00000000	0.0
89	0x00000000	0.0
90	0x00000000	0.0
91	0x00000000	0.0
92	0x00000000	0.0
93	0x00000000	0.0
94	0x00000000	0.0
95	0x00000000	0.0
96	0x00000000	0.0
97	0x00000000	0.0
98	0x00000000	0.0
99	0x00000000	0.0
100	0x00000000	0.0
101	0x00000000	0.0
102	0x00000000	0.0
103	0x00000000	0.0
104	0x00000000	0.0
105	0x00000000	0.0
106	0x00000000	0.0
107	0x00000000	0.0
108	0x00000000	0.0
109	0x00000000	0.0
110	0x00000000	0.0
111	0x00000000	0.0
112	0x00000000	0.0
113	0x00000000	0.0
114	0x00000000	0.0
115	0x00000000	0.0
116	0x00000000	0.0
117	0x00000000	0.0
118	0x00000000	0.0
119	0x00000000	0.0
120	0x00000000	0.0
121	0x00000000	0.0
122	0x00000000	0.0
123	0x00000000	0.0
124	0x00000000	0.0
125	0x00000000	0.0
126	0x00000000	0.0
127	0x00000000	0.0
128	0x00000000	0.0
129	0x00000000	0.0
130	0x00000000	0.0
131	0x00000000	0.0
132	0x00000000	0.0
133	0x00000000	0.0
134	0x00000000	0.0
135	0x00000000	0.0
136	0x00000000	0.0
137	0x00000000	0.0
138	0x00000000	0.0
139	0x00000000	0.0
140	0x00000000	0.0
141	0x00000000	0.0
142	0x00000000	0.0
143	0x00000000	0.0
144	0x00000000	0.0
145	0x00000000	0.0
146	0x00000000	0.0
147	0x00000000	0.0
148	0x00000000	0.0
149	0x00000000	0.0
150	0x00000000	0.0
151	0x00000000	0.0
152	0x00000000	0.0
153	0x00000000	0.0
154	0x00000000	0.0
155	0x00000000	0.0
156	0x00000000	0.0
157	0x00000000	0.0
158	0x00000000	0.0
159	0x00000000	0.0
160	0x00000000	0.0
161	0x00000000	0.0
162	0x00000000	0.0
163	0x00000000	0.0
164	0x00000000	0.0
165	0x00000000	0.0
166	0x00000000	0.0
167	0x00000000	0.0
168	0x00000000	0.0
169	0x00000000	0.0
170	0x00000000	0.0
171	0x00000000	0.0
172	0x00000000	0.0
173	0x00000000	0.0
174	0x00000000	0.0
175	0x00000000	0.0
176	0x00000000	0.0
177	0x00000000	0.0
178	0x00000000	0.0
179	0x00000000	0.0
180	0x00000000	0.0
181	0x00000000	0.0
182	0x00000000	0.0
183	0x00000000	0.0
184	0x00000000	0.0
185	0x00000000	0.0
186	0x00000000	0.0
187	0x00000000	0.0
188	0x00000000	0.0
189	0x00000000	0.0
190	0x00000000	0.0
191	0x00000000	0.0
192	0x00000000	0.0
193	0x00000000	0.0
194	0x00000000	0.0
195	0x00000000	0.0
196	0x00000000	0.0
197	0x00000000	0.0
198	0x00000000	0.0
199	0x00000000	0.0
200	0x00000000	0.0
201	0x00000000	0.0
202	0x00000000	0.0
203	0x00000000	0.0
204	0x00000000	0.0
205	0x00000000	0.0
206	0x00000000	0.0
207	0x00000000	0.0
208	0x00000000	0.0
209	0x00000000	0.0
210	0x00000000	0.0
211	0x00000000	0.0
212	0x00000000	0.0
213	0x00000000	0.0
214	0x00000000	0.0
215	0x00000000	0.0
216	0x00000000	0.0
217	0x00000000	0.0
218	0x00000000	0.0
219	0x00000000	0.0
220	0x00000000	0.0
221	0x00000000	0.0
222	0x00000000	0.0
223	0x00000000	0.0
224	0x00000000	0.0
225	0x00000000	0.0
226	0x00000000	0.0
227	0x00000000	0.0
228	0x00000000	0.0
229	0x00000000	0.0
230	0x00000000	0.0
231	0x00000000	0.0
232	0x00000000	0.0
233	0x00000000	0.0
234	0x00000000	0.0
235	0x00000000	0.0
236	0x00000000	0.0
237	0x00000000	0.0
238	0x00000000	0.0
239	0x00000000	0.0
240	0x00000000	0.0
241	0x00000000	0.0
242	0x00000000	0.0
243	0x00000000	0.0
244	0x00000000	0.0
245	0x00000000	0.0
246	0x00000000	0.0
247	0x00000000	0.0
248	0x00000000	0.0
249	0x00000000	0.0
250	0x00000000	0.0
251	0x00000000	0.0
252	0x00000000	0.0
253	0x00000000	0.0
254	0x00000000	0.0
255	0x00000000	0.0

fc3.weight f4 [128, 256]
0	0x3ca43ff6	0.02005003
1	0x3d177c2f	0.036983665
2	0x3c16e077	0.00920879
3	0xbbf9b329	-0.0076202345
4	0xbd06ad26	-0.03287997
5	0x3d13a5bd	0.036046732
6	0x3d819c91	0.06328691
7	0x3db21eb4	0.086972624
8	0x3d840ba1	0.064475305
9	0x3be3e481	0.00695473
10	0x3da0c321	0.07849718
11	0x3d8e7715	0.06956307
12	0x3e1fa04f	0.15588497
13	0x3ad9d601	0.0016619564
14	0xbc7d326b	-0.015453915
15	0x3d5b00a5	0.05346741
16	0xbd83b50f	-0.064310186
17	0x3db18ddf	0.08669638
18	0xbbf824e3	-0.0075727566
19	0xbc45ba29	-0.01206831
20	0x3d795229	0.06086937
21	0xbd132dad	-0.03593223
22	0x3d081405	0.033222217
23	0x3da80d51	0.08205665
24	0x3daac573	0.08338442
25	0xbd2604fb	-0.040532093
26	0xbe07e72d	-0.1327178
27	0xbddda551	-0.10822547
28	0x3d05f324	0.03270258
29	0xbd345ca5	-0.044033665
30	0x3cccc2a7	0.024995161
31	0xbd0dbe0b	-0.034605067
32	0xbd59316c	-0.053025648
33	0x3cb53f5c	0.022124939
34	0x3ac8203d	0.0015268397
35	0x3d9fa0f1	0.07794369
36	0x3dd1ba6b	0.102406345
37	0xbd1d0fc5	-0.038345117
38	0x3c0bf180	0.008541465
39	0xbd833ca8	-0.06408054
40	0x3d73b0c6	0.059494756
41	0x3cb3a860	0.021930873
42	0x3c953c92	0.018217359
43	0xbdbc50d4	-0.09195104
44	0xbe39b9e1	-0.18137313
45	0x3d121959	0.035668705
46	0x3daec97d	0.085345246
47	0xbbf11150	-0.0073568
48	0xbdba294b	-0.09089907
49	0x3d8a156b	0.067423664
50	0xbda8f0d7	-0.082490616
51	0xbd4ee3e1	-0.05051029
52	0x3cb74786	0.022372972
53	0x3d952433	0.07282295
54	0xbd3bce1e	-0.045850866
55	0xbdffc0dd	-0.124879576
56	0x3d058032	0.03259296
57	0x3e0d8342	0.13819602
58	0xbd354ceb	-0.044262808
59	0x3cadea60	0.021229923
60	0x3b7effa4	0.0038909698
61	0xbc03460b	-0.008012305
62	0x3dce273d	0.10066078
63	0xbdad6053	-0.08465638
64	0x3df703a2	0.1206124
65	0xbc06f49f	-0.008237033
66	0xbdb71e31	-0.089413054
67	0x3d4daba8	0.050212532
68	0x3d80ef34	0.062956244
69	0x3cdd57c3	0.027019387
70	0x3c76ea33	0.015070486
71	0xbd56f7c9	-0.0524824
72	0x3dac7dac	0.084224075
73	0xbe224a7b	-0.15848725
74	0xbd86b5f0	-0.065776706
75	0xbd328ffe	-0.043594353
76	0x3de5a8d9	0.11213846
77	0x3d8ac7a5	0.067763604
78	0x3c6212bf	0.013798415
79	0x3d164a8a	0.03669218
80	0x3df725e2	0.120677724
81	0xbd2d9f5d	-0.04238831
82	0x3e18fd7e	0.1494045
83	0x3d915fd6	0.070983574
84	0xbe3ffd54	-0.18748981
85	0x3df413d8	0.119178474
86	0xbcda1857	-0.026622934
87	0x3e317cf8	0.17332828
88	0x3d260a1e	0.040536992
89	0x3d64b236	0.055834018
90	0xbda90045	-0.082520045
91	0x3dae4ea4	0.08511093
92	0x3c94e1f3	0.018174147
93	0xbd620151	-0.055177037
94	0x3de4e413	0.11176314
95	0x3db0d387	0.08634096
96	0xbc42c4b2	-0.011887716
97	0x3d231c43	0.039821874
98	0x3d76c858	0.060249656
99	0xbe0af864	-0.13571316
100	0xbcabfc90	-0.020994455
101	0x3d152d2b	0.03642003
102	0xbd8c0b56	-0.068381
103	0xbd4dd8e2	-0.050255664
104	0xbdc7931e	-0.09744857
105	0xbdfd33ce	-0.123633966
106	0xbdb9b59e	-0.09067844
107	0xbdc7bbe6	-0.09752636
108	0x3cf6c8d1	0.030125054
109	0xbd972754	-0.07380548
110	0x3dad0dc3	0.084498905
111	0xbc971020	-0.018440306
112	0x3d38924f	0.045061406
113	0xbd20909d	-0.039200414
114	0x3d839be2	0.06426217
115	0xbca3caed	-0.019994223
116	0xbd51d9b7	-0.05123302
117	0x3d69b48b	0.057056945
118	0x3d522637	0.051305976
119	0x3d7df047	0.061996724
120	0x3da594d3	0.080850266
121	0x3cec2def	0.028830497
122	0xbcecc399	-0.028901862
123	0xbd01fb50	-0.03173381
124	0x3e1c8b7d	0.15287586
125	0xbcc394e6	-0.023874711
126	0x3c896c1a	0.01677518
127	0x3d0d0ee1	0.034438018
128	0x3d04c450	0.03241378
129	0x3de8b169	0.11361963
130	0x3dff79ac	0.12474379
131	0x3a6bc759	0.00089942437
132	0xbd442aa6	-0.047892235
133	0xbc046b8a	-0.00808228
134	0xbd909249	-0.07059152
135	0xbda2f8e4	-0.07957628
136	0x3de7841d	0.113044955
137	0xbd9e47ef	-0.07728564
138	0xbd613753	-0.054984402
139	0xbd3618f2	-0.044457383
140	0xbbaa00a7	-0.005188066
141	0x3c427f93	0.011871236
142	0xbbd8b1be	-0.0066129854
143	0x3cc24639	0.023715125
144	0x3d8c2122	0.06842257
145	0x3d77452a	0.060368694
146	0x3dbfb9df	0.09361624
147	0xbbda823b	-0.0066683567
148	0x3d2f6be8	0.042827517
149	0xbd4afa3f	-0.04955506
150	0xbdf60ee9	-0.12014563
151	0x3dbb1700	0.09135246
152	0x3c538a06	0.012911325
153	0x3c340395	0.010987182
154	0xbdb63364	-0.08896521
155	0x3d734a59	0.059397075
156	0x3cc63ee7	0.024199916
157	0xbd82693f	-0.0636773
158	0xbcb63643	-0.02224267
159	0xbc060a3d	-0.008181152
160	0xbd97f5ad	-0.07419906
161	0x3da530c7	0.08065944
162	0xbd2efc49	-0.042721067
163	0xbd972ee1	-0.07381988
164	0xbd51dd9d	-0.051236738
165	0xbd19f389	-0.03758577
166	0xbc6b38f8	-0.014356844
167	0x3db41455	0.087929405
168	0xbd0140a6	-0.031555794
169	0x3daf07b5	0.08546392
170	0xbd12c105	-0.03582861
171	0x3d79c1c6	0.060975812
172	0xbd45a308	-0.04825118
173	0x3d0ed00e	0.034866385
174	0xbc8f4faf	-0.01749405
175	0xbc99a711	-0.018756421
176	0xbdac0927	-0.08400183
177	0x3cfc6216	0.03080849
178	0x3d916e9e	0.07101177
179	0x3d82ffc7	0.06396442
180	0xbb7fb26b	-0.0039016258
181	0x3e01751b	0.12642328
182	0xbde31c2e	-0.11089359
183	0xbd0017ed	-0.031272817
184	0xbe11e745	-0.14248379
185	0x3d1ee111	0.03878886
186	0x3c197277	0.009365669
187	0x3d4f7d84	0.05065681
188	0x3d3e7bdc	0.04650484
189	0xbd9792fc	-0.07401082
190	0xbd4108d9	-0.04712758
191	0xbde30698	-0.11085242
192	0x3d724961	0.05915201
193	0x3c82eadc	0.01598113
194	0xbdd5be37	-0.10436671
195	0x3c48d4bf	0.012257754
196	0xbc8118d6	-0.015758913
197	0x3b1cc237	0.0023919472
198	0xbc490681	-0.012269617
199	0xbcc29204	-0.023751266
200	0x3c2df28c	0.01061691
201	0x3cc21541	0.023691775
202	0x3c199b37	0.009375385
203	0x3dab82bb	0.08374544
204	0xbdd666b8	-0.10468811
205	0x3c0e6d24	0.008693013
206	0x3e0b72a8	0.13617957
207	0xbdfa0d3f	-0.12209558
208	0x3d4781c8	0.048707753
209	0x3d0c2038	0.034210414
210	0x3d296064	0.04135169
211	0xbc50e82c	-0.012750667
212	0xbcf1dd38	-0.02952443
213	0xbd543373	-0.05180688
214	0xbe0d2683	-0.13784222
215	0x3e029180	0.12750816
216	0xbb62e1cd	-0.003461945
217	0xbd0b9e42	-0.034086473
218	0xbce08905	-0.027409086
219	0x3d66e56c	0.056371137
220	0xbe1a9b3e	-0.15098283
221	0x3b9637d0	0.00458429
222	0x3c97362d	0.01845845
223	0xbd170bb5	-0.0368764
224	0xbdd73801	-0.10508729
225	0xbcf02281	-0.029313328
226	0x3d81f953	0.06346383
227	0x3c99db1c	0.018781237
228	0xbd496e90	-0.049177706
229	0x3cfcaf47	0.030845298
230	0xbcdbf133	-0.026848411
231	0xbcec287b	-0.028827896
232	0x3cf6e767	0.030139638
233	0x3d20c13d	0.039246786
234	0xbd99df5e	-0.07513307
235	0x3d1868f1	0.037209455
236	0x3a95a44d	0.0011416763
237	0xbce78b30	-0.028264612
238	0xbcf9991f	-0.030468522
239	0xbca69e9b	-0.0203393
240	0xbcd969cf	-0.026539711
241	0x3c052cc5	0.00812835
242	0x3c9c2b65	0.01906366
243	0x3dfa1e40	0.12212801
244	0x3e0a5efe	0.13512799
245	0x3b024461	0.0019877183
246	0xbdeb67ba	-0.11494394
247	0xbe27fc55	-0.16404851
248	0xbd20615d	-0.039155353
249	0x3e12a133	0.14319305
250	0x3de143c6	0.10999255
251	0xbd1608a9	-0.036629353
252	0xbc478f0f	-0.012180104
253	0xbe029967	-0.12753831
254	0xbcc68aac	-0.024236046
255	0xbbf17e00	-0.0073697567

fc3.bias f4 [128]
0	0x00000000	0.0
1	0x00000000	0.0
2	0x00000000	0.0
3	0x00000000	0.0
4	0x00000000	0.0
5	0x00000000	0.0
6	0x00000000	0.0
7	0x00000000	0.0
8	0x00000000	0.0
9	0x00000000	0.0
10	0x00000000	0.0
11	0x00000000	0.0
12	0x00000000	0.0
13	0x00000000	0.0
14	0x00000000	0.0
15	0x00000000	0.0
16	0x00000000	0.0
17	0x00000000	0.0
18	0x00000000	0.0
19	0x00000000	0.0
20	0x00000000	0.0
21	0x00000000	0.0
22	0x00000000	0.0
23	0x00000000	0.0
24	0x00000000	0.0
25	0x00000000	0.0
26	0x00000000	0.0
27	0x00000000	0.0
28	0x00000000	0.0
29	0x00000000	0.0
30	0x00000000	0.0
31	0x00000000	0.0
32	0x00000000	0.0
33	0x00000000	0.0
34	0x00000000	0.0
35	0x00000000	0.0
36	0x00000000	0.0
37	0x00000000	0.0
38	0x00000000	0.0
39	0x00000000	0.0
40	0x00000000	0.0
41	0x00000000	0.0
42	0x00000000	0.0
43	0x00000000	0.0
44	0x00000000	0.0
45	0x00000000	0.0
46	0x00000000	0.0
47	0x00000000	0.0
48	0x00000000	0.0
49	0x00000000	0.0
50	0x00000000	0.0
51	0x00000000	0.0
52	0x00000000	0.0
53	0x00000000	0.0
54	0x00000000	0.0
55	0x00000000	0.0
56	0x00000000	0.0
57	0x00000000	0.0
58	0x00000000	0.0
59	0x00000000	0.0
60	0x00000000	0.0
61	0x00000000	0.0
62	0x00000000	0.0
63	0x00000000	0.0
64	0x00000000	0.0
65	0x00000000	0.0
66	0x00000000	0.0
67	0x00000000	0.0
68	0x00000000	0.0
69	0x00000000	0.0
70	0x00000000	0.0
71	0x00000000	0.0
72	0x00000000	0.0
73	0x00000000	0.0
74	0x00000000	0.0
75	0x00000000	0.0
76	0x00000000	0.0
77	0x00000000	0.0
78	0x00000000	0.0
79	0x00000000	0.0
80	0x00000000	0.0
81	0x00000000	0.0
82	0x00000000	0.0
83	0x00000000	0.0
84	0x00000000	0.0
85	0x00000000	0.0
86	0x00000000	0.0
87	0x00000000	0.0
88	0x00000000	0.0
89	0x00000000	0.0
90	0x00000000	0.0
91	0x00000000	0.0
92	0x00000000	0.0
93	0x00000000	0.0
94	0x00000000	0.0
95	0x00000000	0.0
96	0x00000000	0.0
97	0x00000000	0.0
98	0x00000000	0.0
99	0x00000000	0.0
100	0x00000000	0.0
101	0x00000000	0.0
102	0x00000000	0.0
103	0x00000000	0.0
104	0x00000000	0.0
105	0x00000000	0.0
106	0x00000000	0.0
107	0x00000000	0.0
108	0x00000000	0.0
109	0x00000000	0.0
110	0x00000000	0.0
111	0x00000000	0.0
112	0x00000000	0.0
113	0x00000000	0.0
114	0x00000000	0.0
115	0x00000000	0.0
116	0x00000000	0.0
117	0x00000000	0.0
118	0x00000000	0.0
119	0x00000000	0.0
120	0x00000000	0.0
121	0x00000000	0.0
122	0x00000000	0.0
123	0x00000000	0.0
124	0x00000000	0.0
125	0x00000000	0.0
126	0x00000000	0.0
127	0x00000000	0.0

action_type_head.weight f4 [5, 128]
0	0xbdaf181d	-0.08549521
1	0x3e1a47a1	0.15066387
2	0x3db9b258	0.090672195
3	0x3d275189	0.040849242
4	0x3e039cdc	0.12852806
5	0x3d34c2ae	0.044130974
6	0xbe63f1ee	-0.22260258
7	0xbeb46bb2	-0.35238415
8	0x3dcaa7c3	0.09895279
9	0xbe1d9ff7	-0.15393053
10	0xbd7d37a3	-0.061820637
11	0x3c3c988d	0.01151098
12	0xbb98f7fa	-0.004668233
13	0x3db0b8c2	0.0862899
14	0x3d83de6d	0.06438909
15	0x3d184b15	0.03718098
16	0x3e87570b	0.26433596
17	0xbe2ad4e7	-0.16682778
18	0xbd1cd366	-0.038287543
19	0x3d5dc177	0.05413958
20	0x3c884903	0.016636377
21	0xbdc7f336	-0.09763186
22	0x3d82b310	0.0638181
23	0xbdb64121	-0.08899141
24	0xbd9bbf74	-0.07604876
25	0xbe7b1366	-0.24519119
26	0xbce6a1ec	-0.028153382
27	0x3d7643a7	0.060123112
28	0xbe99ad2d	-0.30014935
29	0xbe70d8e4	-0.23520237
30	0x3d1e23cc	0.038608357
31	0xbe2abb53	-0.16673021
32	0xbc06d8f9	-0.008230441
33	0xbd91738c	-0.07102117
34	0xbe826e94	-0.2547499
35	0xbd87a6a3	-0.0662358
36	0xbc241df9	-0.010016912
37	0x3e01b2c8	0.12665856
38	0x3c007e3d	0.007842598
39	0xbe543267	-0.20722352
40	0xbc217495	-0.0098544555
41	0x3d716148	0.058930665
42	0x3ddc647c	0.107613534
43	0x3d56bdc0	0.052427053
44	0xbdcfd5bb	-0.10148188
45	0x3c223827	0.009901083
46	0xbdab3fdd	-0.0836179
47	0xbda2457a	-0.07923408
48	0x3cb1d804	0.02170945
49	0xbdc9d1a8	-0.09854442
50	0xbd0d4b08	-0.034495384
51	0xbe950bcd	-0.29110566
52	0xbc93393e	-0.017971631
53	0xbdece98a	-0.115679815
54	0xbd93c11c	-0.07214567
55	0x3d6b2ecf	0.057417687
56	0xbdc4be62	-0.09606625
57	0x3e254fd5	0.16143735
58	0x3e2d529b	0.16926043
59	0x3c8dc7c1	0.017307164
60	0x3da8ddad	0.08245406
61	0x3cf4f3db	0.029901436
62	0x3d9b2564	0.07575491
63	0x3e6c9f06	0.23107538
64	0xbdd6554a	-0.10465486
65	0xbdf78523	-0.12085941
66	0xbc74d405	-0.0149431275
67	0xbc7335f1	-0.014844404
68	0xbde9ffc0	-0.114257336
69	0x3e085c18	0.13316381
70	0xbd3b6a4c	-0.04575567
71	0xbd8deb57	-0.06929653
72	0xbd0a8908	-0.03382209
73	0x3e1221f7	0.14270769
74	0xbdcce39c	-0.100043505
75	0xbdf677ef	-0.12034594
76	0xbe2a0a2b	-0.16605441
77	0x3d34752a	0.04405705
78	0x3dafb236	0.08578913
79	0xbc9ddd50	-0.01927057
80	0xbde2dafc	-0.11076924
81	0x3dcccfd0	0.100005746
82	0x3dcbdd9c	0.09954378
83	0xbdb426d5	-0.08796469
84	0x3d8a5d66	0.067560956
85	0x3dd045f2	0.10169591
86	0xbe633c27	-0.22190915
87	0x3d8dbe86	0.06921105
88	0x3da88bc2	0.08229782
89	0xbdf37246	-0.1188703
90	0x3b85fecd	0.0040892125
91	0x3d7de44c	0.0619853
92	0xbd5bf84a	-0.053703584
93	0x3c98522d	0.018593872
94	0xbc6f1484	-0.014592294
95	0x3d6f2e04	0.058393493
96	0x3dad6e5d	0.08468316
97	0xbe2d9bf8	-0.16954029
98	0x3e27e1e3	0.16394763
99	0xbcdb3161	-0.026756944
100	0xbdf074bc	-0.11741015
101	0xbaa42504	-0.0012523239
102	0x3e5567fd	0.2084045
103	0x3dc68e8c	0.096951574
104	0xbd87c18b	-0.06628712
105	0x3cdf8a8b	0.027287742
106	0xbd29aa0d	-0.04142194
107	0x3d8c6852	0.06855835
108	0x3ddc078a	0.107436255
109	0xbd6837c7	-0.05669382
110	0xbdfba887	-0.122880034
111	0xbe4a02be	-0.19727609
112	0xbd9fdbaf	-0.07805573
113	0x3e19a594	0.1500457
114	0x3cbb03f4	0.022829033
115	0x3ca5c2e2	0.020234529
116	0xbd9cd3a0	-0.07657552
117	0xbaa7bc45	-0.0012797198
118	0x3e87108b	0.2637981
119	0x3dfb5ae6	0.12273197
120	0xbdf93cd0	-0.12169802
121	0x3d2dce5f	0.04243314
122	0x3dd8f7c5	0.10594133
123	0x3d8b3a5b	0.0679824
124	0xbcf7fb73	-0.030271268
125	0xbe005654	-0.12532932
126	0x3e4324e9	0.19057049
127	0x3dd41027	0.10354643
128	0xbda6c5b2	-0.08143176
129	0x3c8c0d72	0.017096255
130	0x3de0197b	0.1094236
131	0xbcf6d823	-0.030132359
132	0xbb5ea3fa	-0.003397225
133	0x3df1de8b	0.11810025
134	0x3e444004	0.19165045
135	0x3e87c997	0.26520988
136	0xbc0787df	-0.00827214
137	0x3d9f43fc	0.07776639
138	0xbcb656d6	-0.022258203
139	0x3d28a9e7	0.041177657
140	0xbd5f5618	-0.054525465
141	0xbb9d4b3d	-0.004800229
142	0xbdd4e62c	-0.10395464
143	0xbc667677	-0.01406633
144	0x3eabd11d	0.33557978
145	0x3e06d454	0.13166934
146	0xbe088ba9	-0.13334526
147	0x3e17ed86	0.14836702
148	0x3e1c54bf	0.15266703
149	0x3dd216f5	0.10258285
150	0x3d714544	0.058903947
151	0xbd32cb97	-0.04365119
152	0x3cacfa74	0.02111552
153	0x3e2e5200	0.17023468
154	0xbe57aa24	-0.21060997
155	0x3c23965e	0.009984581
156	0x3d5f8373	0.05456872
157	0xbe4c7122	-0.19965032
158	0xbe3f0833	-0.18655472
159	0xba174f70	-0.000577203
160	0x3e044a8b	0.12919061
161	0xbdba11b1	-0.090854056
162	0xbe25ee5c	-0.16204208
163	0xbd3b0347	-0.045657422
164	0x3e628f24	0.22124916
165	0xbd42445a	-0.047428466
166	0xbd940d50	-0.07229102
167	0x3d6394c4	0.055561796
168	0x3dfa737a	0.12229057
169	0x3d02ea33	0.03196163
170	0x3db8d2e4	0.09024599
171	0xbc85b267	-0.01632042
172	0x3e3160b7	0.1732205
173	0xbd19f7f7	-0.037589993
174	0xbd9d66c9	-0.0768562
175	0xbd816cdc	-0.063195914
176	0x3e09b03f	0.13446139
177	0xbe286eec	-0.16448563
178	0xbdb0cbdc	-0.08632633
179	0xbe01404f	-0.12622188
180	0xbc1ba673	-0.009500134
181	0xbccbab53	-0.024861967
182	0x3e03fc2c	0.12889165
183	0x3df88b64	0.12135962
184	0xbdcd8585	-0.100352325
185	0xbe7d074c	-0.24709815
186	0x3dd600fe	0.10449408
187	0xbd849153	-0.06473031
188	0x3e0b740a	0.13618484
189	0x3d177b93	0.036983084
190	0xbda8a877	-0.08235257
191	0x3d1da98a	0.038491763
192	0x3caab14a	0.020836491
193	0x3e799fa0	0.24377298
194	0xbd6d7ef0	-0.057982385
195	0x3df86c49	0.12130029
196	0xbe2b4e09	-0.16728987
197	0xbd4ff892	-0.050774164
198	0x3e843de9	0.25828484
199	0x3da5985c	0.08085701
200	0xbced281d	-0.028949792
201	0x3e2b85dc	0.16750282
202	0xbd9658a6	-0.07341127
203	0x3eab7bce	0.33492893
204	0xbd752ec4	-0.059859052
205	0x3ddb894d	0.107195474
206	0x3e9513d4	0.2911669
207	0x3d95be49	0.07311685
208	0x3d073eef	0.033019003
209	0xbdcaf952	-0.09910835
210	0x3da6b552	0.08140053
211	0x3e0d541e	0.1380162
212	0x3e1225d2	0.1427224
213	0xbda0c99c	-0.07850954
214	0xbe5303c6	-0.20606908
215	0x3dbe6ad8	0.092977226
216	0xbda40c5b	-0.08010169
217	0xbd3912ce	-0.04518395
218	0x3cd70602	0.026247982
219	0xbe6603b2	-0.22462347
220	0xbdfabcd9	-0.12243051
221	0xbd3be507	-0.045872714
222	0x3d0c6975	0.03428026
223	0xbd8b39db	-0.067981444
224	0xbd978ddb	-0.07400104
225	0x3d7ca212	0.061678
226	0xbe031b80	-0.12803459
227	0xbd98306f	-0.07431113
228	0x3e09ccc0	0.13457012
229	0xbddf615a	-0.1090724
230	0xbce79ed5	-0.02827398
231	0x3e07530d	0.13215275
232	0x3db3f913	0.087877415
233	0x3b039967	0.0020080449
234	0xbcd101a6	-0.025513481
235	0x3e4ceb4c	0.20011634
236	0x3d03dd4a	0.03219346
237	0x3d9f63ae	0.07782684
238	0x3d9e0e74	0.077176005
239	0xbdd2fdc8	-0.10302311
240	0x3dd1ca29	0.10243637
241	0x3ce6158d	0.028086448
242	0x3e281aa1	0.16416408
243	0x3c8ffd8b	0.017576953
244	0x3d57ff68	0.05273381
245	0xbdc99e44	-0.0984464
246	0x3dd2ef1e	0.10299514
247	0x3e13e9da	0.14444676
248	0x3e4ff7ad	0.20309325
249	0xbb7f7a6f	-0.0038982888
250	0x3ddee18b	0.10882863
251	0xbdf652ef	-0.12027537
252	0x3b8d3193	0.004308888
253	0xbc8e7597	-0.017390056
254	0x3d818056	0.06323306
255	0x3d835600	0.064128876

action_type_head.bias f4 [5]
0	0x00000000	0.0
1	0x00000000	0.0
2	0x00000000	0.0
3	0x00000000	0.0
4	0x00000000	0.0

raise_head.weight f4 [100, 128]
0	0xbc8b5ab4	-0.017011024
1	0x3e10bc1f	0.14134263
2	0xbe5b4ccb	-0.21416013
3	0x3d49b492	0.04924447
4	0xbb8a41ae	-0.0042192554
5	0x3df9d639	0.12199063
6	0xbc867b2a	-0.016416151
7	0xbdd8736d	-0.10568891
8	0x3cb5ea8c	0.022206567
9	0xbda4ee93	-0.08053317
10	0xbdc5f2a8	-0.09665424
11	0xbdace8c8	-0.08442837
12	0xbd21be51	-0.03948814
13	0x3cedb3fd	0.02901649
14	0x3db4c181	0.088259704
15	0xbe44dc05	-0.19224556
16	0x3d10eb0f	0.03538042
17	0xbe2cbcce	-0.16868898
18	0x3e943a41	0.28950694
19	0xbca350bf	-0.019935964
20	0x3d754cab	0.05988757
21	0x3de860e5	0.11346606
22	0x3da746f4	0.0816783
23	0xba40ed3a	-0.0007359568
24	0xb953c3ec	-0.00020195515
25	0x3d91f094	0.07125965
26	0xbe0d6fd0	-0.13812184
27	0xbc484099	-0.0122224325
28	0xbe4b048a	-0.1982595
29	0x3cbc6679	0.022998082
30	0xbe2e0385	-0.1699353
31	0xbdaf9a21	-0.0857432
32	0xbd91c5a9	-0.07117779
33	0xbc8adc33	-0.016950702
34	0x3b719d6c	0.0036867512
35	0xbe2969f7	-0.16544329
36	0x3d5be45c	0.053684577
37	0xbda70664	-0.08155516
38	0x3d85b6a2	0.06528975
39	0x3c4be299	0.012444162
40	0xbd55428b	-0.052065413
41	0xbdaf74ea	-0.085672215
42	0xbd1ea235	-0.03872891
43	0x3d3a42fd	0.04547404
44	0x3d5ebfa7	0.054381993
45	0x3d2a6a52	0.0416053
46	0x3e0fa36e	0.14027187
47	0xbcceeaa1	-0.025258364
48	0x3e12a033	0.14318924
49	0x3e26efb0	0.16302371
50	0x3dd3fe1f	0.10351204
51	0x3dd18d7e	0.102320656
52	0xbbde08fa	-0.0067759724
53	0x3b4bd0d2	0.0031099808
54	0xbd56be70	-0.05242771
55	0xbda173fb	-0.0788345
56	0xbcbdba85	-0.023160229
57	0x3c67de0f	0.014152064
58	0x3ccb4f94	0.02481822
59	0x3d692954	0.05692418
60	0x3c66f9e9	0.014097669
61	0xbe083722	-0.13302281
62	0xbdc77d85	-0.09740738
63	0xbdaae57b	-0.08344551
64	0x3d3614b6	0.044453345
65	0xbb3d1491	-0.002885137
66	0xbd557f22	-0.052123196
67	0xbd7e0061	-0.06201208
68	0xbd861642	-0.06547214
69	0xbd56fa4c	-0.052484795
70	0xbddd15c0	-0.10795164
71	0xbd94af2d	-0.07259975
72	0x3dfa4411	0.12220014
73	0x3e03e9ed	0.12882204
74	0x3cf8a071	0.030349942
75	0x3d63824f	0.055544194
76	0xbd52a225	-0.051424164
77	0xbd266e64	-0.04063262
78	0xbb925e85	-0.004466834
79	0x3ccc3f99	0.02493267
80	0x3c935d85	0.01798893
81	0xbd897752	-0.06712212
82	0x3dd47bfb	0.1037521
83	0x3c557b5b	0.0130298985
84	0x3d96dc1b	0.073662005
85	0xbc1afb82	-0.009459378
86	0x3c9de648	0.019274846
87	0xbd2d06ce	-0.042242818
88	0x3da322cb	0.079656206
89	0xbc8a059b	-0.016848376
90	0x3d6b7b6f	0.057490762
91	0x3d439ed5	0.047758896
92	0xbd09d8bf	-0.03365397
93	0xbd8c18a8	-0.0684064
94	0xbd9b99a3	-0.07597663
95	0x3e37384b	0.17892568
96	0x3ddb5983	0.107104324
97	0xbccd8e3a	-0.025092233
98	0x3e346c01	0.17619325
99	0x3db2fa2c	0.08739123
100	0x3dcd6d18	0.100305736
101	0xbd5401e5	-0.05175962
102	0xbd80472d	-0.06263576
103	0x3e026bd3	0.12736444
104	0x3d047cf5	0.03234573
105	0xbdab4e9b	-0.08364602
106	0x3e140c9f	0.1445794
107	0x3cf73ac4	0.030179389
108	0x3dcca3ce	0.09992181
109	0x3df386b7	0.11890929
110	0x3c6f5963	0.014608714
111	0x3ddb4b94	0.10707775
112	0xbbd5aedd	-0.0065210895
113	0x3e0c4459	0.13697948
114	0xbcb4b27b	-0.022057762
115	0x3aed33a1	0.0018097052
116	0x3e0e4f07	0.13897334
117	0xbdf3b5ff	-0.118999474
118	0xbca4ceeb	-0.020118197
119	0xbcd6558c	-0.026163839
120	0x3d086e68	0.033308417
121	0xbdb3f46f	-0.087868564
122	0xbd1ddef6	-0.03854271
123	0xbbce9721	-0.006304637
124	0x3dd3a1a3	0.10333564
125	0xbe38ae62	-0.18035272
126	0x3df7da84	0.121022254
127	0xbde94fbd	-0.11392162
128	0x3d51a384	0.05118133
129	0x3d82e8b3	0.0639204
130	0xbccd514c	-0.02506318
131	0x3db68c4e	0.0891348
132	0xbe0df33f	-0.13862322
133	0xbd1e166a	-0.038595594
134	0xbd54c8e5	-0.0519494
135	0xbd1baebd	-0.03800844
136	0xbd63022b	-0.05542199
137	0x3d649c1e	0.055812947
138	0xbe3faf1a	-0.1871914
139	0x3dd52c5b	0.10408851
140	0xbdd39931	-0.10331953
141	0x3c99e5e3	0.018786376
142	0x3daa67e2	0.08320595
143	0x3dc020a4	0.09381226
144	0xba9d8eee	-0.0012020746
145	0xbd3b4268	-0.045717627
146	0x3d842371	0.064520724
147	0x3e0585a8	0.13039267
148	0xbd85036b	-0.064947926
149	0x3bae8461	0.0053258394
150	0xbd570c5e	-0.05250203
151	0xbc853f86	-0.016265642
152	0xbe25487c	-0.16140932
153	0x3ce47964	0.027889915
154	0xbd11be55	-0.035581905
155	0xbe4b75cf	-0.19869159
156	0x3d9054f3	0.07047453
157	0xbe48b28a	-0.19599357
158	0x3c30179b	0.0107478155
159	0xbe120f0e	-0.14263555
160	0xbdb9eac7	-0.09077983
161	0x3e1cd2d1	0.15314795
162	0x3d3cf565	0.046132464
163	0xbe0fc200	-0.14038849
164	0x3dd1a9de	0.10237478
165	0x3d66f70b	0.056387942
166	0xbb923e54	-0.0044629965
167	0xbe3d05e3	-0.18459277
168	0xbdaecef5	-0.08535568
169	0xbcfe90cd	-0.031074906
170	0x3d67bdfc	0.056577668
171	0xbd902e15	-0.070400394
172	0x3ce7d8de	0.028301653
173	0x3e06f0f4	0.13177854
174	0xbcc2a428	-0.023759916
175	0xbdb45e46	-0.08807044
176	0xbd23866f	-0.039923128
177	0x3de4c95f	0.11171221
178	0x3cf7d4b3	0.03025279
179	0x3e342d2f	0.17595361
180	0xbe2f7b39	-0.1713685
181	0xbd8a162c	-0.0674251
182	0x3d8b466d	0.06800542
183	0xbb386f6a	-0.002814258
184	0x3cc993f1	0.024606677
185	0x3d9ef816	0.077621624
186	0xbd96c9a6	-0.0736268
187	0x3dad2fae	0.0845636
188	0xbe5064b0	-0.20350909
189	0xbdadc058	-0.08483952
190	0xbd651642	-0.05592943
191	0xbcea5ec5	-0.028609643
192	0x3e30e708	0.17275631
193	0x3ce52e3b	0.027976146
194	0x3cb1466d	0.021640027
195	0xbe0731db	-0.13202612
196	0xbe013b89	-0.12620367
197	0xbd74cbdd	-0.05976473
198	0x3e550c38	0.20805442
199	0x3c114f6e	0.008869035
200	0xbe3c7559	-0.1840414
201	0xbc86e622	-0.016467158
202	0x3dc12aad	0.09431968
203	0x3e23cf6a	0.15997091
204	0xbdeda0ec	-0.11602959
205	0xbd8909b0	-0.06691301
206	0x3d01f0e2	0.031723864
207	0x3e00b43a	0.12568751
208	0x3d98839c	0.074469775
209	0x3d899839	0.06718487
210	0x3d751861	0.059837703
211	0x3d7f80ee	0.062378816
212	0x3df276c9	0.11839063
213	0xbeb74932	-0.3579803
214	0x3e4bf209	0.19916548
215	0xbd810a94	-0.06300846
216	0x3e067420	0.13130236
217	0x3dcd27aa	0.10017331
218	0x3cf41d9d	0.029799277
219	0xbe92ee59	-0.2869747
220	0x3d92142c	0.07132754
221	0x3d83434b	0.064093195
222	0x3d5844e8	0.05280009
223	0xbe03e6bb	-0.12880985
224	0x3ceba30a	0.028764267
225	0xbc079924	-0.008276258
226	0x3d2337f9	0.0398483
227	0xbb36256f	-0.0027793308
228	0xbdba13b4	-0.09085789
229	0x3cc38b72	0.023870204
230	0xbdcb322b	-0.09921678
231	0x3d0111eb	0.03151123
232	0xb9bbcb6a	-0.00035818975
233	0x3d984c12	0.07436384
234	0xbdb9c491	-0.09070695
235	0x3ccbf535	0.024897197
236	0xbdc55746	-0.09635787
237	0x3d728981	0.059213165
238	0x3d762671	0.060095254
239	0xbdd48187	-0.10376268
240	0x3d98ad46	0.07454924
241	0x3d69299a	0.05692444
242	0x3d867dd3	0.06566968
243	0x3e03df64	0.12878186
244	0xbe449410	-0.19197106
245	0x3e01d467	0.12678681
246	0xbd06be2d	-0.03289621
247	0x3e7069df	0.23477887
248	0xbe267180	-0.16254234
249	0xbdea5e04	-0.11443713
250	0xbcc879b2	-0.024472091
251	0x3c687e38	0.014190249
252	0xbd345fcd	-0.044036675
253	0xbe2cfcbc	-0.16893286
254	0x3c13958e	0.009007825
255	0xbdd1e22f	-0.10248219

raise_head.bias f4 [100]
0	0x00000000	0.0
1	0x00000000	0.0
2	0x00000000	0.0
3	0x00000000	0.0
4	0x00000000	0.0
5	0x00000000	0.0
6	0x00000000	0.0
7	0x00000000	0.0
8	0x00000000	0.0
9	0x00000000	0.0
10	0x00000000	0.0
11	0x00000000	0.0
12	0x00000000	0.0
13	0x00000000	0.0
14	0x00000000	0.0
15	0x00000000	0.0
16	0x00000000	0.0
17	0x00000000	0.0
18	0x00000000	0.0
19	0x00000000	0.0
20	0x00000000	0.0
21	0x00000000	0.0
22	0x00000000	0.0
23	0x00000000	0.0
24	0x00000000	0.0
25	0x00000000	0.0
26	0x00000000	0.0
27	0x00000000	0.0
28	0x00000000	0.0
29	0x00000000	0.0
30	0x00000000	0.0
31	0x00000000	0.0
32	0x00000000	0.0
33	0x00000000	0.0
34	0x00000000	0.0
35	0x00000000	0.0
36	0x00000000	0.0
37	0x00000000	0.0
38	0x00000000	0.0
39	0x00000000	0.0
40	0x00000000	0.0
41	0x00000000	0.0
42	0x00000000	0.0
43	0x00000000	0.0
44	0x00000000	0.0
45	0x00000000	0.0
46	0x00000000	0.0
47	0x00000000	0.0
48	0x00000000	0.0
49	0x00000000	0.0
50	0x00000000	0.0
51	0x00000000	0.0
52	0x00000000	0.0
53	0x00000000	0.0
54	0x00000000	0.0
55	0x00000000	0.0
56	0x00000000	0.0
57	0x00000000	0.0
58	0x00000000	0.0
59	0x00000000	0.0
60	0x00000000	0.0
61	0x00000000	0.0
62	0x00000000	0.0
63	0x00000000	0.0
64	0x00000000	0.0
65	0x00000000	0.0
66	0x00000000	0.0
67	0x00000000	0.0
68	0x00000000	0.0
69	0x00000000	0.0
70	0x00000000	0.0
71	0x00000000	0.0
72	0x00000000	0.0
73	0x00000000	0.0
74	0x00000000	0.0
75	0x00000000	0.0
76	0x00000000	0.0
77	0x00000000	0.0
78	0x00000000	0.0
79	0x00000000	0.0
80	0x00000000	0.0
81	0x00000000	0.0
82	0x00000000	0.0
83	0x00000000	0.0
84	0x00000000	0.0
85	0x00000000	0.0
86	0x00000000	0.0
87	0x00000000	0.0
88	0x00000000	0.0
89	0x00000000	0.0
90	0x00000000	0.0
91	0x00000000	0.0
92	0x00000000	0.0
93	0x00000000	0.0
94	0x00000000	0.0
95	0x00000000	0.0
96	0x00000000	0.0
97	0x00000000	0.0
98	0x00000000	0.0
99	0x00000000	0.0
